checkpoint/social-stgcnn-hotel/val_best.pth (torch, 170225 bytes, 44 tensors)

fc1.weight f4 [32, 2]
0.48322773 -0.07900237 0.003092551 -0.115766905 -0.11821927 0.019764444 -0.7844269 -0.5447327
0.63162756 -0.27947035 0.70482916 0.00942655 0.09146825 0.062009178 0.5902227 0.09429031
0.5382278 -0.5534646 -0.492027 0.25870803 0.33815393 -0.7670567 -0.6367879 -0.63572145
-0.038244225 -0.029054178 0.13136688 -0.44233555 0.292159 0.0171445 0.042084023 0.55968416
-0.19976112 0.25285193 -0.13517416 -0.48669708 -0.39902425 -0.45893487 -0.4032916 0.6350644
-0.65130234 0.7567035 -0.13025826 -0.42033657 0.6027254 -0.30508476 -0.37021598 -0.11070904
0.074873984 -0.5184473 0.24698354 0.41913933 0.5430693 -0.52327293 0.43861654 -0.29107752
-0.5537675 -0.5654124 -0.62907696 0.06727938 -0.044922665 -0.3088768 -0.5282965 -0.16294323
00000000: a069 f73e ffcb a1bd 65ac 4a3b 3317 edbd
00000010: f21c f2bd 0be9 a13c 34d0 48bf 9a73 0bbf
00000020: 58b2 213f bd16 8fbe af6f 343f d171 1a3c
00000030: b553 bb3d 56fd 7d3d d618 173f 471b c13d
00000040: 4cc9 093f dbaf 0dbf f7ea fbbe 6175 843e
00000050: 8322 ad3e d45d 44bf 8804 23bf a4be 22bf
00000060: faa5 1cbd 0703 eebc 0a85 063e ce79 e2be
00000070: dd95 953e 9f72 8c3c 4c60 2c3d 7647 0f3f
00000080: 2e8e 4cbe cf75 813e 186b 0abe 5c30 f9be
00000090: e84c ccbe 83f9 eabe 3d7c cebe 9593 223f
000000a0: c0bb 26bf 52b7 413f 6c62 05be 5b36 d7be
000000b0: 364c 1a3f 1234 9cbe f38c bdbe 6cbb e2bd
000000c0: 8857 993d f6b8 04bf 41e9 7c3e 6e99 d63e
000000d0: 9706 0b3f 37f5 05bf 5992 e03e 1d08 95be
000000e0: b5c3 0dbf debe 10bf 300b 21bf c6c9 893d
000000f0: d400 38bd 1a25 9ebe 703e 07bf 97da 26be

fc1.bias f4 [32]
-0.0027233846 0.0449193 0.57471883 -0.094144166 0.0344035 0.16774745 0.44414183 0.6055601
-0.031803716 0.12593032 0.24706326 0.2753252 -0.51558673 -0.6430102 0.11127853 -0.13215728
0.6033599 0.60972404 0.03923225 -0.54586273 -0.1761757 0.48681223 0.11408358 0.23092893
0.45097554 -0.36347014 0.007879453 0.33163047 -0.25488406 -0.32685772 0.12723851 0.2963537
00000000: d07a 32bb 4dfd 373d c620 133f a8ce c0bd
00000010: afea 0c3d fdc5 2b3e 8f66 e33e fd05 1b3f
00000020: 9d44 02bd e1f3 003e 27fe 7c3e 6df7 8c3e
00000030: 7efd 03bf 519c 24bf ffe5 e33d 3d54 07be
00000040: cb75 1a3f e016 1c3f ffb1 203d a9bd 0bbf
00000050: 6767 34be 743f f93e a7a4 e93d a278 6c3e
00000060: 44e6 e63e c218 babe d218 013c 78cb a93e
00000070: 2a80 82be e559 a7be d04a 023e acbb 973e

fc_seq.weight f4 [12, 8]
-0.14418568 0.24554004 -0.1738522 0.24819659 -0.32640627 0.17262898 0.054633483 -0.24442205
-0.040751617 -0.1725272 0.00033523602 -0.08041863 -0.08234761 0.11692387 -0.17327547 -0.2272647
-0.12586436 -0.24330148 0.03189391 -0.35304028 0.1935374 0.09166337 0.011172835 -0.26443547
-0.11735651 0.04392713 -0.15182585 -0.30357346 0.3047749 -0.30456653 -0.101334974 -0.012796457
-0.26487362 0.29276794 -0.28473976 -0.217158 0.2650767 -0.02976187 -0.19873203 0.031700708
0.028974399 0.22340186 0.17285152 -0.2909673 -0.053814907 -0.1203419 -0.13290988 0.07535545
0.054358393 -0.29609033 -0.298519 0.195452 0.16146672 0.07590563 0.29225308 -0.28648734
-0.046320483 -0.085635275 0.01685406 -0.16999409 0.040277258 -0.07190623 -0.29766086 -0.23354542
0.3142709 -0.3400136 0.048239384 -0.3192331 0.114418365 0.33655587 -0.10089959 -0.057608545
-0.027961778 -0.14602341 0.11792477 0.27623066 -0.18153432 0.056416254 -0.20839728 0.22876285
0.18272871 0.20078593 0.20895885 -0.33196983 -0.094902605 0.048376825 -0.21981879 -0.06536255
0.059401643 -0.109547116 -0.278561 0.31239572 0.23324428 0.034979608 -0.17982775 -0.13832654
00000000: 69a5 13be d96e 7b3e 5006 32be 3f27 7e3e
00000010: b91e a7be a7c5 303e 5cc7 5f3d c649 7abe
00000020: 2beb 26bd f8aa 30be 9ec2 af39 86b2 a4bd
00000030: dda5 a8bd c875 ef3d 206f 31be 14b8 68be
00000040: 96e2 00be 0624 79be 30a3 023d b2c1 b4be
00000050: ab2e 463e 01ba bb3d 440e 373c 1664 87be
00000060: 9c58 f0bd efec 333d 3c78 1bbe fb6d 9bbe
00000070: 750b 9c3e 25f0 9bbe b688 cfbd 3ba8 51bc
00000080: 849d 87be aee5 953e 69c9 91be ab5e 5ebe
00000090: 22b8 873e 2acf f3bc 6980 4bbe 9ad8 013d
000000a0: b85b ed3c 75c3 643e fdff 303e aaf9 94be
000000b0: 056d 5cbd d075 f6bd 8719 08be f553 9a3d
000000c0: e8a6 5e3d 2799 97be 7bd7 98be 9224 483e
000000d0: 8857 253e 6974 9b3d 32a2 953e 78ae 92be
000000e0: 8cba 3dbd 8c61 afbd 8711 8a3c ee12 2ebe
000000f0: c4f9 243d 9343 93bd 0167 98be 8826 6fbe
00000100: 1ee8 a03e 4316 aebe a996 453d 8572 a3be
00000110: 2d54 ea3d 0d51 ac3e 72a4 cebd f0f6 6bbd
00000120: 1910 e5bc 2987 15be 8b82 f13d 1b6e 8d3e
00000130: 22e4 39be bb14 673d 1966 55be cf40 6a3e
00000140: 3c1d 3b3e d49a 4d3e 4ff9 553e f3f7 a9be
00000150: 4c5c c2bd c726 463d 2d18 61be cddc 85bd
00000160: 234f 733d 3d5a e0bd 8c9f 8ebe 55f2 9f3e
00000170: 97d7 6e3e c746 0f3d c424 38be 79a5 0dbe

fc_seq.bias f4 [12]
-0.106250264 -0.25828093 0.10738418 -0.14835243 0.33307132 -0.19033533 -0.19002555 -0.020713069
0.14481585 0.27625096 -0.32098916 -0.30648983
00000000: bd99 d9bd 663d 84be 3dec db3d b3e9 17be
00000010: 5388 aa3e 44e7 42be 0f96 42be 74ae a9bc
00000020: 9b4a 143e c470 8d3e b158 a4be 3cec 9cbe

gat1.gat.att_src f4 [1, 2, 15]
-0.0861028 -0.1593458 0.085732594 0.4105042 0.43896163 0.3420968 -0.09682438 0.3701201
-0.023000004 -0.43120402 0.3947251 0.18115467 0.14330545 0.41483963 0.26864257 0.2673037
0.16933589 0.4520349 -0.13729027 0.31669876 -0.005042478 -0.18278031 -0.13796349 -0.053474348
0.31305358 0.1431767 -0.43257064 -0.38098848 -0.13732366 0.06826839
00000000: aa56 b0bd 8c2b 23be 9294 af3d 9b2d d23e
00000010: 94bf e03e 5027 af3e dc4b c6bd 6280 bd3e
00000020: 816a bcbc c6c6 dcbe 6919 ca3e 9c80 393e
00000030: aabe 123e dc65 d43e 858b 893e 08dc 883e
00000040: 6366 2d3e 1e71 e73e d295 0cbe 5726 a23e
00000050: 5f3b a5bb c32a 3bbe 4d46 0dbe eb07 5bbd
00000060: 8f48 a03e ea9c 123e e679 ddbe ec10 c3be
00000070: 939e 0cbe 4cd0 8b3d

gat1.gat.att_dst f4 [1, 2, 15]
0.41389927 -0.007934725 -0.22517481 0.004193159 0.3933454 -0.18750492 0.45266265 -0.2725221
0.107103 0.16911082 0.21405698 -0.35020673 -0.28310797 -0.15939084 -0.15683135 0.007161897
-0.46811536 -0.24020869 -0.44985592 0.11999878 -0.26131 -0.15540278 -0.3917921 0.11151136
0.3466984 0.4975413 -0.4315696 0.48748943 -0.1257778 -0.35890192
00000000: 9bea d33e a600 02bc 3a94 66be c466 893b
00000010: 9164 c93e 4a01 40be 66c3 e73e 0488 8bbe
00000020: d158 db3d 632b 2d3e c131 5b3e 4c4e b3be
00000030: 87f3 90be 5a37 23be 6698 20be 59ae ea3b
00000040: d1ac efbe 44f9 75be 8453 e6be ecc1 f53d
00000050: 6dca 85be e821 1fbe f998 c8be 1160 e43d
00000060: 7482 b13e bcbd fe3e b1f6 dcbe 3798 f93e
00000070: e5cb 00be fec1 b7be

gat1.gat.bias f4 [30]
-0.08614858 0.006446398 -0.013322386 0.043643452 -0.056579098 -0.03984018 0.015162102 -0.0040629506
0.035773285 0.028649872 -0.0017155292 -0.001068025 -0.035829693 -0.0827469 0.0007497691 0.017250953
-0.009366437 -0.009838473 -0.008628281 0.029174814 0.013174845 0.026387438 0.00086319674 0.06820664
-0.015216077 0.0070826374 -0.01736805 -0.018426094 -0.016948711 -0.013835696
00000000: ab6e b0bd 4e3c d33b 2346 5abc 7ac3 323d
00000010: 7cbf 67bd 752f 23bd 776a 783c 8022 85bb
00000020: 0287 123d 23b3 ea3c 9cdb e0ba f9fc 8bba
00000030: 28c2 12bd 3577 a9bd 278c 443a df51 8d3c
00000040: af75 19bc 8c31 21bc a25d 0dbc 0500 ef3c
00000050: 4edb 573c 782a d83c 2748 623a ecaf 8b3d
00000060: da4c 79bc 7815 e83b 7147 8ebc 52f2 96bc
00000070: 06d8 8abc 1daf 62bc

gat1.gat.lin_src.weight f4 [30, 30]
0.037908923 -0.06263166 -0.00019811412 0.006897494 -0.10744951 -0.21480924 0.27742815 -0.062497858
0.11358908 0.0064292853 0.24235812 0.19380292 -0.1862664 -0.19534527 0.07747616 -0.1178017
0.06807231 -0.15774702 -0.09765686 0.00712338 -0.04535969 -0.2006759 -0.17152113 -0.012058579
0.16102399 -0.22061028 -0.1215042 -0.03948262 -0.18158978 0.14241682 0.1522767 -0.04486477
0.054505244 -0.043013692 -0.07648305 0.17101991 -0.015409872 0.04151061 -0.05277922 0.16216946
0.17125481 -0.1025634 -0.092634626 0.12987752 0.07729829 0.24165611 0.18950875 0.0056770924
-0.2963331 0.2177832 0.10984747 0.21873155 0.1168795 -0.007011286 0.05125665 -0.20936628
0.110368066 -0.16970006 -0.24730854 -0.048132733 0.035905544 -0.11140505 0.17901373 -0.23932773
-0.025695514 0.25133997 0.24076158 0.030870888 0.08102101 0.2539807 0.038146533 -0.22200985
-0.008482324 -0.09609579 -0.019358393 0.02750955 -0.20770079 0.03681479 0.06959927 0.13505252
0.17154217 0.00633778 -0.259123 -0.24190971 0.0024420226 0.24158265 0.0820292 0.13900344
0.22315994 -0.20128481 -0.093988605 0.20809087 -0.0034503145 0.14018804 -0.050038792 0.13278168
0.04541563 0.108138554 0.02540861 -0.22283965 -0.1546184 0.040704172 0.05456983 0.26263952
0.20715141 0.27021995 0.0149648925 -0.009811713 -0.26666197 0.262228 -0.2440513 0.22328085
0.2555322 0.24022359 0.026048368 -0.22974467 -0.11535781 0.13280539 -0.16088577 -0.1724148
-0.092169285 0.1595429 0.17729618 0.22299708 -0.10229761 0.23186912 -0.17156626 -0.26092672
-0.0117399795 -0.016845753 0.2337103 0.22582893 0.05691055 -0.25169605 -0.1962587 0.25156686
-0.08441053 -0.18944983 -0.14423577 0.29100364 0.19271252 -0.21600004 -0.19977136 0.12993108
0.13532506 0.054000363 -0.1198157 0.20353436 0.08835656 0.032644823 0.16328798 0.13141255
0.15146355 0.20685773 -0.05448365 0.18910986 0.23554304 0.22450182 -0.048508514 -0.17442168
0.055688187 0.05042462 0.11226341 -0.027549583 -0.047690526 -0.14454332 0.19618993 -0.10135372
-0.06463216 -0.13692479 0.078222305 0.040250376 0.25127095 -0.18794122 0.03211919 -0.26251695
-0.046499763 0.24264073 0.20373534 -0.033448886 0.16217665 0.21302354 -0.17269722 0.028211841
0.054226276 0.055356268 -0.12299482 -0.2148791 0.07904468 0.12537283 -0.16185586 -0.23200199
0.12986036 -0.27287495 -0.2227814 0.0013070209 -0.10883826 0.2578528 -0.1697148 0.025058972
0.032963376 -0.2575497 -0.1639058 -0.1516933 -0.24345945 -0.1716725 -0.04898707 -0.06653069
-0.012974548 0.03437947 0.26527306 0.06529465 -0.017535323 -0.0992013 -0.055825535 -0.19549017
0.022952816 -0.06021128 0.07969659 -0.21544527 -0.003072219 0.02362214 0.23418431 -0.12891488
-0.18025719 -0.09577566 -0.045980606 -0.09944565 -0.026838781 0.09706256 -0.20311902 -0.06233096
-0.039892238 0.15760781 0.18468109 -0.021975333 -0.043026105 0.21755423 0.1522483 -0.02249566
-0.2336585 0.10771215 -0.19168122 -0.19592325 -0.21997705 -0.07915904 0.09276088 0.0052779745
0.025564598 0.034660265 0.16629295 -0.2177326 -0.18552828 -0.16417211 -0.22331874 -0.15451036
00000000: 6346 1b3d 0745 80bd dbbc 4fb9 6004 e23b
00000010: 7d0e dcbd f4f6 5bbe 100b 8e3e c1fd 7fbd
00000020: 64a1 e83d c1ac d23b ba2c 783e 4674 463e
00000030: 9fbc 3ebe 9708 48be d2ab 9e3d 0542 f1bd
00000040: 7f69 8b3d 6f88 21be 5200 c8bd 3e6b e93b
00000050: 15cb 39bd fc7d 4dbe 3ca3 2fbe 5991 45bc
00000060: 79e3 243e a9e7 61be 32d7 f8bd 87b8 21bd
00000070: acf2 39be b7d5 113e 6cee 1b3e 1fc4 37bd
00000080: e440 5f3d 202f 30bd 25a3 9cbd d81f 2f3e
00000090: b079 7cbc 0807 2a3d 062f 58bd c00f 263e
000000a0: 6c5d 2f3e c30c d2bd 39b7 bdbd 9dfe 043e
000000b0: 914e 9e3d b374 773e 950e 423e e706 ba3b
000000c0: f9b8 97be 8f02 5f3e b6f7 e03d 2afb 5f3e
000000d0: 855e ef3d eebe e5bb 7ef2 513d 1d64 56be
000000e0: a708 e23d dac5 2dbe 733e 7dbe d426 45bd
000000f0: b111 133d 5528 e4bd 604f 373e 5412 75be
00000100: 667f d2bc a2af 803e 348a 763e f2e4 fc3c
00000110: 58ee a53d c209 823e 8a3f 1c3d 8d56 63be
00000120: 72f9 0abc dfcd c4bd 7e95 9ebc b55b e13c
00000130: 84af 54be 1bcb 163d 108a 8e3d 354b 0a3e
00000140: c0a8 2f3e 27ad cf3b c5ab 84be 2eb7 77be
00000150: 570a 203b 7161 773e edfe a73d eb56 0e3e
00000160: 0a84 643e 9b1d 4ebe 197d c0bd c615 553e
00000170: ac1e 62bb 748d 0f3e 7af5 4cbd ecf7 073e
00000180: bd05 3a3d bf77 dd3d b825 d03c 1430 64be
00000190: 4954 1ebe 6bb9 263d 9d84 5f3d b078 863e
000001a0: 801f 543e 455a 8a3e 4f2f 753c 4fc1 20bc
000001b0: eb87 88be c042 863e 96e8 79be bca3 643e
000001c0: 1ed5 823e 2cfd 753e 6363 d53c 3042 6bbe
000001d0: b740 ecbd 23fe 073e 3dbf 24be 818d 30be
000001e0: 40c3 bcbd 375f 233e 218d 353e 5959 643e
000001f0: 6981 d1bd 196f 6d3e 11af 2fbe 3098 85be
00000200: 0b59 40bc 1b00 8abc c151 6f3e b33f 673e
00000210: 091b 693d 4ede 80be 0af8 48be 5fcd 803e
00000220: 6edf acbd 23ff 41be 8bb2 13be 6efe 943e
00000230: 6e56 453e 1d2f 5dbe dd90 4cbe a70c 053e
00000240: a792 0a3e 7c2f 5d3d ef61 f5bd 506b 503e
00000250: 49f4 b43d 94b6 053d f734 273e 0391 063e
00000260: 4319 1b3e 83d2 533e 3f2a 5fbd 04a6 413e
00000270: 3232 713e cee3 653e ddb0 46bd 999b 32be
00000280: 4c19 643d 0c8a 4e3d 5cea e53d aaaf e1bc
00000290: 2457 43bd 2a03 14be 03e6 483e 8a92 cfbd
000002a0: de5d 84bd 0336 0cbe 0433 a03d 94dd 243d
000002b0: 96a6 803e aa73 40be 698f 033d 9f68 86be
000002c0: 8976 3ebd d076 783e ff9f 503e b301 09bd
000002d0: a311 263e d822 5a3e 8ad7 30be 851c e73c
000002e0: 5f1c 5e3d 41bd 623d b5e4 fbbd 4409 5cbe
000002f0: 2de2 a13d bc61 003e 8bbd 25be ee91 6dbe
00000300: 1dfa 043e 44b6 8bbe cf20 64be 5850 ab3a
00000310: 98e6 debd 4805 843e b7c9 2dbe 7948 cd3c
00000320: 9b04 073d 8edd 83be ecd6 27be 7d55 1bbe
00000330: 6f4d 79be eaca 2fbe aaa6 48bd 3e41 88bd
00000340: 3393 54bc 7dd1 0c3d dfd1 873e 34b9 853d
00000350: 3da6 8fbc 0d2a cbbd 51a9 64bd 932e 48be
00000360: 8b07 bc3c 1aa0 76bd f737 a33d af9d 5cbe
00000370: 4857 49bb 3883 c13c 03ce 6f3e 4302 04be
00000380: 5795 38be 0726 c4bd 2956 3cbd 29aa cbbd
00000390: 01dd dbbc bcc8 c63d 6ffe 4fbe c04e 7fbd
000003a0: 0b66 23bd f163 213e 0a1d 3d3e 9d05 b4bc
000003b0: 243c 30bd 89c6 5e3e fae6 1b3e d248 b8bc
000003c0: 2c44 6fbe 3098 dc3d 1548 44be 1ba0 48be
000003d0: aa41 61be 221e a2bd 6bf9 bd3d dcf2 ac3b
000003e0: d96c d13c ecf7 0d3d b348 2a3e 4bf5 5ebe
000003f0: 20fb 3dbe bc1c 28be abad 64be f737 1ebe

gat1.gat.lin_dst.weight f4 [30, 30]
0.037908923 -0.06263166 -0.00019811412 0.006897494 -0.10744951 -0.21480924 0.27742815 -0.062497858
0.11358908 0.0064292853 0.24235812 0.19380292 -0.1862664 -0.19534527 0.07747616 -0.1178017
0.06807231 -0.15774702 -0.09765686 0.00712338 -0.04535969 -0.2006759 -0.17152113 -0.012058579
0.16102399 -0.22061028 -0.1215042 -0.03948262 -0.18158978 0.14241682 0.1522767 -0.04486477
0.054505244 -0.043013692 -0.07648305 0.17101991 -0.015409872 0.04151061 -0.05277922 0.16216946
0.17125481 -0.1025634 -0.092634626 0.12987752 0.07729829 0.24165611 0.18950875 0.0056770924
-0.2963331 0.2177832 0.10984747 0.21873155 0.1168795 -0.007011286 0.05125665 -0.20936628
0.110368066 -0.16970006 -0.24730854 -0.048132733 0.035905544 -0.11140505 0.17901373 -0.23932773
-0.025695514 0.25133997 0.24076158 0.030870888 0.08102101 0.2539807 0.038146533 -0.22200985
-0.008482324 -0.09609579 -0.019358393 0.02750955 -0.20770079 0.03681479 0.06959927 0.13505252
0.17154217 0.00633778 -0.259123 -0.24190971 0.0024420226 0.24158265 0.0820292 0.13900344
0.22315994 -0.20128481 -0.093988605 0.20809087 -0.0034503145 0.14018804 -0.050038792 0.13278168
0.04541563 0.108138554 0.02540861 -0.22283965 -0.1546184 0.040704172 0.05456983 0.26263952
0.20715141 0.27021995 0.0149648925 -0.009811713 -0.26666197 0.262228 -0.2440513 0.22328085
0.2555322 0.24022359 0.026048368 -0.22974467 -0.11535781 0.13280539 -0.16088577 -0.1724148
-0.092169285 0.1595429 0.17729618 0.22299708 -0.10229761 0.23186912 -0.17156626 -0.26092672
-0.0117399795 -0.016845753 0.2337103 0.22582893 0.05691055 -0.25169605 -0.1962587 0.25156686
-0.08441053 -0.18944983 -0.14423577 0.29100364 0.19271252 -0.21600004 -0.19977136 0.12993108
0.13532506 0.054000363 -0.1198157 0.20353436 0.08835656 0.032644823 0.16328798 0.13141255
0.15146355 0.20685773 -0.05448365 0.18910986 0.23554304 0.22450182 -0.048508514 -0.17442168
0.055688187 0.05042462 0.11226341 -0.027549583 -0.047690526 -0.14454332 0.19618993 -0.10135372
-0.06463216 -0.13692479 0.078222305 0.040250376 0.25127095 -0.18794122 0.03211919 -0.26251695
-0.046499763 0.24264073 0.20373534 -0.033448886 0.16217665 0.21302354 -0.17269722 0.028211841
0.054226276 0.055356268 -0.12299482 -0.2148791 0.07904468 0.12537283 -0.16185586 -0.23200199
0.12986036 -0.27287495 -0.2227814 0.0013070209 -0.10883826 0.2578528 -0.1697148 0.025058972
0.032963376 -0.2575497 -0.1639058 -0.1516933 -0.24345945 -0.1716725 -0.04898707 -0.06653069
-0.012974548 0.03437947 0.26527306 0.06529465 -0.017535323 -0.0992013 -0.055825535 -0.19549017
0.022952816 -0.06021128 0.07969659 -0.21544527 -0.003072219 0.02362214 0.23418431 -0.12891488
-0.18025719 -0.09577566 -0.045980606 -0.09944565 -0.026838781 0.09706256 -0.20311902 -0.06233096
-0.039892238 0.15760781 0.18468109 -0.021975333 -0.043026105 0.21755423 0.1522483 -0.02249566
-0.2336585 0.10771215 -0.19168122 -0.19592325 -0.21997705 -0.07915904 0.09276088 0.0052779745
0.025564598 0.034660265 0.16629295 -0.2177326 -0.18552828 -0.16417211 -0.22331874 -0.15451036
00000000: 6346 1b3d 0745 80bd dbbc 4fb9 6004 e23b
00000010: 7d0e dcbd f4f6 5bbe 100b 8e3e c1fd 7fbd
00000020: 64a1 e83d c1ac d23b ba2c 783e 4674 463e
00000030: 9fbc 3ebe 9708 48be d2ab 9e3d 0542 f1bd
00000040: 7f69 8b3d 6f88 21be 5200 c8bd 3e6b e93b
00000050: 15cb 39bd fc7d 4dbe 3ca3 2fbe 5991 45bc
00000060: 79e3 243e a9e7 61be 32d7 f8bd 87b8 21bd
00000070: acf2 39be b7d5 113e 6cee 1b3e 1fc4 37bd
00000080: e440 5f3d 202f 30bd 25a3 9cbd d81f 2f3e
00000090: b079 7cbc 0807 2a3d 062f 58bd c00f 263e
000000a0: 6c5d 2f3e c30c d2bd 39b7 bdbd 9dfe 043e
000000b0: 914e 9e3d b374 773e 950e 423e e706 ba3b
000000c0: f9b8 97be 8f02 5f3e b6f7 e03d 2afb 5f3e
000000d0: 855e ef3d eebe e5bb 7ef2 513d 1d64 56be
000000e0: a708 e23d dac5 2dbe 733e 7dbe d426 45bd
000000f0: b111 133d 5528 e4bd 604f 373e 5412 75be
00000100: 667f d2bc a2af 803e 348a 763e f2e4 fc3c
00000110: 58ee a53d c209 823e 8a3f 1c3d 8d56 63be
00000120: 72f9 0abc dfcd c4bd 7e95 9ebc b55b e13c
00000130: 84af 54be 1bcb 163d 108a 8e3d 354b 0a3e
00000140: c0a8 2f3e 27ad cf3b c5ab 84be 2eb7 77be
00000150: 570a 203b 7161 773e edfe a73d eb56 0e3e
00000160: 0a84 643e 9b1d 4ebe 197d c0bd c615 553e
00000170: ac1e 62bb 748d 0f3e 7af5 4cbd ecf7 073e
00000180: bd05 3a3d bf77 dd3d b825 d03c 1430 64be
00000190: 4954 1ebe 6bb9 263d 9d84 5f3d b078 863e
000001a0: 801f 543e 455a 8a3e 4f2f 753c 4fc1 20bc
000001b0: eb87 88be c042 863e 96e8 79be bca3 643e
000001c0: 1ed5 823e 2cfd 753e 6363 d53c 3042 6bbe
000001d0: b740 ecbd 23fe 073e 3dbf 24be 818d 30be
000001e0: 40c3 bcbd 375f 233e 218d 353e 5959 643e
000001f0: 6981 d1bd 196f 6d3e 11af 2fbe 3098 85be
00000200: 0b59 40bc 1b00 8abc c151 6f3e b33f 673e
00000210: 091b 693d 4ede 80be 0af8 48be 5fcd 803e
00000220: 6edf acbd 23ff 41be 8bb2 13be 6efe 943e
00000230: 6e56 453e 1d2f 5dbe dd90 4cbe a70c 053e
00000240: a792 0a3e 7c2f 5d3d ef61 f5bd 506b 503e
00000250: 49f4 b43d 94b6 053d f734 273e 0391 063e
00000260: 4319 1b3e 83d2 533e 3f2a 5fbd 04a6 413e
00000270: 3232 713e cee3 653e ddb0 46bd 999b 32be
00000280: 4c19 643d 0c8a 4e3d 5cea e53d aaaf e1bc
00000290: 2457 43bd 2a03 14be 03e6 483e 8a92 cfbd
000002a0: de5d 84bd 0336 0cbe 0433 a03d 94dd 243d
000002b0: 96a6 803e aa73 40be 698f 033d 9f68 86be
000002c0: 8976 3ebd d076 783e ff9f 503e b301 09bd
000002d0: a311 263e d822 5a3e 8ad7 30be 851c e73c
000002e0: 5f1c 5e3d 41bd 623d b5e4 fbbd 4409 5cbe
000002f0: 2de2 a13d bc61 003e 8bbd 25be ee91 6dbe
00000300: 1dfa 043e 44b6 8bbe cf20 64be 5850 ab3a
00000310: 98e6 debd 4805 843e b7c9 2dbe 7948 cd3c
00000320: 9b04 073d 8edd 83be ecd6 27be 7d55 1bbe
00000330: 6f4d 79be eaca 2fbe aaa6 48bd 3e41 88bd
00000340: 3393 54bc 7dd1 0c3d dfd1 873e 34b9 853d
00000350: 3da6 8fbc 0d2a cbbd 51a9 64bd 932e 48be
00000360: 8b07 bc3c 1aa0 76bd f737 a33d af9d 5cbe
00000370: 4857 49bb 3883 c13c 03ce 6f3e 4302 04be
00000380: 5795 38be 0726 c4bd 2956 3cbd 29aa cbbd
00000390: 01dd dbbc bcc8 c63d 6ffe 4fbe c04e 7fbd
000003a0: 0b66 23bd f163 213e 0a1d 3d3e 9d05 b4bc
000003b0: 243c 30bd 89c6 5e3e fae6 1b3e d248 b8bc
000003c0: 2c44 6fbe 3098 dc3d 1548 44be 1ba0 48be
000003d0: aa41 61be 221e a2bd 6bf9 bd3d dcf2 ac3b
000003e0: d96c d13c ecf7 0d3d b348 2a3e 4bf5 5ebe
000003f0: 20fb 3dbe bc1c 28be abad 64be f737 1ebe

gat2.gat.att_src f4 [1, 1, 30]
0.0013080334 -0.29362658 0.101261996 0.2476752 -0.1395216 -0.26441523 -0.35220042 0.12783916
0.12470584 0.32947555 0.31814328 -0.093661636 0.16474241 0.110579334 -0.085886486 -0.009768333
-0.3581709 0.0010093375 -0.11290043 -0.09337639 0.10298179 0.060998295 0.0326477 -0.16250323
0.031925812 -0.20331822 0.35072696 -0.1544898 0.21737345 0.17407523
00000000: 5172 ab3a 3956 96be 7362 cf3d 919e 7d3e
00000010: c0de 0ebe 6f61 87be 9d53 b4be 45e8 023e
00000020: c765 ff3d 05b1 a83e ade3 a23e acd1 bfbd
00000030: 3cb2 283e 6b77 e23d 41e5 afbd 5c0b 20bc
00000040: 2d62 b7be bf4b 843a 5738 e7bd 1f3c bfbd
00000050: 1ee8 d23d 59d9 793d 98b9 053d 3f67 26be
00000060: a4c4 023d a732 50be 7c92 b33e 9332 1ebe
00000070: 2597 5e3e c740 323e

gat2.gat.att_dst f4 [1, 1, 30]
0.045271367 0.026346842 -0.027288802 0.17646635 -0.30560014 0.31458718 -0.14478703 0.2721296
0.2986887 0.07040829 -0.19866778 0.18007481 0.27851236 0.015878076 0.08571728 -0.34766814
0.060506854 0.14456514 -0.21669367 0.27752164 0.13975818 -0.24828298 -0.34572992 0.2802087
0.3706188 0.1566381 0.3710958 -0.051351056 -0.053713396 -0.30987006
00000000: 786e 393d 55d5 d73c c48c dfbc 98b3 343e
00000010: 9f77 9cbe 9211 a13e 0d43 14be 9254 8b3e
00000020: baed 983e 3932 903d 916f 4bbe 8865 383e
00000030: 2c99 8e3e bd12 823c 8b8c af3d 8f01 b2be
00000040: 09d6 773d e208 143e f2e4 5dbe 5117 8e3e
00000050: c51c 0f3e e53d 7ebe 8303 b1be 8477 8f3e
00000060: bfc1 bd3e bd65 203e 4500 be3e 7c55 52bd
00000070: 9402 5cbd 4aa7 9ebe

gat2.gat.bias f4 [30]
0.0007014673 -0.013155863 -0.028513 -0.010582165 -0.024463365 0.0029784744 -0.032685038 0.018092474
-0.015392657 0.039642718 0.01159314 -0.02633777 0.019238349 -0.08624218 -0.028215533 0.05566787
0.058808334 -0.057231274 -0.00941711 -0.019241057 0.044224136 0.08666684 0.0025365974 0.06497813
0.005300597 0.03293816 0.0051032198 -0.009797763 -0.0029134564 -0.0045999037
00000000: ace2 373a b08b 57bc 1894 e9bc d160 2dbc
00000010: 6567 c8bc 8232 433b bfe0 05bd ab36 943c
00000020: 7c31 7cbc 6760 223d 27f1 3d3c 4fc2 d7bc
00000030: be99 9d3c bd9f b0bd 4324 e7bc fe03 643d
00000040: 02e1 703d 576b 6abd 394a 1abc 6c9f 9dbc
00000050: 5e24 353d 627e b13d 0b3d 263b 4113 853d
00000060: a1b0 ad3b 2aea 063d e938 a73b cc86 20bc
00000070: b0ef 3ebb caba 96bb

gat2.gat.lin_src.weight f4 [30, 30]
-0.066108644 0.004488891 -0.25493425 0.24514796 0.056263663 -0.19455563 0.028780788 0.056602053
-0.16328701 -0.27249667 0.24391165 -0.23988764 -0.13715525 -0.14053577 -0.17599036 -0.24009287
0.18824275 -0.13106553 0.10727877 0.020084988 0.23714098 0.1362607 -0.039184567 0.27588412
-0.028601162 0.031658232 -0.20132229 0.20317937 -0.048777763 -0.26092035 -0.027986862 0.027074039
0.092104435 -0.1446289 0.20646428 0.11003936 -0.1841072 -0.16935773 0.20514554 -0.19819598
-0.16645734 -0.09672328 0.03567043 -0.026768828 -0.1961494 0.24137795 -0.07091332 -0.24207734
0.1236833 -0.030617032 0.16448252 -0.22167583 0.117973976 0.037950598 -0.071612865 -0.16308838
0.16466 0.12810032 0.00286776 -0.17104587 0.078883156 -0.02619417 0.20880166 0.16114886
-0.091043256 0.2374532 -0.16360366 -0.13378143 0.20143199 0.21495934 0.1508358 0.16717847
0.19904882 -0.014238487 -0.104698956 -0.0022714846 -0.122104645 0.2710598 -0.032997698 0.21640286
-0.018528 0.18892877 0.15620008 -0.25460967 -0.09268845 0.062796175 0.019750558 -0.25699815
-0.14873497 -0.024401145 -0.07419203 -0.21727663 -0.04302146 -0.2585376 -0.072237685 -0.022431822
-0.052757923 0.22765024 -0.044480737 -0.16939172 0.22213519 -0.13505758 -0.07732929 -0.1538474
0.1285428 0.045847084 0.1395616 -0.24320279 0.0027851127 -0.11167674 -0.28419644 -0.09248119
0.26081327 -0.15427266 -0.19012469 0.1735876 0.18224242 0.15186797 0.19744356 -0.2264359
0.10973081 0.13964386 -0.12688881 -0.29144087 -0.05384399 -0.067422524 -0.083754584 0.022570245
0.06512652 -0.14014575 0.24609676 0.2652226 -0.060521435 0.032946773 -0.10371314 0.1410954
-0.10946026 0.18959542 -0.13434929 -0.20057808 0.100391746 0.17647305 0.24393795 0.11037671
-0.028133003 0.036527302 0.06156475 0.14320202 0.22763185 0.2679645 -0.11540954 -0.017091203
0.071381405 -0.19579135 0.0069617783 0.0880188 0.25141326 0.091944456 -0.16685784 0.21850146
0.075818874 0.06835244 0.2757255 -0.22529338 0.10894348 0.03175018 0.096062504 -0.010281658
-0.033570178 -0.14927338 -0.17486723 -0.08876732 -0.21002094 -0.027678318 -0.20371036 0.04342485
-0.072744116 -0.023263749 0.0016146876 0.20685272 0.18609121 -0.20487083 0.12300993 -0.23475723
-0.03198809 -0.105097406 0.14984412 0.20021418 -0.0053567607 -0.22421859 -0.031032702 -0.16342375
0.001961542 -0.01485451 -0.21734507 0.14597501 0.16410898 0.21578221 -0.23347154 0.1869843
-0.13129377 0.24875727 0.07952132 -0.15594454 0.13357681 0.07448394 -0.066384606 -0.045357935
-0.14257851 0.08367014 0.060960073 -0.13413961 -0.25147894 -0.13752177 0.31518343 0.070036486
0.0077697295 -0.006472848 -0.16756219 -0.040532153 -0.11577525 0.049051147 -0.025454057 0.12614219
0.2621625 0.2526701 0.084700495 0.17327738 -0.21903464 0.19125032 -0.16518521 -0.22017872
0.08627835 -0.18593149 0.33136258 0.20169574 -0.007575034 -0.18331455 -0.2360858 0.20759405
0.06760666 0.22687793 0.07327593 0.061872583 0.05620261 -0.04310651 -0.21659182 0.06617788
0.025751201 -0.23582152 -0.022676377 0.18520638 -0.01781897 0.17669383 -0.11058756 0.20214953
00000000: f863 87bd 8c17 933b be86 82be 1108 7b3e
00000010: ba74 663d 9739 47be b0c5 eb3c 8ed7 673d
00000020: b634 27be af84 8bbe fac3 793e 1ba5 75be
00000030: 6d72 0cbe 9ce8 0fbe d136 34be e8da 75be
00000040: b5c2 403e 0b36 06be f9b4 db3d 4689 a43c
00000050: 16d5 723e ed87 0b3e ff7f 20bd af40 8d3e
00000060: fc4c eabc 10ac 013d 6e27 4ebe 410e 503e
00000070: 31cb 47bd 5a97 85be b444 e5bc 60ca dd3c
00000080: 40a1 bc3d 9919 14be 5f6b 533e 515c e13d
00000090: 9986 3cbe 1d6c 2dbe ac11 523e e3f3 4abe
000000a0: cb73 2abe db16 c6bd 281b 123d 4d4a dbbc
000000b0: 63db 48be c82b 773e 013b 91bd 1fe3 77be
000000c0: ac4d fd3d 92d0 fabc 1b6e 283e fdfe 62be
000000d0: 579c f13d 1672 1b3d c4a9 92bd a400 27be
000000e0: a29c 283e bb2c 033e 07f1 3b3b a626 2fbe
000000f0: 7e8d a13d 2895 d6bc 1ad0 553e 3504 253e
00000100: e374 babd ef26 733e b887 27be 00fe 08be
00000110: 3044 4e3e 4d1e 5c3e b374 1a3e d530 2b3e
00000120: 74d3 4b3e 8b48 69bc 686c d6bd 30dd 14bb
00000130: 0012 fabd 5ac8 8a3e 9828 07bd b698 5d3e
00000140: 08c8 97bc 8b76 413e eaf2 1f3e 335c 82be
00000150: 71d3 bdbd 489b 803d eccb a13c 4395 83be
00000160: fb4d 18be e9e4 c7bc fef1 97bd c47d 5ebe
00000170: 4537 30bd 0a5f 84be 5af1 93bd f1c2 b7bc
00000180: b118 58bd 251d 693e 6f31 36bd 0675 2dbe
00000190: 6877 633e 894c 0abe d25e 9ebd 2c8a 1dbe
000001a0: b9a0 033e 27ca 3b3d 3ce9 0e3e 270a 79be
000001b0: 7086 363b c6b6 e4bd 3282 91be c766 bdbd
000001c0: 5189 853e a7f9 1dbe 0cb0 42be f3c0 313e
000001d0: c29d 3a3e 4783 1b3e a52e 4a3e d0de 67be
000001e0: 8cba e03d cdfe 0e3e 24ef 01be bd37 95be
000001f0: 848b 5cbd d214 8abd 8687 abbd 3ce5 b83c
00000200: 0e61 853d 5e82 0fbe ca00 7c3e 42cb 873e
00000210: 53e5 77bd 32f3 063d 8e67 d4bd 507b 103e
00000220: b32c e0bd 4d25 423e dc92 09be 5764 4dbe
00000230: 309a cd3d 5ab5 343e dfca 793e 2f0d e23d
00000240: 2f77 e6bc a79d 153d 522b 7c3d 8da3 123e
00000250: 5318 693e a532 893e d65b ecbd da02 8cbc
00000260: 6a30 923d 877d 48be a11f e43b 3343 b43d
00000270: 3db9 803e 604d bc3d c8dc 2abe d9be 5f3e
00000280: ed46 9b3d 5dfc 8b3d e52b 8d3e 4fb3 66be
00000290: c21d df3d 7a0c 023d 6bbc c43d 6674 28bc
000002a0: e280 09bd 1fdb 18be 6510 33be a4cb b5bd
000002b0: bb0f 57be a4bd e2bc 7399 50be 41de 313d
000002c0: defa 94bd 9e93 bebc eda3 d33a 33d1 533e
000002d0: b28e 3e3e a9c9 51be a1ec fb3d 3364 70be
000002e0: f205 03bd 4f3d d7bd bd70 193e f204 4d3e
000002f0: c487 afbb 8f99 65be 4b38 febc 8e58 27be
00000300: 378d 003b 5560 73bc b58f 5ebe 797a 153e
00000310: 2f0c 283e 03f6 5c3e 2a13 6fbe d078 3f3e
00000320: e071 06be 3aba 7e3e 13dc a23d edaf 1fbe
00000330: 5cc8 083e 098b 983d a7f4 87bd 3ec9 39bd
00000340: 1a00 12be 405b ab3d 45b1 793d e55b 09be
00000350: d9c1 80be 82d2 0cbe b95f a13e 4a6f 8f3d
00000360: 3799 fe3b 2f1a d4bb 6c95 2bbe 0b05 26bd
00000370: 931b edbd dbe9 483d 0785 d0bc 6b2b 013e
00000380: 2a3a 863e fa5d 813e 7477 ad3d a06f 313e
00000390: 9e4a 60be 20d7 433e 5026 29be 8876 61be
000003a0: b4b2 b03d d364 3ebe 5ba8 a93e 5489 4e3e
000003b0: fe37 f8bb cfb6 3bbe 7ac0 71be 8993 543e
000003c0: 5c75 8a3d b052 683e b111 963d 1b6e 7d3d
000003d0: b534 663d 7490 30bd 3fca 5dbe 4588 873d
000003e0: 2ff4 d23c 327b 71be cfc3 b9bc bea6 3d3e
000003f0: 17f9 91bc 3aef 343e bb7b e2bd 4900 4f3e

gat2.gat.lin_dst.weight f4 [30, 30]
-0.066108644 0.004488891 -0.25493425 0.24514796 0.056263663 -0.19455563 0.028780788 0.056602053
-0.16328701 -0.27249667 0.24391165 -0.23988764 -0.13715525 -0.14053577 -0.17599036 -0.24009287
0.18824275 -0.13106553 0.10727877 0.020084988 0.23714098 0.1362607 -0.039184567 0.27588412
-0.028601162 0.031658232 -0.20132229 0.20317937 -0.048777763 -0.26092035 -0.027986862 0.027074039
0.092104435 -0.1446289 0.20646428 0.11003936 -0.1841072 -0.16935773 0.20514554 -0.19819598
-0.16645734 -0.09672328 0.03567043 -0.026768828 -0.1961494 0.24137795 -0.07091332 -0.24207734
0.1236833 -0.030617032 0.16448252 -0.22167583 0.117973976 0.037950598 -0.071612865 -0.16308838
0.16466 0.12810032 0.00286776 -0.17104587 0.078883156 -0.02619417 0.20880166 0.16114886
-0.091043256 0.2374532 -0.16360366 -0.13378143 0.20143199 0.21495934 0.1508358 0.16717847
0.19904882 -0.014238487 -0.104698956 -0.0022714846 -0.122104645 0.2710598 -0.032997698 0.21640286
-0.018528 0.18892877 0.15620008 -0.25460967 -0.09268845 0.062796175 0.019750558 -0.25699815
-0.14873497 -0.024401145 -0.07419203 -0.21727663 -0.04302146 -0.2585376 -0.072237685 -0.022431822
-0.052757923 0.22765024 -0.044480737 -0.16939172 0.22213519 -0.13505758 -0.07732929 -0.1538474
0.1285428 0.045847084 0.1395616 -0.24320279 0.0027851127 -0.11167674 -0.28419644 -0.09248119
0.26081327 -0.15427266 -0.19012469 0.1735876 0.18224242 0.15186797 0.19744356 -0.2264359
0.10973081 0.13964386 -0.12688881 -0.29144087 -0.05384399 -0.067422524 -0.083754584 0.022570245
0.06512652 -0.14014575 0.24609676 0.2652226 -0.060521435 0.032946773 -0.10371314 0.1410954
-0.10946026 0.18959542 -0.13434929 -0.20057808 0.100391746 0.17647305 0.24393795 0.11037671
-0.028133003 0.036527302 0.06156475 0.14320202 0.22763185 0.2679645 -0.11540954 -0.017091203
0.071381405 -0.19579135 0.0069617783 0.0880188 0.25141326 0.091944456 -0.16685784 0.21850146
0.075818874 0.06835244 0.2757255 -0.22529338 0.10894348 0.03175018 0.096062504 -0.010281658
-0.033570178 -0.14927338 -0.17486723 -0.08876732 -0.21002094 -0.027678318 -0.20371036 0.04342485
-0.072744116 -0.023263749 0.0016146876 0.20685272 0.18609121 -0.20487083 0.12300993 -0.23475723
-0.03198809 -0.105097406 0.14984412 0.20021418 -0.0053567607 -0.22421859 -0.031032702 -0.16342375
0.001961542 -0.01485451 -0.21734507 0.14597501 0.16410898 0.21578221 -0.23347154 0.1869843
-0.13129377 0.24875727 0.07952132 -0.15594454 0.13357681 0.07448394 -0.066384606 -0.045357935
-0.14257851 0.08367014 0.060960073 -0.13413961 -0.25147894 -0.13752177 0.31518343 0.070036486
0.0077697295 -0.006472848 -0.16756219 -0.040532153 -0.11577525 0.049051147 -0.025454057 0.12614219
0.2621625 0.2526701 0.084700495 0.17327738 -0.21903464 0.19125032 -0.16518521 -0.22017872
0.08627835 -0.18593149 0.33136258 0.20169574 -0.007575034 -0.18331455 -0.2360858 0.20759405
0.06760666 0.22687793 0.07327593 0.061872583 0.05620261 -0.04310651 -0.21659182 0.06617788
0.025751201 -0.23582152 -0.022676377 0.18520638 -0.01781897 0.17669383 -0.11058756 0.20214953
00000000: f863 87bd 8c17 933b be86 82be 1108 7b3e
00000010: ba74 663d 9739 47be b0c5 eb3c 8ed7 673d
00000020: b634 27be af84 8bbe fac3 793e 1ba5 75be
00000030: 6d72 0cbe 9ce8 0fbe d136 34be e8da 75be
00000040: b5c2 403e 0b36 06be f9b4 db3d 4689 a43c
00000050: 16d5 723e ed87 0b3e ff7f 20bd af40 8d3e
00000060: fc4c eabc 10ac 013d 6e27 4ebe 410e 503e
00000070: 31cb 47bd 5a97 85be b444 e5bc 60ca dd3c
00000080: 40a1 bc3d 9919 14be 5f6b 533e 515c e13d
00000090: 9986 3cbe 1d6c 2dbe ac11 523e e3f3 4abe
000000a0: cb73 2abe db16 c6bd 281b 123d 4d4a dbbc
000000b0: 63db 48be c82b 773e 013b 91bd 1fe3 77be
000000c0: ac4d fd3d 92d0 fabc 1b6e 283e fdfe 62be
000000d0: 579c f13d 1672 1b3d c4a9 92bd a400 27be
000000e0: a29c 283e bb2c 033e 07f1 3b3b a626 2fbe
000000f0: 7e8d a13d 2895 d6bc 1ad0 553e 3504 253e
00000100: e374 babd ef26 733e b887 27be 00fe 08be
00000110: 3044 4e3e 4d1e 5c3e b374 1a3e d530 2b3e
00000120: 74d3 4b3e 8b48 69bc 686c d6bd 30dd 14bb
00000130: 0012 fabd 5ac8 8a3e 9828 07bd b698 5d3e
00000140: 08c8 97bc 8b76 413e eaf2 1f3e 335c 82be
00000150: 71d3 bdbd 489b 803d eccb a13c 4395 83be
00000160: fb4d 18be e9e4 c7bc fef1 97bd c47d 5ebe
00000170: 4537 30bd 0a5f 84be 5af1 93bd f1c2 b7bc
00000180: b118 58bd 251d 693e 6f31 36bd 0675 2dbe
00000190: 6877 633e 894c 0abe d25e 9ebd 2c8a 1dbe
000001a0: b9a0 033e 27ca 3b3d 3ce9 0e3e 270a 79be
000001b0: 7086 363b c6b6 e4bd 3282 91be c766 bdbd
000001c0: 5189 853e a7f9 1dbe 0cb0 42be f3c0 313e
000001d0: c29d 3a3e 4783 1b3e a52e 4a3e d0de 67be
000001e0: 8cba e03d cdfe 0e3e 24ef 01be bd37 95be
000001f0: 848b 5cbd d214 8abd 8687 abbd 3ce5 b83c
00000200: 0e61 853d 5e82 0fbe ca00 7c3e 42cb 873e
00000210: 53e5 77bd 32f3 063d 8e67 d4bd 507b 103e
00000220: b32c e0bd 4d25 423e dc92 09be 5764 4dbe
00000230: 309a cd3d 5ab5 343e dfca 793e 2f0d e23d
00000240: 2f77 e6bc a79d 153d 522b 7c3d 8da3 123e
00000250: 5318 693e a532 893e d65b ecbd da02 8cbc
00000260: 6a30 923d 877d 48be a11f e43b 3343 b43d
00000270: 3db9 803e 604d bc3d c8dc 2abe d9be 5f3e
00000280: ed46 9b3d 5dfc 8b3d e52b 8d3e 4fb3 66be
00000290: c21d df3d 7a0c 023d 6bbc c43d 6674 28bc
000002a0: e280 09bd 1fdb 18be 6510 33be a4cb b5bd
000002b0: bb0f 57be a4bd e2bc 7399 50be 41de 313d
000002c0: defa 94bd 9e93 bebc eda3 d33a 33d1 533e
000002d0: b28e 3e3e a9c9 51be a1ec fb3d 3364 70be
000002e0: f205 03bd 4f3d d7bd bd70 193e f204 4d3e
000002f0: c487 afbb 8f99 65be 4b38 febc 8e58 27be
00000300: 378d 003b 5560 73bc b58f 5ebe 797a 153e
00000310: 2f0c 283e 03f6 5c3e 2a13 6fbe d078 3f3e
00000320: e071 06be 3aba 7e3e 13dc a23d edaf 1fbe
00000330: 5cc8 083e 098b 983d a7f4 87bd 3ec9 39bd
00000340: 1a00 12be 405b ab3d 45b1 793d e55b 09be
00000350: d9c1 80be 82d2 0cbe b95f a13e 4a6f 8f3d
00000360: 3799 fe3b 2f1a d4bb 6c95 2bbe 0b05 26bd
00000370: 931b edbd dbe9 483d 0785 d0bc 6b2b 013e
00000380: 2a3a 863e fa5d 813e 7477 ad3d a06f 313e
00000390: 9e4a 60be 20d7 433e 5026 29be 8876 61be
000003a0: b4b2 b03d d364 3ebe 5ba8 a93e 5489 4e3e
000003b0: fe37 f8bb cfb6 3bbe 7ac0 71be 8993 543e
000003c0: 5c75 8a3d b052 683e b111 963d 1b6e 7d3d
000003d0: b534 663d 7490 30bd 3fca 5dbe 4588 873d
000003e0: 2ff4 d23c 327b 71be cfc3 b9bc bea6 3d3e
000003f0: 17f9 91bc 3aef 343e bb7b e2bd 4900 4f3e

gru1.weight_ih_l0 f4 [90, 16]
0.047619134 0.16747573 -0.04425314 0.100692704 -0.137287 0.15493858 -0.051096845 -0.007425081
-0.15920702 0.16520908 0.1167565 -0.15050817 0.07520551 0.07605899 0.090339705 0.18257096
0.03008719 0.03048202 0.08091054 0.062149186 0.01545082 -0.18154563 0.02127216 0.136002
-0.17096916 0.13632597 0.121395916 -0.066787444 0.15358669 0.06772052 0.035052683 0.14813827
0.0026868323 0.14429328 -0.034456484 -0.118037775 0.07786538 -0.16528611 0.07889053 0.14925106
-0.06929113 0.07606758 -0.0526687 -0.160465 0.091778055 0.09457186 0.09667475 0.020041374
0.005276878 0.105147116 0.07915036 -0.15824136 0.078278035 0.0051649646 -0.036598094 0.01620594
0.0073214383 -0.051227696 0.112374514 -0.07331909 0.07426368 -0.019605257 -0.08750535 -0.118166015
0.040875893 0.14408155 -0.17106968 -0.10412499 0.058345374 -0.024959007 -0.084028594 0.14893912
-0.12928356 -0.056266513 0.17442536 0.07011017 0.16007917 -0.14820816 -0.07644298 0.022041949
0.10853335 -0.05641166 -0.1312907 -0.17874926 0.12731591 0.07209837 -0.14192253 0.14450265
-0.091093644 0.12694979 -0.13675423 -0.13848335 0.097948 -0.064436965 -0.033820853 -0.042882606
-0.10061814 0.13540407 -0.1541779 -0.18233404 -0.1693492 0.08592472 0.021300932 0.10321462
-0.04539985 -0.1298833 -0.14708951 -0.101951346 0.08429023 0.054262694 0.033798806 0.022677278
-0.065672494 0.13698746 -0.09721991 0.025551546 0.072398975 -0.121509306 -0.04766669 0.14184898
0.12577327 -0.15423404 -0.10836366 0.039981 0.09963088 -0.16283436 -0.091390274 0.11776461
0.18009673 -0.023735208 -0.026889848 -0.07461558 -0.048163008 -0.09845529 -0.09693806 0.022591352
0.105558015 0.069626436 0.14887486 -0.12726124 0.009667199 -0.043635637 0.034250855 -0.17817669
0.013497626 0.18033905 -0.007552099 0.07824685 -0.14177512 -0.109324604 0.111978814 0.060334
0.080359206 -0.16607174 -0.16760337 -0.109069765 0.0035626155 -0.115521796 -0.15020712 0.1813858
0.10565517 -0.09880469 0.07320346 0.1231046 0.06611037 -0.07254031 0.04410721 -0.097938746
0.17589651 0.117863595 -0.07079576 -0.15158686 -0.040308468 0.040997993 0.14845417 -0.13800654
-0.038112774 -0.03730442 -0.022403285 0.03907884 0.094348885 0.060879897 -0.14736103 0.026214538
-0.07004947 -0.04283 0.03854587 0.06255346 0.17646898 -0.11312045 -0.15353663 -0.068916716
-0.05887286 0.11721817 0.15543772 -0.11714114 -0.0692308 0.1805634 0.0828712 -0.049669266
0.109130055 -0.04796003 -0.12996799 -0.04424909 -0.102491386 -0.06617634 -0.046280507 0.17434074
0.10237212 -0.14612892 -0.10488958 -0.10243336 0.13779217 -0.020548923 -0.07168283 -0.15179858
-0.16628829 -0.022352464 -0.0005447229 -0.11151253 0.0401739 0.021618085 0.06762216 0.04126587
-0.016621055 0.042839445 0.16637427 -0.033824053 0.01025545 0.03401893 -0.15018326 0.032599643
-0.07319253 -0.13696383 -0.1758608 -0.17006332 -0.1671244 0.16772248 -0.02931877 -0.04642365
0.050935354 -0.11120273 0.13484335 -0.060824987 0.11801542 0.11035285 0.019031217 -0.10229114
0.018606003 0.16408734 0.12260222 0.092582345 0.01000235 -0.06133101 0.04158951 -0.066598006
00000000: 480c 433d c27e 2b3e c842 35bd fa37 ce3d
00000010: f794 0cbe 38a8 1e3e ed4a 51bd 184e f3bb
00000020: 2a07 23be 922c 293e 081e ef3d d01e 1abe
00000030: 5905 9a3d d1c4 9b3d 0604 b93d e2f3 3a3e
00000040: 6979 f63c 6eb5 f93c 6db4 a53d 2590 7e3d
00000050: 7025 7d3c 19e7 39be f442 ae3c 1c44 0b3e
00000060: 8a12 2fbe 0999 0b3e 6c9e f83d dbc7 88bd
00000070: d445 1d3e 0eb1 8a3d 6793 0f3d 8fb1 173e
00000080: 9115 303b 9ec1 133e 3e22 0dbd cabd f1bd
00000090: e277 9f3d c340 29be 5c91 a13d 45d5 183e
000000a0: 82e8 8dbd 52c9 9b3d 23bb 57bd f050 24be
000000b0: 22f6 bb3d e4ae c13d 69fd c53d cf2d a43c
000000c0: a9e9 ac3b 5f57 d73d 9519 a23d 060a 22be
000000d0: 3c50 a03d dd3e a93b e2e7 15bd 52c2 843c
000000e0: ade8 ef3b 22d4 51bd 9c24 e63d 5228 96bd
000000f0: 8e17 983d 349b a0bc 0136 b3bd 0601 f2bd
00000100: 7b6d 273d 1d8a 133e e42c 2fbe 7c3f d5bd
00000110: 8ffb 6e3d d576 ccbc 2f17 acbd 7f83 183e
00000120: e962 04be b777 66bd 909c 323e ec95 8f3d
00000130: cbeb 233e e1c3 17be 238e 9cbd 5191 b43c
00000140: bc46 de3d ea0f 67bd 1271 06be 0c0a 37be
00000150: 1a5f 023e 4fa8 933d 2454 11be 81f8 133e
00000160: 4e8f babd 20ff 013e 4d09 0cbe 94ce 0dbe
00000170: f698 c83d 87f7 83bd bc87 0abd aca5 2fbd
00000180: e210 cebd 5da7 0a3e d0e0 1dbe c6b5 3abe
00000190: e069 2dbe 4df9 af3d 4b7f ae3c 3062 d33d
000001a0: 31f5 39bd 2100 05be a29e 16be decb d0bd
000001b0: 5ba0 ac3d 8f42 5e3d 9e70 0a3d b3c5 b93c
000001c0: 4d7f 86bd 7146 0c3e 3b1b c7bd 7a51 d13c
000001d0: ea45 943d dfd9 f8bd 263e 43bd dc40 113e
000001e0: b5ca 003e 87ef 1dbe c4ed ddbd 1ec3 233d
000001f0: 460b cc3d 0dbe 26be d32a bbbd 922e f13d
00000200: 476b 383e 5770 c2bc 1948 dcbc 0ed0 98bd
00000210: 9346 45bd eda2 c9bd 7687 c6bd 8011 b93c
00000220: cd2e d83d 4e98 8e3d a772 183e c550 02be
00000230: 2c63 1e3c 48bb 32bd a04a 0c3d f373 36be
00000240: 2625 5d3c cdaa 383e 9977 f7bb e23f a03d
00000250: 7f2d 11be 94e5 dfbd 2655 e53d c920 773d
00000260: 5e93 a43d b60e 2abe 38a0 2bbe f85f dfbd
00000270: c57a 693b b196 ecbd e5cf 19be 33bd 393e
00000280: bd61 d83d 1d5a cabd b2eb 953d 441e fc3d
00000290: e064 873d 0490 94bd c3a9 343d 1c94 c8bd
000002a0: 371e 343e 7862 f13d 5efd 90bd 9639 1bbe
000002b0: 7e1a 25bd 83ed 273d 5f04 183e 9651 0dbe
000002c0: 241c 1cbd 85cc 18bd 1887 b7bc 2211 203d
000002d0: fd39 c13d 335d 793d cfe5 16be dfbf d63c
000002e0: 1976 8fbd 836e 2fbd 46e2 1d3d 071c 803d
000002f0: 49b4 343e b2ab e7bd b538 1dbe 3524 8dbd
00000300: ab24 71bd 1410 f03d 112b 1f3e b2e7 efbd
00000310: e1c8 8dbd 9de5 383e 60b8 a93d 0072 4bbd
00000320: 947f df3d bd71 44bd 5416 05be 893e 35bd
00000330: 01e7 d1bd 7687 87bd a190 3dbd 6186 323e
00000340: 79a8 d13d d2a2 15be 59d0 d6bd 95c8 d1bd
00000350: 6419 0d3e 3756 a8bc 73ce 92bd 1671 1bbe
00000360: 7a47 2abe 841c b7bc bccb 0eba ae60 e4bd
00000370: 638d 243d 6918 b13c 7d7d 8a3d 6706 293d
00000380: e128 88bc 6a78 2f3d 045e 2a3e 178b 0abd
00000390: 7a06 283c 6f57 0b3d a4c9 19be 3487 053d
000003a0: f7e5 95bd 3f40 0cbe db14 34be 1425 2ebe
000003b0: a922 2bbe 71bf 2b3e eb2d f0bc ba26 3ebd
000003c0: 97a1 503d 42be e3bd 6014 0a3e 9f23 79bd
000003d0: 12b2 f13d ad00 e23d 5be7 9b3c 047e d1bd
000003e0: 9e6b 983c 8306 283e df16 fb3d d09b bd3d
000003f0: e6e0 233c 3a36 7bbd c359 2a3d 8964 88bd

gru1.weight_hh_l0 f4 [90, 30]
0.03500295 0.0016470967 -0.10753134 -0.15053335 -0.13919297 -0.060789272 0.114482515 0.09643906
-0.032579925 0.047363773 0.09236472 -0.14314248 0.16192819 -0.011607812 0.17596628 -0.016172554
0.060049232 0.045765143 -0.049424157 0.019556832 -0.13482803 -0.12283755 0.17209369 -0.056621622
0.122229934 -0.005600516 0.03045982 0.15052783 0.031698484 0.10842355 0.05502985 -0.06836699
-0.1272814 -0.030611323 0.024670998 -0.021160377 -0.137504 -0.1481507 0.03056579 -0.026345212
-0.122723185 -0.07128561 -0.059355468 -0.14761187 -0.17296046 -0.14495224 -0.12785561 -0.06462322
0.04198103 -0.05992291 -0.018939393 0.17213121 -0.08347062 -0.12344868 -0.16345707 0.10111489
0.03234291 -0.09176084 -0.11433269 0.12876223 -0.06838085 -0.13827614 -0.08636885 -0.12811051
-0.0751325 0.06814581 -0.10021802 -0.14632815 0.017865486 0.01636554 -0.054507982 -0.12992415
-0.118095696 0.034244694 0.03439387 -0.16886762 0.071204536 -0.119247496 -0.0016383474 -0.17841798
-0.042526755 -0.14438005 -0.04939301 -0.1453637 0.043672875 0.05886646 0.13907638 -0.10580828
0.033045273 0.14232552 -0.14793536 -0.1730811 -0.13704666 0.1550262 0.07575901 0.15625781
-0.024492897 -0.07252782 -0.14082348 0.064077936 0.14698681 0.014721316 0.16107337 0.046238195
0.114390455 -0.1506609 0.13242564 0.092452906 -0.08610112 -0.10553492 0.08631673 0.0024284872
0.1686514 0.02066878 -0.02255642 -0.14300673 -0.16865124 0.08657925 0.13385358 -0.022272741
-0.15534385 0.08932674 -0.12132339 0.12740903 -0.09592994 -0.18160877 0.072936036 -0.08635153
0.14642964 0.10719839 0.061432436 -0.00039117405 -0.09584311 0.042427942 0.17355941 0.060410306
-0.1037304 0.041816514 -0.034338675 0.07034066 -0.1526708 -0.09014609 0.047138855 -0.10679816
0.10172033 0.055932973 0.16898437 0.17975368 -0.12667604 0.13088796 0.057850994 0.041146338
0.089107044 -0.16329727 -0.029993536 0.14997284 -0.08153118 -0.020840786 -0.121252336 0.03517389
0.038814507 -0.07314709 0.014754703 0.13213138 0.13913187 -0.0051146015 0.027177162 0.058913253
0.048317604 0.15989752 -0.17415649 0.16810802 0.008594403 0.011215528 -0.06350065 -0.045517225
-0.09065189 0.011911537 0.12973139 -0.074955 0.15058717 0.063414484 0.12513629 -0.103113525
-0.073920034 -0.14414307 -0.02845585 -0.16886702 -0.0017298455 0.16957688 0.04264302 0.08222675
0.12883075 0.08048076 0.083382495 -0.11049069 -0.045069985 -0.06419137 -0.11292583 -0.17185172
-0.16705604 0.06212659 -0.12992589 0.08809632 0.15616381 -0.11162418 -0.032298315 -0.02233157
0.16127393 -0.04731443 0.040861897 -0.16195291 0.13407937 0.14725898 -0.17289194 0.11538549
0.17469594 0.044495337 -0.082045175 0.027016997 0.14693105 -0.114866816 -0.052561883 -0.061608706
0.03440288 0.041021932 -0.06508108 -0.10743612 -0.18096761 -0.097106755 0.046430573 0.09678782
-0.044309184 -0.091650665 0.039829563 0.06091346 0.16409533 -0.14534596 0.15969571 0.13571206
-0.13069837 0.15513399 0.17047368 -0.14907138 -0.17298163 -0.031769153 0.13881736 0.09076331
-0.098864265 0.13222444 -0.08437259 -0.12418395 0.027459187 0.17931642 0.08255242 0.07876484
00000000: 415f 0f3d 65e3 d73a 6439 dcbd 6a25 1abe
00000010: 9a88 0ebe 2cfe 78bd cf75 ea3d d881 c53d
00000020: 8772 05bd 8400 423d b729 bd3d f193 12be
00000030: 81d0 253e b12e 3ebc 8130 343e 4e7c 84bc
00000040: 2ff6 753d 3b74 3b3d fc70 4abd a635 a03c
00000050: 5c10 0abe 4192 fbbd 5439 303e 13ec 67bd
00000060: b053 fa3d 8984 b7bb df86 f93c f823 1a3e
00000070: 45d6 013d 2b0d de3d fb66 613d fe03 8cbd
00000080: 0e56 02be 99c4 fabc d51a ca3c 8758 adbc
00000090: d9cd 0cbe d1b4 17be 1c65 fa3c ead1 d7bc
000000a0: 4b56 fbbd 31fe 91bd b81e 73bd 9127 17be
000000b0: 8c1c 31be 5c6e 14be 95ec 02be 2e59 84bd
000000c0: 4df4 2b3d ba71 75bd c926 9bbc 2a43 303e
000000d0: a5f2 aabd a9d2 fcbd 4a61 27be 5315 cf3d
000000e0: 007a 043d 1bed bbbd 4227 eabd 3fda 033e
000000f0: 420b 8cbd 4398 0dbe 27e2 b0bd 672f 03be
00000100: 11df 99bd 0890 8b3d 1b3f cdbd 0cd7 15be
00000110: a45a 923c 0611 863c c343 5fbd d60a 05be
00000120: 28dc f1bd 2a44 0c3d 96e0 0c3d a2eb 2cbe
00000130: afd3 913d 0838 f4bd d1bd d6ba 34b3 36be
00000140: 8930 2ebd 5dd8 13be 5350 4abd 39da 14be
00000150: 54e2 323d f51d 713d 0a6a 0e3e 03b2 d8bd
00000160: 7b5a 073d c8bd 113e 5e7c 17be 2c3c 31be
00000170: f655 0cbe 30bf 1e3e 8a27 9b3d 0c02 203e
00000180: 54a5 c8bc 7789 94bd 0834 10be 4b3b 833d
00000190: b683 163e ad31 713c 6bf0 243e 4364 3d3d
000001a0: 8b45 ea3d da46 1abe 969a 073e f357 bd3d
000001b0: c955 b0bd b122 d8bd d3c6 b03d 4127 1f3b
000001c0: f4b2 2c3e 9351 a93c 3ec8 b8bc 5b70 12be
000001d0: e9b2 2cbe 7650 b13d ea10 093e 5375 b6bc
000001e0: 7512 1fbe f0f0 b63d 6678 f8bd 8377 023e
000001f0: eb76 c4bd a6f7 39be 7d5f 953d 12d9 b0bd
00000200: a7f1 153e d48a db3d 94a0 7b3d 7e16 cdb9
00000210: 6449 c4bd ecc8 2d3d 8fb9 313e cc70 773d
00000220: 9b70 d4bd cb47 2b3d b6a6 0cbd c40e 903d
00000230: bc55 1cbe 839e b8bd ac14 413d feb8 dabd
00000240: c052 d03d f919 653d 3d0a 2d3e 5911 383e
00000250: 5db7 01be 7e07 063e 2af5 6c3d 1089 283d
00000260: c17d b63d 6637 27be 01b5 f5bc 7b92 193e
00000270: d2f9 a6bd 4cba aabc 2553 f8bd 7f12 103d
00000280: f6fb 1e3d 24ce 95bd b6bd 713c 734d 073e
00000290: 9678 0e3e 6398 a7bb a4a2 de3c 064f 713d
000002a0: aee8 453d 2dbc 233e 1456 32be 8224 2c3e
000002b0: 8acf 0c3c 55c1 373c a10c 82bd 4570 3abd
000002c0: b3a7 b9bd 9b28 433c 4ed8 043e 0282 99bd
000002d0: 8633 1a3e 74df 813d ba23 003e 2f2d d3bd
000002e0: 6363 97bd 3e9a 13be 3e1c e9bc 7aeb 2cbe
000002f0: fcbb e2ba 90a5 2d3e 73aa 2e3d 8066 a83d
00000300: 35ec 033e 19d3 a43d 71c4 aa3d f148 e2bd
00000310: 4e9b 38bd c476 83bd a845 e7bd e6f9 2fbe
00000320: bd10 2bbe 7478 7e3d 4b0b 05be d86b b43d
00000330: 68e9 1f3e 389b e4bd 3d4b 04bd b2f0 b6bc
00000340: fe24 253e c7cc 41bd ce5e 273d fcd6 25be
00000350: 1a4c 093e 0fcb 163e 960a 31be 3a4f ec3d
00000360: 7ee3 323e be40 363d 4d07 a8bd c052 dd3c
00000370: 1875 163e 4b3f ebbd 214b 57bd 6959 7cbd
00000380: 09ea 0c3d 9d06 283d 3b49 85bd 7807 dcbd
00000390: 934f 39be e8df c6bd fc2d 3e3d b138 c63d
000003a0: 8c7d 35bd 58b3 bbbd 5324 233d 6480 793d
000003b0: 9b08 283e 92d5 14be 4687 233e 1af8 0a3e
000003c0: cbd5 05be 72db 1e3e a790 2e3e 2ba6 18be
000003d0: 1922 31be 5f20 02bd 2326 0e3e 1de2 b93d
000003e0: 5979 cabd d865 073e 89cb acbd 2854 febd
000003f0: 17f2 e03c b99e 373e 3e11 a93d 764f a13d

gru1.bias_ih_l0 f4 [90]
0.08215112 0.10330216 0.036649417 0.17465624 0.090315 -0.13769574 0.025005061 -0.12621953
0.16142593 0.057707585 -0.056178104 -0.036636576 -0.1564566 0.068677045 -0.17203781 0.04633374
0.005025454 -0.10529444 -0.1464957 -0.13129848 0.09610504 -0.14603391 0.12268527 -0.061124206
-0.10467235 -0.031764496 0.12789685 0.08724354 -0.1552274 0.16888632 0.14867981 0.14196067
-0.09135012 0.050719015 -0.10874018 -0.15634693 -0.1308978 -0.08096824 -0.05958308 0.08226782
0.049730904 -0.012318903 0.011944901 0.17363061 -0.16220926 0.15424728 -0.07642396 0.16784908
0.08309207 0.07556369 0.08685063 0.09679953 0.15927246 -0.061154872 0.07437827 0.068365574
-0.115195505 -0.12103204 -0.078689866 0.029063037 0.0102908835 -0.01204813 -0.07873309 -0.07190081
0.037909627 0.039315898 -0.025698131 0.07138331 -0.10011912 0.051076584 0.13600922 -0.12834483
0.047504567 0.060115594 0.110791385 -0.00083366886 -0.17981458 -0.021280104 -0.017404666 -0.10150535
0.074822634 0.016043382 0.02611812 -0.071326874 -0.14446028 -0.15480022 -0.009476781 -0.072907984
0.143366 0.14134167
00000000: d93e a83d 1590 d33d b31d 163d 16d9 323e
00000010: 12f7 b83d 1d00 0dbe 6ad7 cc3c b13f 01be
00000020: d74c 253e ca5e 6c3d 031b 66bd 3c10 16bd
00000030: 2936 20be 8da6 8c3d ae2a 30be 73c8 3d3d
00000040: 90ac a43b 9da4 d7bd f802 16be 1c73 06be
00000050: b8d2 c43d ea89 15be 6a42 fb3d 605d 7abd
00000060: 755e d6bd 7d1b 02bd 64f7 023e beac b23d
00000070: eef3 1ebe 89f0 2c3e 853f 183e 235e 113e
00000080: c615 bbbd bebe 4f3d 2cb3 debd 6919 20be
00000090: 130a 06be add2 a5bd 630d 74bd 087c a83d
000000a0: a2b2 4b3d 39d5 49bc 8cb4 433c 39cc 313e
000000b0: 2f1a 26be 00f3 1d3e 2a84 9cbd a1e0 2b3e
000000c0: 2d2c aa3d 23c1 9a3d bede b13d d53e c63d
000000d0: 5218 233e 887d 7abd a253 983d 4003 8c3d
000000e0: 9feb ebbd a5df f7bd 2728 a1bd 9b15 ee3c
000000f0: 189b 283c 8565 45bc d03e a1bd bb40 93bd
00000100: 2047 1b3d b509 213d e384 d2bc 6a31 923d
00000110: 410b cdbd ae35 513d 0046 0b3e d46c 03be
00000120: 2694 423d c53b 763d 98e6 e23d 928a 5aba
00000130: 5021 38be 9d53 aebc 3b94 8ebc 09e2 cfbd
00000140: 9c3c 993d 696d 833c abf5 d53c d313 92bd
00000150: 65ed 13be f383 1ebe 8044 1bbc c850 95bd
00000160: 89ce 123e dfbb 103e
