checkpoint/social-stgcnn-zara2/val_best.pth (torch, 170225 bytes, 44 tensors)

fc1.weight f4 [32, 2]
00000000: ff0e 7a3e fd9b a93e c1e7 0ebf 32a0 c63e
00000010: 3f4c e0be ba8e e93d b6f9 aabe e600 4c3f
00000020: 7938 b63c f0a4 25bf 83c3 b13e 2027 8fbd
00000030: a8c9 9b3e c1a6 193f fd5a 9f3d 3e75 593e
00000040: 9e33 24bf 8a01 123f 1963 45be 34a4 ed3e
00000050: 0618 143f 76ec 143f 3764 2dbe 5344 aabe
00000060: 0c2a c9bd 96e6 f13e 04a1 14bf 9408 5e3e
00000070: 8162 293e 5fcf 58be 3671 debe 95f2 643e
00000080: 7674 efbe 0380 63bb bea0 28bf 7fee 4b3e
00000090: 80e6 51bf 8873 823e 2521 03bf d8a9 8bbd
000000a0: 44c7 483f 7dfd 07bf 3bbb 333d cceb c13e
000000b0: 760d 54bd d0bc b63d b1fd f33e 8e97 1b3e
000000c0: 2886 47bd 0437 20be 6095 1cbe 0129 c13b
000000d0: a1d6 ff3e c87d 30bf cf46 9e3e 8dac 363e
000000e0: f181 82be d133 d33e a032 c9be 6289 a7be
000000f0: 65bd cdbe 408a 15be ff5d 0e3e f5bc 203f
0.24419783 0.33126822 -0.5582238 0.38794094 -0.4380817 0.11404176 -0.3339364 0.7968887
0.022243725 -0.647048 0.34719476 -0.069898844 0.3042729 0.6002007 0.077810265 0.2123613
-0.6414126 0.570336 -0.19276084 0.4641434 0.57849157 0.5817331 -0.1693276 -0.33255252
-0.09822473 0.47246236 -0.5805819 0.2168296 0.16541483 -0.21172856 -0.43445748 0.22358163
-0.4676854 -0.0034713752 -0.65870273 0.19915198 -0.8199234 0.25478768 -0.5122245 -0.068195045
0.78429055 -0.5312117 0.04387973 0.3787521 -0.05177065 0.08922732 0.4765449 0.15194532
-0.048711926 -0.15645987 -0.15291357 0.0058947806 0.49968436 -0.68941927 0.30913398 0.1783926
-0.25489762 0.4125047 -0.39296436 -0.32722002 -0.4018356 -0.1460352 0.13903044 0.62788326

fc1.bias f4 [32]
00000000: b000 b7be f537 12bf e292 6f3e 19c8 c6be
00000010: f42c 143f c36e 9b3d 9261 633e 7f15 c63d
00000020: 4b55 ae3e e043 b7be 280f 0fbf 582e 803d
00000030: 545a dbbe 0228 48be 92e7 b63e f657 913e
00000040: 9335 c03e 6109 62be 46a1 f13e df70 703e
00000050: d128 263f 0db8 19be 06cf 1e3f d2fd e1be
00000060: a5e0 f2be 71cd b5be dfbb cfbd 6322 d63d
00000070: ebea 023f f76b 2e3e a29b de3e f760 a53e
-0.35742712 -0.57116634 0.23395875 -0.38824537 0.57881093 0.075894855 0.22205189 0.09672069
0.34049448 -0.35793972 -0.558825 0.06258839 -0.42842352 -0.19546512 0.3572355 0.2838742
0.37540874 -0.2207389 0.47193354 0.23480557 0.6490603 -0.15011616 0.6203464 -0.44138962
-0.47437015 -0.35508302 -0.101432554 0.104557775 0.51139706 0.17033373 0.43478113 0.3230054

fc_seq.weight f4 [12, 8]
00000000: 1ff0 6d3e 82af a93e bd41 b3be 36f0 b6bc
00000010: 053c 8e3d 6084 97be eadb 67be 0082 b43e
00000020: 7c04 ae3e 45e1 dd3d 49c8 dbbd 0b76 7cbd
00000030: 4d7f 0d3e 7adb 313e 9712 34bc 8c12 ae3e
00000040: 923b 7b3e 3e87 bcbd e56e a83e d277 983e
00000050: 22a7 a3be b6bf a93e b27b 903e 5bde 433e
00000060: dfe6 54be b3bd 93be ca92 683d ce7d 51bb
00000070: 1f20 823e 7709 553e 22a8 933e e645 73be
00000080: 2b00 9539 2c39 05ba df0d 8c3d 8595 3bbe
00000090: 8c82 923e 1f6f b6bd 0cdf 203e d744 c4bd
000000a0: e598 f3bc f780 92bd 806c 06bd 2427 fbbd
000000b0: 89f0 703e 3b76 5b3e 113a 79bc 4dd4 9b3e
000000c0: 1269 5b3e 28e0 04be d9eb 27bc 5369 483d
000000d0: d436 73be 467e 78be 8957 3cbd a7ff 803e
000000e0: c178 8dbe af2d eebd 3336 9e3e 8b45 8abd
000000f0: fca5 b13e 8e0d 9dbe 35fd a5be c06a 1cbb
00000100: 272e 52be 9697 9c3e be39 19be 43a9 0bbc
00000110: af48 fb3c 557d 9abe 30be 073d c95b 58be
00000120: 6813 5ebe a9fc ac3e a556 24be d0e6 9cbe
00000130: aafb 67be f35c 163c 9530 76be aebb 1a3d
00000140: 9965 033e 0dde 843e 74d4 91bd d921 973e
00000150: 8d61 21bd 6b6c 833e c9c2 46bd efaf d73d
00000160: 1dbb 903e 0282 743e cfbf 923e 6a52 86be
00000170: 3e0b 343e ce12 cabd 7e4c 8cbd 380a 91be
0.2323613 0.33141714 -0.35011092 -0.022331338 0.069450416 -0.29593182 -0.22642484 0.35255432
0.33987796 0.108339824 -0.10731561 -0.061636012 0.13818093 0.1736888 -0.01099076 0.33998525
0.24534443 -0.09205483 0.32897106 0.29778916 -0.3196345 0.33154076 0.28219372 0.1912779
-0.20791195 -0.28855667 0.056780614 -0.0031965855 0.2541513 0.20804392 0.28839213 -0.23757133
0.0002841962 -0.00050820666 0.06838583 -0.18318756 0.28615224 -0.089079134 0.15710086 -0.09583443
-0.029735992 -0.07153504 -0.032818317 -0.12263325 0.23529257 0.2143182 -0.015211598 0.3043541
0.214268 -0.12976134 -0.010249102 0.04892857 -0.23751384 -0.2426692 -0.045981918 0.25195047
-0.2763119 -0.11629807 0.30900726 -0.067515455 0.3469695 -0.30674404 -0.32419744 -0.002386734
-0.20525418 0.305844 -0.14963433 -0.008524242 0.030674307 -0.30173746 0.03314036 -0.21128763
-0.2168709 0.33786514 -0.16048677 -0.30644846 -0.22654596 0.009177434 -0.2404197 0.03777664
0.12831725 0.2595066 -0.071206 0.2951801 -0.039399672 0.25668654 -0.048525605 0.105316035
0.28267756 0.23877719 0.28661963 -0.26234752 0.17582414 -0.09866868 -0.06850527 -0.2832811

fc_seq.bias f4 [12]
00000000: 8ed9 9e3e 0d41 be3d e627 7c3e 20f8 313e
00000010: 5d0b 303e efa4 f8bd 554a 1abe fa16 adbe
00000020: 438e 913e e0c5 98bd db5e 99be ea43 8dbd
0.31025356 0.09289751 0.24624595 0.17379808 0.17191835 -0.121408336 -0.15067418 -0.33806592
0.2842885 -0.07459617 -0.2995518 -0.06897719

gat1.gat.att_src f4 [1, 2, 15]
00000000: ccd4 8f3e 146e 813e f1bb afbe da40 063e
00000010: bda3 a53e 45f6 a2be 9e15 a5be e89b 863e
00000020: f6ee 5cbe 348c 2cbd 1265 9d3e d781 9f3e
00000030: c249 7bbe 4ac5 023f d259 dbbe 3532 81be
00000040: 599b c63c 4e10 94be 3b6a 953e de8b 79be
00000050: 0bdc 5abe 65cd 2a3d 3594 88be 3471 c7be
00000060: aa9e 4abb 4bdf 3d3c cd99 b83e 5b72 b9be
00000070: 3009 e73d dd1c d1be
0.2809204 0.25279295 -0.34323075 0.13110676 0.32351485 -0.31828514 -0.32243055 0.26290822
-0.21575531 -0.042125896 0.30741173 0.31153747 -0.24539855 0.5108229 -0.42841965 -0.25233617
0.024243997 -0.2891869 0.2918261 -0.24369761 -0.21373002 0.041699786 -0.26675573 -0.38953555
-0.0030917325 0.011588882 0.3605484 -0.3622006 0.11281049 -0.40842333

gat1.gat.att_dst f4 [1, 2, 15]
00000000: 32e0 ebbe 696d ffbd 48b2 39bd e256 473d
00000010: b31e 74bd 5957 6e3e 6f94 c0be be34 ddbe
00000020: 4cdc 75be 9ae1 ab3e e4fa d4be 6fa3 8cbe
00000030: a331 32be 1d4f be3e 21b9 ae3e 7547 9dbe
00000040: a9c3 003f 3e54 a9be f7d7 983e 66c8 b83d
00000050: 33a4 e1be 265e fc3e 2556 f0be 6e91 1f3d
00000060: 2241 11bd fe9c cbbe 40f8 b63e 81f2 4cbe
00000070: 7fcc 4fbe f8b6 cd3e
-0.46069485 -0.1247204 -0.045336038 0.048666842 -0.05959959 0.23275508 -0.37613246 -0.43204302
-0.24009818 0.33570558 -0.41597664 -0.2746844 -0.17401747 0.37169734 0.34125617 -0.3071858
0.50298554 -0.33072084 0.29852268 0.09022598 -0.44070587 0.4929058 -0.46940723 0.038957052
-0.035462506 -0.39768213 0.35736275 -0.20014383 -0.20292853 0.40178657

gat1.gat.bias f4 [30]
00000000: 99e1 0abd 249c 973c 6870 613c 8602 4f3d
00000010: efc8 96bb e68b 4fbd fec6 c93c d013 9ebc
00000020: 3ee0 e2bc b908 363d 1eaf fbbc 5432 8cbd
00000030: 770c edbc 39c8 adbc f6be 8abd 0f4c 003c
00000040: d38b 10bd 4dfd 88bd 9711 65bd e502 003b
00000050: 2be6 0dbd 0be2 e2bc dabe 1e3d fd3e eabc
00000060: 19f7 2f3d a3cc 753b a816 003d c5a3 0b3d
00000070: dbed 633b 954b e1bc
-0.033906553 0.01850707 0.01375971 0.050539516 -0.00460159 -0.050670527 0.02463102 -0.019296557
-0.027694818 0.044441912 -0.03072315 -0.06845537 -0.028936608 -0.021213638 -0.06774704 0.007830634
-0.035289597 -0.06688938 -0.055924978 0.0019532975 -0.034643333 -0.027695676 0.03875623 -0.028594488
0.04296026 0.0037506006 0.031271607 0.03409173 0.0034779224 -0.02750186

gat1.gat.lin_src.weight f4 [30, 30]
00000000: 9a33 3e3e 683e 93be 29d1 45bd a852 633e
00000010: 6f35 bbba cab1 c6bd e506 a63d 8f36 37be
00000020: 8446 c0bd 42b6 e7bd 6339 003e ff05 6fbe
00000030: 0f12 b2bc 278b 8c3d 2e1c 04be e136 55be
00000040: e8e4 8dbe 47a4 6bbe 766c ac3d 66bf 40be
00000050: 38a6 2a3e 3176 d23d 2fa3 0a3e 1e24 7c3e
00000060: a6d2 b6bd 8b5d 91be df13 7bbb 451f 603d
00000070: e6c0 44bd 1b51 b93c afc7 a23d ddc0 87be
00000080: 620e ffbd e17c 9abd a1db 943e 6765 043d
00000090: 6bd0 623e 1041 9c3d a9fa 93be 3b75 153e
000000a0: 8f17 c53d eb70 c7bd 0b30 87be 34cb d3bc
000000b0: 4054 8dbd 2109 f4bd 7490 193e 1407 4fbe
000000c0: 2670 753e 3c19 093e 7e86 853e ff9c 65bd
000000d0: c8a6 bc3d 3609 193e ceb2 28bc 38ce e4bd
000000e0: ad22 0bbd f56b 193e c6f6 f83d de8b 9fbd
000000f0: c13f 983e d4fb f0bd 58cb 44be 3f5a 353e
00000100: a3f4 1f3e 42a4 16be 87c0 8f3d 9aad 1cbe
00000110: 89ef 783e c464 adbd 4811 ea3d 9438 1cbd
00000120: 6a3c f3bd 60b5 50be 2708 6ebe 9df4 e33d
00000130: 9973 4b3e c792 173e 9844 89be 46d1 31be
00000140: efa6 433e 8b6c 333e 5f17 81be 88f7 da3d
00000150: 88bb 12be a039 313e c616 053c 4e1d ea3d
00000160: 6a6d 8bbe 6941 afbd 733d 24be ecab 853c
00000170: 5239 2c3e 7ade 1cbe 8ecd 0bbe 9422 223e
00000180: dd13 703e 75ea c6bd e312 84bd c5fe bebd
00000190: 137e 8a3e d416 493e 52b4 6cbe ab32 bb3d
000001a0: 7556 09be 3a9b 263e 7463 0c3e 4cc0 c03c
000001b0: 55a4 ed3d 2cfc ea3d d295 21be 5138 b03d
000001c0: 74e0 52be 7ee9 60be a209 c23d 5c26 40be
000001d0: fd49 4abe 311b 5b3e 0630 423e a8b7 75be
000001e0: 0694 fdbd 5c8d 823e 4dbb 103e 08ea 35be
000001f0: 5855 9cbb 955f 093e 7a55 5dbe db1c 083e
00000200: 0242 183e 1a2f 48be 9c86 2a3e 386f eebd
00000210: 1f42 953d 459a 48bd 76f2 c93d 0ffd 313e
00000220: 79f1 9cbc f465 343e 9b65 0abd 9600 1bbe
00000230: 2767 49bd 0c01 0ebe 832c 053d bda7 9f3d
00000240: cd19 abbd 1e6c 1f3e e6ba e73c 9207 1bbe
00000250: 3a3e 47bd 6dd8 813e 32ae e8bd 6bc2 2abd
00000260: 9f47 d03c 1301 4dbe fc08 88be bd0a 9e3d
00000270: ba80 21be d00d 1e3e 4597 16be 5f3d 183e
00000280: dcaa 5cbe 73e6 adbd 277e 6b3e 09d0 103e
00000290: 1be6 5a3e c60d 633e 1d11 493e 2a72 ac3d
000002a0: 7866 e93d 8be4 3fbe 9778 5bbe 6d63 903c
000002b0: d021 9d3d e505 b8bb 1db5 2dbe 826a 2f3d
000002c0: b8b0 4ebe a0a7 c5bc d70a 783e 9324 293e
000002d0: ba40 84be 3944 64bd 6c16 2d3e c337 8d3e
000002e0: f09a 6cbd b5ba cf3b ae2f 22bc c74b a53d
000002f0: d4de 2e3e 4714 f1bc e2d5 863d 1af8 f43c
00000300: e3e4 83be 8f05 45be 7f0e 80bc b231 053e
00000310: 52f9 20bd 6732 aebc 765c 283d ed9e d4bd
00000320: c88d 083e a8cd b13d de9f 0dbd 74f4 5ebd
00000330: e90b 85be 68b0 0d3e 97f0 083d 36c2 d3bc
00000340: 0a22 523d b2de f4bd d95f 6ebe cd05 013d
00000350: be93 3f3e f41c 943e a76e 6d3e 1b71 67be
00000360: a418 33be 974e e63d 1bad 7f3e 5634 523e
00000370: 8846 393e 78ad 533e 0606 303e bd84 4ebe
00000380: 4c0d db3d 2dc6 b7bb d72e 1c3e 09d1 71be
00000390: 38cb 48be 40ec 68bd 2b65 b43d cbf9 c43d
000003a0: a9ca bdbc 729d bf3d f264 bb3d 97a3 0ebe
000003b0: 7444 903d 7198 a1bc d711 26be 5b35 913e
000003c0: 6835 a43d 8854 09be aeaa 0b3e 0682 1cbe
000003d0: 3f67 35be b734 8bbe 046d 3ebe ad7e 0d3e
000003e0: 4158 8d3e 4dd7 eabd e8a2 313e a667 8b3d
000003f0: a1e8 073e 311b 9b3d 526c 263e 60d4 33be
0.18574372 -0.2875855 -0.048295174 0.221995 -0.0014282892 -0.09701879 0.08106784 -0.17891906
-0.0938845 -0.1131406 0.12521891 -0.23342131 -0.021737127 0.06862479 -0.12901375 -0.20821716
-0.27713704 -0.23011886 0.08419125 -0.18823013 0.1666497 0.102764495 0.13538812 0.24623153
-0.08926897 -0.2839168 -0.0038311405 0.05471732 -0.048035525 0.022621682 0.07948243 -0.2651433
-0.12453915 -0.0754335 0.29073814 0.032323267 0.22149818 0.07629597 -0.28902176 0.14595501
0.09623634 -0.09738334 -0.2640384 -0.02585373 -0.06900835 -0.11915804 0.1499651 -0.20217544
0.23968562 0.13388532 0.26079172 -0.056057926 0.092114985 0.1494492 -0.010296537 -0.111721456
-0.033968616 0.14982589 0.12156443 -0.077903494 0.2973614 -0.117667824 -0.19218194 0.17710207
0.15620665 -0.14711097 0.070191436 -0.15300599 0.24310125 -0.08466485 0.114290774 -0.038139895
-0.118767574 -0.20381689 -0.23245297 0.11130641 0.19868316 0.14802085 -0.26810145 -0.17364988
0.19106649 0.17521875 -0.25213143 0.10691744 -0.1432935 0.17307138 0.008123105 0.11431371
-0.27231914 -0.08557398 -0.16039066 0.01631733 0.16818741 -0.15319243 -0.13652632 0.15833503
0.23445077 -0.09712688 -0.06448915 -0.09325937 0.27049312 0.19637614 -0.23115662 0.091405235
-0.13411887 0.16270152 0.13709813 0.023529194 0.116036095 0.11473879 -0.15779808 0.086044915
-0.20593435 -0.2196407 0.094744936 -0.18764633 -0.19754787 0.21397091 0.18963632 -0.2399584
-0.12381749 0.25498474 0.1413395 -0.17765057 -0.004770916 0.13415368 -0.21614638 0.13292257
0.1486893 -0.19549218 0.16652912 -0.11642307 0.07288002 -0.048975248 0.09860699 0.1738169
-0.019158112 0.17617017 -0.033788305 -0.15136942 -0.04917064 -0.13867587 0.032513153 0.077956654
-0.083545305 0.15568587 0.028287362 -0.15139607 -0.04864333 0.25360432 -0.1136135 -0.041689318
0.025424777 -0.20019941 -0.26569355 0.07716892 -0.15771762 0.15434957 -0.14706142 0.14867161
-0.21549553 -0.0849122 0.22997342 0.14141859 0.21376841 0.22173223 0.19635434 0.084202126
0.113964975 -0.18739526 -0.2143272 0.017625535 0.07672465 -0.005615937 -0.1696362 0.042826183
-0.201846 -0.024127781 0.24222885 0.16517858 -0.25830632 -0.055729125 0.16903085 0.27581605
-0.057764947 0.006339396 -0.009899063 0.08071094 0.1707719 -0.029428614 0.06583764 0.02990346
-0.25760564 -0.19240402 -0.015631912 0.13007239 -0.03930027 -0.021264268 0.041103803 -0.10381875
0.13335335 0.08681804 -0.03457629 -0.054432347 -0.2598565 0.13836825 0.03343257 -0.025849443
0.051301993 -0.11956538 -0.2327875 0.031499673 0.18708703 0.2892834 0.23186742 -0.2260174
-0.17489868 0.112454586 0.24968378 0.20527777 0.18093312 0.20671642 0.17189798 -0.20167823
0.106958956 -0.005608341 0.15252243 -0.23614897 -0.19608772 -0.05686593 0.08808359 0.09617957
-0.023167925 0.09356202 0.09150113 -0.13929592 0.070443064 -0.01972601 -0.16217743 0.2836102
0.08017999 -0.13411152 0.13639328 -0.15283975 -0.17715167 -0.27188656 -0.18596274 0.13817854
0.27606395 -0.114668466 0.173473 0.06806879 0.13272335 0.07573546 0.16252258 -0.17561483

gat1.gat.lin_dst.weight f4 [30, 30]
00000000: 9a33 3e3e 683e 93be 29d1 45bd a852 633e
00000010: 6f35 bbba cab1 c6bd e506 a63d 8f36 37be
00000020: 8446 c0bd 42b6 e7bd 6339 003e ff05 6fbe
00000030: 0f12 b2bc 278b 8c3d 2e1c 04be e136 55be
00000040: e8e4 8dbe 47a4 6bbe 766c ac3d 66bf 40be
00000050: 38a6 2a3e 3176 d23d 2fa3 0a3e 1e24 7c3e
00000060: a6d2 b6bd 8b5d 91be df13 7bbb 451f 603d
00000070: e6c0 44bd 1b51 b93c afc7 a23d ddc0 87be
00000080: 620e ffbd e17c 9abd a1db 943e 6765 043d
00000090: 6bd0 623e 1041 9c3d a9fa 93be 3b75 153e
000000a0: 8f17 c53d eb70 c7bd 0b30 87be 34cb d3bc
000000b0: 4054 8dbd 2109 f4bd 7490 193e 1407 4fbe
000000c0: 2670 753e 3c19 093e 7e86 853e ff9c 65bd
000000d0: c8a6 bc3d 3609 193e ceb2 28bc 38ce e4bd
000000e0: ad22 0bbd f56b 193e c6f6 f83d de8b 9fbd
000000f0: c13f 983e d4fb f0bd 58cb 44be 3f5a 353e
00000100: a3f4 1f3e 42a4 16be 87c0 8f3d 9aad 1cbe
00000110: 89ef 783e c464 adbd 4811 ea3d 9438 1cbd
00000120: 6a3c f3bd 60b5 50be 2708 6ebe 9df4 e33d
00000130: 9973 4b3e c792 173e 9844 89be 46d1 31be
00000140: efa6 433e 8b6c 333e 5f17 81be 88f7 da3d
00000150: 88bb 12be a039 313e c616 053c 4e1d ea3d
00000160: 6a6d 8bbe 6941 afbd 733d 24be ecab 853c
00000170: 5239 2c3e 7ade 1cbe 8ecd 0bbe 9422 223e
00000180: dd13 703e 75ea c6bd e312 84bd c5fe bebd
00000190: 137e 8a3e d416 493e 52b4 6cbe ab32 bb3d
000001a0: 7556 09be 3a9b 263e 7463 0c3e 4cc0 c03c
000001b0: 55a4 ed3d 2cfc ea3d d295 21be 5138 b03d
000001c0: 74e0 52be 7ee9 60be a209 c23d 5c26 40be
000001d0: fd49 4abe 311b 5b3e 0630 423e a8b7 75be
000001e0: 0694 fdbd 5c8d 823e 4dbb 103e 08ea 35be
000001f0: 5855 9cbb 955f 093e 7a55 5dbe db1c 083e
00000200: 0242 183e 1a2f 48be 9c86 2a3e 386f eebd
00000210: 1f42 953d 459a 48bd 76f2 c93d 0ffd 313e
00000220: 79f1 9cbc f465 343e 9b65 0abd 9600 1bbe
00000230: 2767 49bd 0c01 0ebe 832c 053d bda7 9f3d
00000240: cd19 abbd 1e6c 1f3e e6ba e73c 9207 1bbe
00000250: 3a3e 47bd 6dd8 813e 32ae e8bd 6bc2 2abd
00000260: 9f47 d03c 1301 4dbe fc08 88be bd0a 9e3d
00000270: ba80 21be d00d 1e3e 4597 16be 5f3d 183e
00000280: dcaa 5cbe 73e6 adbd 277e 6b3e 09d0 103e
00000290: 1be6 5a3e c60d 633e 1d11 493e 2a72 ac3d
000002a0: 7866 e93d 8be4 3fbe 9778 5bbe 6d63 903c
000002b0: d021 9d3d e505 b8bb 1db5 2dbe 826a 2f3d
000002c0: b8b0 4ebe a0a7 c5bc d70a 783e 9324 293e
000002d0: ba40 84be 3944 64bd 6c16 2d3e c337 8d3e
000002e0: f09a 6cbd b5ba cf3b ae2f 22bc c74b a53d
000002f0: d4de 2e3e 4714 f1bc e2d5 863d 1af8 f43c
00000300: e3e4 83be 8f05 45be 7f0e 80bc b231 053e
00000310: 52f9 20bd 6732 aebc 765c 283d ed9e d4bd
00000320: c88d 083e a8cd b13d de9f 0dbd 74f4 5ebd
00000330: e90b 85be 68b0 0d3e 97f0 083d 36c2 d3bc
00000340: 0a22 523d b2de f4bd d95f 6ebe cd05 013d
00000350: be93 3f3e f41c 943e a76e 6d3e 1b71 67be
00000360: a418 33be 974e e63d 1bad 7f3e 5634 523e
00000370: 8846 393e 78ad 533e 0606 303e bd84 4ebe
00000380: 4c0d db3d 2dc6 b7bb d72e 1c3e 09d1 71be
00000390: 38cb 48be 40ec 68bd 2b65 b43d cbf9 c43d
000003a0: a9ca bdbc 729d bf3d f264 bb3d 97a3 0ebe
000003b0: 7444 903d 7198 a1bc d711 26be 5b35 913e
000003c0: 6835 a43d 8854 09be aeaa 0b3e 0682 1cbe
000003d0: 3f67 35be b734 8bbe 046d 3ebe ad7e 0d3e
000003e0: 4158 8d3e 4dd7 eabd e8a2 313e a667 8b3d
000003f0: a1e8 073e 311b 9b3d 526c 263e 60d4 33be
0.18574372 -0.2875855 -0.048295174 0.221995 -0.0014282892 -0.09701879 0.08106784 -0.17891906
-0.0938845 -0.1131406 0.12521891 -0.23342131 -0.021737127 0.06862479 -0.12901375 -0.20821716
-0.27713704 -0.23011886 0.08419125 -0.18823013 0.1666497 0.102764495 0.13538812 0.24623153
-0.08926897 -0.2839168 -0.0038311405 0.05471732 -0.048035525 0.022621682 0.07948243 -0.2651433
-0.12453915 -0.0754335 0.29073814 0.032323267 0.22149818 0.07629597 -0.28902176 0.14595501
0.09623634 -0.09738334 -0.2640384 -0.02585373 -0.06900835 -0.11915804 0.1499651 -0.20217544
0.23968562 0.13388532 0.26079172 -0.056057926 0.092114985 0.1494492 -0.010296537 -0.111721456
-0.033968616 0.14982589 0.12156443 -0.077903494 0.2973614 -0.117667824 -0.19218194 0.17710207
0.15620665 -0.14711097 0.070191436 -0.15300599 0.24310125 -0.08466485 0.114290774 -0.038139895
-0.118767574 -0.20381689 -0.23245297 0.11130641 0.19868316 0.14802085 -0.26810145 -0.17364988
0.19106649 0.17521875 -0.25213143 0.10691744 -0.1432935 0.17307138 0.008123105 0.11431371
-0.27231914 -0.08557398 -0.16039066 0.01631733 0.16818741 -0.15319243 -0.13652632 0.15833503
0.23445077 -0.09712688 -0.06448915 -0.09325937 0.27049312 0.19637614 -0.23115662 0.091405235
-0.13411887 0.16270152 0.13709813 0.023529194 0.116036095 0.11473879 -0.15779808 0.086044915
-0.20593435 -0.2196407 0.094744936 -0.18764633 -0.19754787 0.21397091 0.18963632 -0.2399584
-0.12381749 0.25498474 0.1413395 -0.17765057 -0.004770916 0.13415368 -0.21614638 0.13292257
0.1486893 -0.19549218 0.16652912 -0.11642307 0.07288002 -0.048975248 0.09860699 0.1738169
-0.019158112 0.17617017 -0.033788305 -0.15136942 -0.04917064 -0.13867587 0.032513153 0.077956654
-0.083545305 0.15568587 0.028287362 -0.15139607 -0.04864333 0.25360432 -0.1136135 -0.041689318
0.025424777 -0.20019941 -0.26569355 0.07716892 -0.15771762 0.15434957 -0.14706142 0.14867161
-0.21549553 -0.0849122 0.22997342 0.14141859 0.21376841 0.22173223 0.19635434 0.084202126
0.113964975 -0.18739526 -0.2143272 0.017625535 0.07672465 -0.005615937 -0.1696362 0.042826183
-0.201846 -0.024127781 0.24222885 0.16517858 -0.25830632 -0.055729125 0.16903085 0.27581605
-0.057764947 0.006339396 -0.009899063 0.08071094 0.1707719 -0.029428614 0.06583764 0.02990346
-0.25760564 -0.19240402 -0.015631912 0.13007239 -0.03930027 -0.021264268 0.041103803 -0.10381875
0.13335335 0.08681804 -0.03457629 -0.054432347 -0.2598565 0.13836825 0.03343257 -0.025849443
0.051301993 -0.11956538 -0.2327875 0.031499673 0.18708703 0.2892834 0.23186742 -0.2260174
-0.17489868 0.112454586 0.24968378 0.20527777 0.18093312 0.20671642 0.17189798 -0.20167823
0.106958956 -0.005608341 0.15252243 -0.23614897 -0.19608772 -0.05686593 0.08808359 0.09617957
-0.023167925 0.09356202 0.09150113 -0.13929592 0.070443064 -0.01972601 -0.16217743 0.2836102
0.08017999 -0.13411152 0.13639328 -0.15283975 -0.17715167 -0.27188656 -0.18596274 0.13817854
0.27606395 -0.114668466 0.173473 0.06806879 0.13272335 0.07573546 0.16252258 -0.17561483

gat2.gat.att_src f4 [1, 1, 30]
00000000: 05d8 9abd 2c52 84be 5045 a4bd f9ff 393e
00000010: eac2 863e d2bd d3bc 4a0e 98be e184 b0be
00000020: 95df dd3d ec1d 6abe a925 553e 46cf 22be
00000030: 7f11 d3bd a378 3abe aab2 a93d 89b8 b03e
00000040: afe4 fdbd 801f a3be 9e31 773e 0b2a 1dbd
00000050: db9a 82be 4e9a 2d3e eda5 953e dd74 8d3e
00000060: 0bbc 883d 52bd 3abe 0eb0 96be 709c e83c
00000070: 95bc 83be 9c3a 11be
-0.07560734 -0.25843942 -0.08021033 0.18164052 0.26320583 -0.02584735 -0.29698402 -0.3447638
0.108336605 -0.22862977 0.20815147 -0.15899381 -0.103060715 -0.18210082 0.082860306 0.3451579
-0.123971336 -0.3185997 0.24140021 -0.038370173 -0.2550877 0.16953394 0.29228154 0.27628222
0.06676491 -0.18236282 -0.29431194 0.028394908 -0.25729814 -0.14182514

gat2.gat.att_dst f4 [1, 1, 30]
00000000: b97b 823e 09ac 27be b4b9 7fbe cd78 973e
00000010: 292e 8f3e 8360 88be 4d46 51be 488e 183e
00000020: 8e66 263e 4048 babe 9444 8e3e 6bd1 5ebe
00000030: df61 ccbd 2a91 a2be b176 9f3d 4348 943d
00000040: a8de 80be 6288 a53e 0d7c 8f3e 694b 87be
00000050: b0c4 b9bd f523 793e b4a9 ab3e f1b6 5cbe
00000060: 41e9 11be 7462 9cbe fe6c 9dbe 5a08 9c3d
00000070: c133 9abc ef43 b33e
0.25485018 -0.1637422 -0.24973184 0.2958435 0.27964905 -0.26636133 -0.20436974 0.14898026
0.16250059 -0.36383247 0.27786696 -0.21759574 -0.09979605 -0.31751376 0.077863105 0.07240345
-0.25169873 0.32330614 0.2802433 -0.2642472 -0.09070718 0.24330123 0.3352791 -0.21554162
-0.14249136 -0.30543864 -0.30747217 0.076187804 -0.018823506 0.35012767

gat2.gat.bias f4 [30]
00000000: 8231 47bd 8c7d 293d 83c3 d8bc 4183 f83c
00000010: d840 3e3d 9421 3e3d 4ffc 6b3a 0995 c6bc
00000020: f25e 27bd 9061 a63c 705f 453c 898a 123c
00000030: c0fd 34bd 0b40 d7bc 5a5a a03b 77e2 983b
00000040: bc8d 80bb b519 4b3d 4e60 763d a639 e0bc
00000050: ae40 3fbc b497 9cbc 6243 803d d523 56bc
00000060: b811 e43c e653 343d a6f3 0cbd 179a 58bb
00000070: 44bb 18bd 1c69 16bc
-0.0486312 0.041379496 -0.026460415 0.030336024 0.04644856 0.04641874 0.00090021355 -0.024240987
-0.04086203 0.020310193 0.01204668 0.008944162 -0.044187307 -0.026275655 0.0048935832 0.0046656686
-0.003923146 0.049585063 0.060150437 -0.027371239 -0.011673136 -0.019115306 0.06262852 -0.013070066
0.02784048 0.044025324 -0.03441205 -0.003305083 -0.037287965 -0.009180333

gat2.gat.lin_src.weight f4 [30, 30]
00000000: 78f9 373e dcfa 863e 58a6 12be 9c62 7fbe
00000010: 0216 8abe 10e8 8c3e 4457 f03d cd3d 11be
00000020: 6550 0c3d 949c 153d 3bed 9b3c 8804 813e
00000030: 71f6 0d3e 69a6 123d 763a 73be 5368 893e
00000040: 4036 163e df92 133d 30e5 2a3e 3f8f 313e
00000050: 8f66 5e3e 6090 64be 643a 10be 2a17 5fbe
00000060: 1d28 81be f571 83bd 95a1 d43c 1366 fd3d
00000070: dfb0 023c 5bd0 223e dc23 1cbe ddc4 9cbd
00000080: 8833 143e f650 a7bd b854 84be f937 50be
00000090: 51c3 483e ab3c 26be 8781 2b3e eb56 963e
000000a0: 62d7 24be 7a01 7bbe 0c9d 87bb ffa1 1c3e
000000b0: 4e3b 13be a7c4 6b3d 2b59 123e 5f11 873d
000000c0: c95a 383e 38c0 fbbc 361b 363e ad07 0b3e
000000d0: d129 073e b3f1 563e b068 c6bd 18ba e1bb
000000e0: 6115 11be 10db 51be 3bae febd 266c 83be
000000f0: 3533 513e 963f 80bd 9aae 86be 70da 32bd
00000100: 0ef2 66bb ee1a 35be 6c54 d83d e19b 90be
00000110: 027a da3d 44b2 85be 41ff 4f3e ef63 b2bd
00000120: 28a4 793d 6d58 67bd 5f59 0bbe 80be 843e
00000130: d832 ebbd b5d3 ee3d 1802 523e dc2b 253e
00000140: f1c4 86be 851a 4ebd 8dd9 1e3e 1d94 29be
00000150: 3788 383e ced8 54be 2a0a 25be 8db1 823e
00000160: 1afd fdbd f168 b43b 2000 78bd 95ec 2bbe
00000170: acd9 09be 3bf7 27be 79cd 65be b4ed 88be
00000180: 7c12 3e3e 2e23 643e f2f7 383d 61bb 6a3e
00000190: 464c d03d fec5 363e adc5 cc3d 4ec6 7c3e
000001a0: 2fb9 4cbd a1a8 993d 2afd 9f3d 6803 3c3e
000001b0: 9a04 24be 2588 2fbd 3543 16be c1f3 79be
000001c0: 20ee 013e acb8 5ebe 9cec b3bc 454e dbbb
000001d0: b002 1f3d d986 113e e8d3 213e 15d4 823e
000001e0: 7d01 43be e37f 303e db74 cb3d 68ff 3ebd
000001f0: b1f0 3e3e f8e5 92be 4ea0 81be 2abc 6abe
00000200: 29ca 1abe 476d 45be 5184 7f3e 8fb0 fabd
00000210: da9a 15be 0c46 523c ebf8 193e daab 223d
00000220: 72d9 f23d 03d7 36be 0209 4bbd fcc3 0fbc
00000230: 152a 81bc b804 79be 2aeb 09be eace 87bd
00000240: cf01 393e 79ca 593c dee1 dcbd e935 f33d
00000250: 6cd2 683e 348b 7d3d 858e 4abe 7cf5 893e
00000260: d4f5 95ba 41dc 853c 2c95 cf3d 1228 8abe
00000270: d52a a5bd 5ae5 64be 0661 b83c a932 0ebd
00000280: b456 d23d 575a b4bd 59e4 c93c c4b0 64be
00000290: 8e83 6abe 5f93 1dbe 1cfa 0fbe e910 7e3e
000002a0: 9dee 79be ef1a 62be 1704 263e 1946 c5ba
000002b0: ccc2 82be ad7e 873e 5720 40be e255 58be
000002c0: 3465 813e d46f ecbd 1afa af3d 1fff 4f3d
000002d0: fa5c 42be ca37 06bd af2a c9bd 486d 293e
000002e0: eb4a 0bbe 330f 733e dc34 bcbd c657 2cbe
000002f0: c3cd cf3c 392e 3c3e 6ed0 2cbd 039a b9bb
00000300: 4857 18be 4acb 4e3e 2388 833e 3968 2d3d
00000310: 3c89 643e 2748 733e 5e06 81bd c8c0 8abe
00000320: 61aa 8d3d 1127 e33b 5a2d 203e f382 02be
00000330: d487 413e c12d 823c 1b63 62be 7ce1 d33d
00000340: d91e 2bbe 48d7 4ebd ec32 933d e851 c13d
00000350: fea6 0bbe ab43 bc3c e13b e3bc 4283 713e
00000360: 2121 60bd d6a2 593e fc10 273e 4e59 06be
00000370: 927e 3bbd 6b72 12be 249b f93d 93cb ddbc
00000380: ae36 8cbe 6210 c43d 6386 8cbc 3383 713d
00000390: 0be4 6fbe df56 303e 1e9e aebb b39c ff3d
000003a0: 8cbe 513d 7f27 1abd 30c4 be3d fb74 5d3e
000003b0: 7f87 7d3e 3810 563e 7f58 3c3e c0f3 adbd
000003c0: d0c1 75be e0b6 8dbd 4ea5 b53d 8308 733e
000003d0: 7e97 54be b1b8 5d3e e36f 023e 04b6 653e
000003e0: 62d4 7bbd 8d26 7ebe 8e7b 7dbe 4266 013e
000003f0: fdb7 7b3e 37fa 5cbb b589 83be 4f38 e53c
0.17966259 0.26363266 -0.14321268 -0.2493996 -0.26969916 0.275208 0.117353946 -0.14183731
0.034256358 0.036526278 0.019034019 0.2519877 0.13863541 0.035803232 -0.2375277 0.26837406
0.14669132 0.03602874 0.1668899 0.173398 0.2171881 -0.223207 -0.14084774 -0.2178618
-0.25225917 -0.0641822 0.025955955 0.12372985 0.00797674 0.15899794 -0.15248054 -0.07654736
0.14472783 -0.08169739 -0.25845885 -0.20333852 0.19605757 -0.1623408 0.1674863 0.29363188
-0.16097787 -0.24512282 -0.0041385945 0.15296172 -0.14378092 0.05756059 0.14291827 0.0659511
0.18003382 -0.030731305 0.17783818 0.13577147 0.13199545 0.20990638 -0.09687936 -0.006888639
-0.14168312 -0.20493722 -0.124355756 -0.25668448 0.2042969 -0.06262128 -0.26305085 -0.04366535
-0.003523949 -0.17686054 0.10562977 -0.28243926 0.106678024 -0.26112568 0.20312215 -0.08710467
0.060947567 -0.056480814 -0.13608311 0.2592659 -0.11484307 0.11661474 0.20508611 0.16130012
-0.2632213 -0.05031826 0.15512677 -0.16560407 0.18020712 -0.2078583 -0.16117159 0.25526085
-0.12401791 0.005505674 -0.060546994 -0.16789468 -0.13461941 -0.16402905 -0.22441663 -0.26743853
0.18561739 0.22279045 0.045158334 0.22923042 0.10170798 0.17848966 0.09998641 0.24685022
-0.049981292 0.075028665 0.07811959 0.18360674 -0.1601738 -0.042854447 -0.14674075 -0.24409391
0.12688494 -0.21750134 -0.02196341 -0.00669268 0.038820922 0.14211597 0.15803492 0.2555243
-0.19043536 0.17236285 0.09934398 -0.046630293 0.18646504 -0.28691077 -0.25317615 -0.22923341
-0.1511618 -0.19279967 0.24952818 -0.12240707 -0.14609852 0.012834083 0.15036361 0.03971467
0.11857881 -0.17855458 -0.049569137 -0.008774754 -0.015767137 -0.24318206 -0.13468614 -0.066312626
0.18067096 0.013292902 -0.10785268 0.11875517 0.2273652 0.061900333 -0.1978093 0.26945102
-0.001144106 0.016340377 0.10135874 -0.26983696 -0.0806481 -0.22353116 0.022507202 -0.034716282
0.102704436 -0.088062935 0.024645017 -0.22333056 -0.22901747 -0.15388249 -0.14060253 0.24811138
-0.2440743 -0.22080587 0.16212498 -0.0015050798 -0.25539243 0.26463833 -0.18762337 -0.21126512
0.25272524 -0.11544767 0.08592625 0.05078041 -0.1898078 -0.03276805 -0.098225944 0.16545594
-0.13602798 0.23736267 -0.091897696 -0.16830358 0.02536667 0.18377008 -0.04219096 -0.0056641116
-0.14877045 0.20194736 0.25689802 0.042335723 0.22317976 0.23757993 -0.063000426 -0.27100205
0.06917263 0.0069321473 0.156423 -0.12745266 0.1889947 0.015890958 -0.22108118 0.10345742
-0.16710986 -0.050498277 0.07187447 0.094394505 -0.13637921 0.022981485 -0.027738513 0.23585227
-0.054719094 0.21253523 0.16315073 -0.13120005 -0.045775004 -0.1430146 0.12187794 -0.02707461
-0.27385467 0.09573437 -0.017153924 0.058963012 -0.23426835 0.17220639 -0.0053289076 0.1248106
0.05120711 -0.037635323 0.093147635 0.21626656 0.24758719 0.20904624 0.18393134 -0.08493757
-0.23999715 -0.06919646 0.0886942 0.23733716 -0.20760915 0.21652485 0.12737994 0.22432715
-0.06148184 -0.24819393 -0.24754164 0.12636665 0.24581905 -0.0033718476 -0.25691 0.027980952

gat2.gat.lin_dst.weight f4 [30, 30]
00000000: 78f9 373e dcfa 863e 58a6 12be 9c62 7fbe
00000010: 0216 8abe 10e8 8c3e 4457 f03d cd3d 11be
00000020: 6550 0c3d 949c 153d 3bed 9b3c 8804 813e
00000030: 71f6 0d3e 69a6 123d 763a 73be 5368 893e
00000040: 4036 163e df92 133d 30e5 2a3e 3f8f 313e
00000050: 8f66 5e3e 6090 64be 643a 10be 2a17 5fbe
00000060: 1d28 81be f571 83bd 95a1 d43c 1366 fd3d
00000070: dfb0 023c 5bd0 223e dc23 1cbe ddc4 9cbd
00000080: 8833 143e f650 a7bd b854 84be f937 50be
00000090: 51c3 483e ab3c 26be 8781 2b3e eb56 963e
000000a0: 62d7 24be 7a01 7bbe 0c9d 87bb ffa1 1c3e
000000b0: 4e3b 13be a7c4 6b3d 2b59 123e 5f11 873d
000000c0: c95a 383e 38c0 fbbc 361b 363e ad07 0b3e
000000d0: d129 073e b3f1 563e b068 c6bd 18ba e1bb
000000e0: 6115 11be 10db 51be 3bae febd 266c 83be
000000f0: 3533 513e 963f 80bd 9aae 86be 70da 32bd
00000100: 0ef2 66bb ee1a 35be 6c54 d83d e19b 90be
00000110: 027a da3d 44b2 85be 41ff 4f3e ef63 b2bd
00000120: 28a4 793d 6d58 67bd 5f59 0bbe 80be 843e
00000130: d832 ebbd b5d3 ee3d 1802 523e dc2b 253e
00000140: f1c4 86be 851a 4ebd 8dd9 1e3e 1d94 29be
00000150: 3788 383e ced8 54be 2a0a 25be 8db1 823e
00000160: 1afd fdbd f168 b43b 2000 78bd 95ec 2bbe
00000170: acd9 09be 3bf7 27be 79cd 65be b4ed 88be
00000180: 7c12 3e3e 2e23 643e f2f7 383d 61bb 6a3e
00000190: 464c d03d fec5 363e adc5 cc3d 4ec6 7c3e
000001a0: 2fb9 4cbd a1a8 993d 2afd 9f3d 6803 3c3e
000001b0: 9a04 24be 2588 2fbd 3543 16be c1f3 79be
000001c0: 20ee 013e acb8 5ebe 9cec b3bc 454e dbbb
000001d0: b002 1f3d d986 113e e8d3 213e 15d4 823e
000001e0: 7d01 43be e37f 303e db74 cb3d 68ff 3ebd
000001f0: b1f0 3e3e f8e5 92be 4ea0 81be 2abc 6abe
00000200: 29ca 1abe 476d 45be 5184 7f3e 8fb0 fabd
00000210: da9a 15be 0c46 523c ebf8 193e daab 223d
00000220: 72d9 f23d 03d7 36be 0209 4bbd fcc3 0fbc
00000230: 152a 81bc b804 79be 2aeb 09be eace 87bd
00000240: cf01 393e 79ca 593c dee1 dcbd e935 f33d
00000250: 6cd2 683e 348b 7d3d 858e 4abe 7cf5 893e
00000260: d4f5 95ba 41dc 853c 2c95 cf3d 1228 8abe
00000270: d52a a5bd 5ae5 64be 0661 b83c a932 0ebd
00000280: b456 d23d 575a b4bd 59e4 c93c c4b0 64be
00000290: 8e83 6abe 5f93 1dbe 1cfa 0fbe e910 7e3e
000002a0: 9dee 79be ef1a 62be 1704 263e 1946 c5ba
000002b0: ccc2 82be ad7e 873e 5720 40be e255 58be
000002c0: 3465 813e d46f ecbd 1afa af3d 1fff 4f3d
000002d0: fa5c 42be ca37 06bd af2a c9bd 486d 293e
000002e0: eb4a 0bbe 330f 733e dc34 bcbd c657 2cbe
000002f0: c3cd cf3c 392e 3c3e 6ed0 2cbd 039a b9bb
00000300: 4857 18be 4acb 4e3e 2388 833e 3968 2d3d
00000310: 3c89 643e 2748 733e 5e06 81bd c8c0 8abe
00000320: 61aa 8d3d 1127 e33b 5a2d 203e f382 02be
00000330: d487 413e c12d 823c 1b63 62be 7ce1 d33d
00000340: d91e 2bbe 48d7 4ebd ec32 933d e851 c13d
00000350: fea6 0bbe ab43 bc3c e13b e3bc 4283 713e
00000360: 2121 60bd d6a2 593e fc10 273e 4e59 06be
00000370: 927e 3bbd 6b72 12be 249b f93d 93cb ddbc
00000380: ae36 8cbe 6210 c43d 6386 8cbc 3383 713d
00000390: 0be4 6fbe df56 303e 1e9e aebb b39c ff3d
000003a0: 8cbe 513d 7f27 1abd 30c4 be3d fb74 5d3e
000003b0: 7f87 7d3e 3810 563e 7f58 3c3e c0f3 adbd
000003c0: d0c1 75be e0b6 8dbd 4ea5 b53d 8308 733e
000003d0: 7e97 54be b1b8 5d3e e36f 023e 04b6 653e
000003e0: 62d4 7bbd 8d26 7ebe 8e7b 7dbe 4266 013e
000003f0: fdb7 7b3e 37fa 5cbb b589 83be 4f38 e53c
0.17966259 0.26363266 -0.14321268 -0.2493996 -0.26969916 0.275208 0.117353946 -0.14183731
0.034256358 0.036526278 0.019034019 0.2519877 0.13863541 0.035803232 -0.2375277 0.26837406
0.14669132 0.03602874 0.1668899 0.173398 0.2171881 -0.223207 -0.14084774 -0.2178618
-0.25225917 -0.0641822 0.025955955 0.12372985 0.00797674 0.15899794 -0.15248054 -0.07654736
0.14472783 -0.08169739 -0.25845885 -0.20333852 0.19605757 -0.1623408 0.1674863 0.29363188
-0.16097787 -0.24512282 -0.0041385945 0.15296172 -0.14378092 0.05756059 0.14291827 0.0659511
0.18003382 -0.030731305 0.17783818 0.13577147 0.13199545 0.20990638 -0.09687936 -0.006888639
-0.14168312 -0.20493722 -0.124355756 -0.25668448 0.2042969 -0.06262128 -0.26305085 -0.04366535
-0.003523949 -0.17686054 0.10562977 -0.28243926 0.106678024 -0.26112568 0.20312215 -0.08710467
0.060947567 -0.056480814 -0.13608311 0.2592659 -0.11484307 0.11661474 0.20508611 0.16130012
-0.2632213 -0.05031826 0.15512677 -0.16560407 0.18020712 -0.2078583 -0.16117159 0.25526085
-0.12401791 0.005505674 -0.060546994 -0.16789468 -0.13461941 -0.16402905 -0.22441663 -0.26743853
0.18561739 0.22279045 0.045158334 0.22923042 0.10170798 0.17848966 0.09998641 0.24685022
-0.049981292 0.075028665 0.07811959 0.18360674 -0.1601738 -0.042854447 -0.14674075 -0.24409391
0.12688494 -0.21750134 -0.02196341 -0.00669268 0.038820922 0.14211597 0.15803492 0.2555243
-0.19043536 0.17236285 0.09934398 -0.046630293 0.18646504 -0.28691077 -0.25317615 -0.22923341
-0.1511618 -0.19279967 0.24952818 -0.12240707 -0.14609852 0.012834083 0.15036361 0.03971467
0.11857881 -0.17855458 -0.049569137 -0.008774754 -0.015767137 -0.24318206 -0.13468614 -0.066312626
0.18067096 0.013292902 -0.10785268 0.11875517 0.2273652 0.061900333 -0.1978093 0.26945102
-0.001144106 0.016340377 0.10135874 -0.26983696 -0.0806481 -0.22353116 0.022507202 -0.034716282
0.102704436 -0.088062935 0.024645017 -0.22333056 -0.22901747 -0.15388249 -0.14060253 0.24811138
-0.2440743 -0.22080587 0.16212498 -0.0015050798 -0.25539243 0.26463833 -0.18762337 -0.21126512
0.25272524 -0.11544767 0.08592625 0.05078041 -0.1898078 -0.03276805 -0.098225944 0.16545594
-0.13602798 0.23736267 -0.091897696 -0.16830358 0.02536667 0.18377008 -0.04219096 -0.0056641116
-0.14877045 0.20194736 0.25689802 0.042335723 0.22317976 0.23757993 -0.063000426 -0.27100205
0.06917263 0.0069321473 0.156423 -0.12745266 0.1889947 0.015890958 -0.22108118 0.10345742
-0.16710986 -0.050498277 0.07187447 0.094394505 -0.13637921 0.022981485 -0.027738513 0.23585227
-0.054719094 0.21253523 0.16315073 -0.13120005 -0.045775004 -0.1430146 0.12187794 -0.02707461
-0.27385467 0.09573437 -0.017153924 0.058963012 -0.23426835 0.17220639 -0.0053289076 0.1248106
0.05120711 -0.037635323 0.093147635 0.21626656 0.24758719 0.20904624 0.18393134 -0.08493757
-0.23999715 -0.06919646 0.0886942 0.23733716 -0.20760915 0.21652485 0.12737994 0.22432715
-0.06148184 -0.24819393 -0.24754164 0.12636665 0.24581905 -0.0033718476 -0.25691 0.027980952

gru1.weight_ih_l0 f4 [90, 16]
00000000: 8303 25be f334 43bd 7f69 bfbd 1d24 05be
00000010: 0653 153e bc48 ad3d 463c 3abe 55a7 9cbb
00000020: 453d 923d ae6f d03b 6397 9ebd c305 323e
00000030: 7e5f 993b e2fa 7b3d b230 9d3d 3e1c 5e3d
00000040: db32 cfbd 4719 9cbd d1b8 0abe 749b c3bd
00000050: 3706 01be 2fc0 ad3a 4768 cabd 4f52 15bd
00000060: 2985 2abe 8790 d33d 85b5 293e 4161 fa3d
00000070: 6a5e bebd 1bc2 bdbd 9729 3abe b2ac 46bd
00000080: fec4 79bd 346f a73d 1c4f 0cbe e8bd 843d
00000090: 63ff f33d fa36 303d 9d73 38be 1eb9 0b3e
000000a0: 5806 173d 8a31 a3bd 34c8 1bbd e3e0 86bd
000000b0: 50ac e13c b16a 733d 3384 15be 819c 333e
000000c0: d970 603d fdf2 2bbe d774 173e 1426 d0bd
000000d0: 6c5d fbbd 7bf1 4ebd 749a e0bd 9fd8 3a3e
000000e0: 6daf e4bd 553a f0bc 161b d2bb a0cb 30be
000000f0: 94ce e03c f2e8 783d 4745 aabd 3e66 8d3d
00000100: d842 253d 99fa 55bd 8b95 0a3d 5825 01be
00000110: 032c 343e 0c1c 2dbc 7639 93bd 50e6 233e
00000120: 04c7 ec3d 47b9 d3bd 0133 ccbb f4b0 6e3d
00000130: d1c1 dbbd 366d 45bd c44c 963d 900b 953d
00000140: a6fd 2f3e c439 f1bd 2050 03be 0566 993c
00000150: 8970 adbc c20e 31bd 3971 1a3e 35e1 34be
00000160: e655 5dbb 5738 1cbe a959 39bc 2b07 dfbd
00000170: b6ce c3bd a6a4 233e a8da 0abe 2d5f ebbd
00000180: bb8e 6d3b ebe4 743d e4bc 22be 7ac5 0a3e
00000190: bf21 583d f518 cdbd 73c6 ed3d 6623 0e3b
000001a0: da0d 49bb 3050 2e3d 2f77 c13d 8d21 78bd
000001b0: ac75 28be 6975 22be 78d1 5e3c ae7c dfbd
000001c0: fbeb 803c fa03 123e ae8b 2bbe ea19 203e
000001d0: acea 05be f65d 123e 904a f5ba 8725 203e
000001e0: 1f19 2b3d ee17 383e ae3d fcbd dc52 19be
000001f0: b0d5 08be 1073 ce3d 78fa 703d 4218 3abe
00000200: 2fa5 65bd 244c c8bb 5315 1c3e f636 99bd
00000210: 8130 8c3d 6415 32be 375e 233e ca4a 033e
00000220: c2f3 053e a50e ff3d 7d65 493d 745f e63d
00000230: c4ce 263e ebfc 26be 1449 23be 31a4 d73d
00000240: f020 04be 1651 d73d 262e 35bc 2a29 d13d
00000250: 41fd 913c 202a 283e fcb8 b53d 0bd5 c23d
00000260: 50bd 09be f00c a23d bb07 36bd 5a41 c93d
00000270: f6fb 1c3e 5c0b 1d3d bc63 a03d 5e9b 413d
00000280: c7c5 fc3d d135 a03d d0db ca3c 3d2c c5bc
00000290: 15ce 033c 528c aabd 8fac dfbc fc52 b23d
000002a0: 60ff 22bd 714b a3bd fdba 13be 9073 353e
000002b0: 114a ecbc 6ba9 1abe 0656 033e 1e7e 95bd
000002c0: a95a 7a3c eeea b8bc b142 eabc 8d3a 01be
000002d0: 77e3 c93c b806 023e 5db5 b0bc 9930 6cbd
000002e0: 3078 18be af9b 0e3e 8f43 a4bd 5f98 0abd
000002f0: 0223 bebd b173 d9bd fd19 f83d 6d6f 143e
00000300: 540e f93d d98a 22bc d8fb 12be 7daf d33d
00000310: 1366 b53d 2975 0fba a5cc f43d a751 ef3d
00000320: f79b e23d 19b3 953c a9e5 a3bd 1506 193e
00000330: f8f4 19be 5e4c 35be d556 393d 32c0 d03b
00000340: 6863 9abd 690b 303d 972d c3bd 74c7 1f3e
00000350: 85ce 2d3e c784 24be 1ca0 183e 1ba7 f83d
00000360: 1de0 9c3b 8751 1cbe 4670 34be f113 c1bb
00000370: f3c4 5d3d b018 17be a973 1f3d 8b2e 3a3c
00000380: c605 973c a3f7 20be 397f 9c3d cc43 203e
00000390: 5730 aabd a2ce 143e b011 fe3c 9988 1b3d
000003a0: f911 6cbd a5bf 323e 6e99 1e3e b16c 113e
000003b0: 7369 f73d 8b9a c33d f72b 17be bf72 173e
000003c0: ab32 c7bd 5f95 c6bd dad2 9fbd 9add 383e
000003d0: 40b5 223e e5be dbbc 7adb 253d 4b7e e1bd
000003e0: 3bea 2cbe c732 f63d 6d55 8e3c b7ef 283d
000003f0: a90d f43d aa4b cc3d 508e 08be 0677 103e
-0.16114621 -0.04765792 -0.09346294 -0.13002057 0.14582452 0.084611386 -0.18187055 -0.0047806897
0.071405925 0.0063609695 -0.077437185 0.1738501 0.004680573 0.061518557 0.076753035 0.054226153
-0.10117122 -0.07622009 -0.13547064 -0.09551135 -0.12600027 0.0013256128 -0.098831706 -0.03645545
-0.16652359 0.10330301 0.1657315 0.12225581 -0.09295352 -0.09265538 -0.18179928 -0.04850454
-0.060978882 0.08175507 -0.13702053 0.06481534 0.119139455 0.04302118 -0.18012853 0.13644835
0.036871284 -0.07968433 -0.038032725 -0.065858625 0.027547985 0.05942792 -0.14601211 0.1754017
0.05479512 -0.16791911 0.14790665 -0.10163513 -0.12273678 -0.050523262 -0.109669596 0.18246697
-0.11166272 -0.02932469 -0.0064119203 -0.17265177 0.027442254 0.06076903 -0.08313995 0.06904267
0.04034695 -0.05224094 0.03383402 -0.12611902 0.17594914 -0.010565769 -0.07188694 0.16005826
0.11561397 -0.10338073 -0.006231666 0.058274224 -0.10730327 -0.048199855 0.07338861 0.07277596
0.17186603 -0.11778596 -0.12823534 0.018725405 -0.021171825 -0.043226965 0.15082254 -0.17664035
-0.0033773123 -0.15255867 -0.011312881 -0.10890039 -0.09560911 0.15980777 -0.13559973 -0.11492763
0.0036248404 0.059788626 -0.15892369 0.13551894 0.052766558 -0.10014526 0.11610117 0.002168858
-0.0030678422 0.04255694 0.094465606 -0.06057887 -0.16451138 -0.15865101 0.013599746 -0.10912453
0.015737524 0.1425933 -0.16752502 0.15634885 -0.13077801 0.14293656 -0.0018714238 0.15639316
0.041772004 0.17977878 -0.12316452 -0.14973015 -0.13362765 0.1008054 0.058832616 -0.18173316
-0.056065734 -0.0061125923 0.1524251 -0.07481186 0.06845189 -0.17390972 0.15953909 0.12821499
0.13081267 0.12453965 0.049169052 0.11248675 0.16289812 -0.16307418 -0.15945846 0.10529364
-0.1290319 0.10513513 -0.011058366 0.102129295 0.017820956 0.1642232 0.088731736 0.09513291
-0.13451123 0.07912624 -0.044440966 0.09826918 0.1533049 0.03834091 0.07831523 0.04726731
0.123424105 0.07822765 0.024763018 -0.024068946 0.008044739 -0.08327545 -0.027303962 0.08707234
-0.039794326 -0.07973374 -0.14426799 0.17719865 -0.028843911 -0.1510369 0.12825784 -0.072994456
0.015280404 -0.02257296 -0.028596254 -0.12619992 0.024644597 0.12697875 -0.021570856 -0.057663534
-0.14889598 0.13926576 -0.08020698 -0.03383672 -0.09284021 -0.106177695 0.12114332 0.1449563
0.12160936 -0.009920799 -0.14353883 0.10336206 0.0885736 -0.00054724753 0.11953095 0.11685496
0.11064904 0.018273877 -0.080027886 0.14943726 -0.15034854 -0.17704913 0.045248825 0.0063705677
-0.075384915 0.04297963 -0.0953018 0.15603429 0.16973312 -0.16066276 0.14904827 0.12141248
0.0047874586 -0.15265475 -0.17620954 -0.00589227 0.054142904 -0.14755511 0.03892866 0.011363636
0.01843537 -0.15719466 0.07641453 0.15650862 -0.08310001 0.14531949 0.031014293 0.037972067
-0.057634328 0.17455919 0.15488216 0.14201619 0.1208066 0.09550961 -0.14762865 0.14789866
-0.09726461 -0.09696459 -0.078038886 0.18053284 0.15889454 -0.026824424 0.040492512 -0.110104166
-0.16886227 0.12021404 0.017374719 0.041244235 0.11916668 0.09975369 -0.13335538 0.14107904

gru1.weight_hh_l0 f4 [90, 30]
00000000: 7b79 283e 00ad 45bd f0e9 26bd 7a6f 313d
00000010: e276 1cbd 6858 8fbc ea6d 84bd f916 bfbd
00000020: 2cdd ab3d 54ca cabc 963e a5bd e9ac fa3d
00000030: 5305 8c3d e503 55bc c826 f53c eb27 073e
00000040: c278 9ebc 6fe1 73bc fccb 1c3d 753f d73d
00000050: 41cc 12be dc30 ecbd c651 0ebb 7771 c4bc
00000060: a719 30be 3805 2bbd b942 0abe 4187 bfbc
00000070: bcf0 e53d be08 dfbc f717 f43d 32e8 1bbe
00000080: 3629 1abe d8bb 1abc 53e4 10be 0906 32be
00000090: dafe 23be e369 4abd 46e5 84bd 2176 ffbd
000000a0: fa88 3ebd d04c 08be a437 b43d 3adc a13d
000000b0: 4955 243e 4e19 a13d d6c2 eb3d 531b 563b
000000c0: b772 1f3e e192 28be 9447 b7bd e100 273e
000000d0: 017d 563c c0e7 2b3d ebc6 0b3d 2f43 a4bd
000000e0: df41 b3bd ef14 af3d 23e9 e6ba f236 e639
000000f0: 17c9 2a3e f31f a53c 69e8 99bd f71f 663d
00000100: f539 16be af4d d73c fa58 1dbd 7c00 083d
00000110: 2690 143e 393f 93bd 1cfb 91bc 627d 283e
00000120: 3b3a b8bd 4a9d 54bd 92f1 1f3e 4bed b53d
00000130: 48c8 2f3e 220f 8ebb 9972 b73c 1229 013e
00000140: 48cd b4bd 5561 13be 30e1 02be 876e 8abd
00000150: 9a3b 21be a08c da3d 5099 8fbb 7147 cfbd
00000160: e2c2 0ebe cafc 843c ff27 343d 2c22 bdbd
00000170: 14ad 4fbd 9bd0 743a b880 87bd 8821 2d3e
00000180: 91a2 b23d e3fc 233e 2441 2cbb f8a4 15be
00000190: f389 133e 9728 2fbe e9aa be3d 243f 5536
000001a0: db33 24bd 3276 aa3c 9c6c 0f3e 4c2c 2fbe
000001b0: 2d37 a4bd 497c 653d 485e 1b3e 8fbb 22be
000001c0: 8734 00be e227 ed3d e29e 253e c1e2 20be
000001d0: ae10 02be 15d7 c83b 786a c03d 01eb 593b
000001e0: c42b 39be b04f c43c 6254 08be 0623 873d
000001f0: b440 51bd 7214 093d 593d 1cbd 6ffe 07be
00000200: 7abf 00bd f827 10bd b472 65bd 7a76 723d
00000210: b37c a2bc 349c 533d 4d7d f63d 0800 ac3d
00000220: c149 1f3e b8a0 25be 6b57 02be 84ed 28be
00000230: 6cdd e33d e9fd 38be 533b 34bd 97cf a3bd
00000240: ddc2 013e c378 39be 938c 743d d02e 223e
00000250: b181 29be 0106 c93b 1026 f93c 57af e53d
00000260: 991d a2bd 4fff 95bd a310 c9bd d32e d23d
00000270: de2f 9e3b 54ed 8ebc b666 313e a48e 0ebe
00000280: 5382 fabd 348e 06be 97af c53d 1aad 3ebd
00000290: 4f40 76bb 9204 163e 1776 9b3d 5df2 a8bc
000002a0: ee89 abbd 5fdd 573c ab6f 0c3e 977b fa3d
000002b0: 7c5f 14be 482f 1abd fc38 303d a0d3 97bd
000002c0: c317 35be b577 93bd be83 303e 6916 3bbc
000002d0: 1991 a83c c4b7 d1ba a49d ccbd c2f3 a2bd
000002e0: 6d53 23bd ad82 dabd 12ed f6bd 45df 293e
000002f0: 0e36 c2bb daf6 c2bb e8b9 f3bd 84eb 37be
00000300: f16d 7d3d f0bc 15be 8706 b0bd 578b 363e
00000310: 3547 8b3d 0169 b1bd 79f6 a13d a4f2 623d
00000320: f649 0a3e 52f2 bb3b 42ac d73c 23bc f1bd
00000330: 83a0 403d f56f 1d3d 8101 cfbd e0c0 d2bd
00000340: 154e e83d d9c1 d33d 388c ed3c cfa3 113e
00000350: c064 09be 2d1c 0ebe 235a 98bd 72e9 0e3e
00000360: dd63 393e 96b3 163e 168e eb3d 6e7b 303e
00000370: aba3 07be 7585 8f3c 01ef 87bb 0bfd b6bd
00000380: 051b 893c 75c7 34be fdc8 afbd 1c2c 04bc
00000390: 5e96 363d a41e 263a 8843 8e3c 2b56 63bc
000003a0: f371 2d3c fd39 20be 87d3 c7bd 6a9a 333e
000003b0: c560 3d3d fd1c e73b 5f34 ddbd 58a9 1a3e
000003c0: b05b 053e 2e0c 2ebe d2e8 553d fb37 273e
000003d0: a6fd 13bd 9763 1a3e d5e9 c53d 6ff4 bf3c
000003e0: ebcd 36be 256c ca3d 2877 c33c 5344 793c
000003f0: a983 033e bb74 f6bd b204 0fbd 80e5 ce3d
0.16452591 -0.04826069 -0.040750444 0.043319203 -0.038199313 -0.01749821 -0.06466277 -0.093305536
0.083917946 -0.02475468 -0.08068578 0.12240011 0.06836953 -0.013001417 0.029925719 0.13198821
-0.019344691 -0.0148852905 0.038280472 0.1051015 -0.14335729 -0.11532757 -0.0021716221 -0.023979886
-0.17197286 -0.041753024 -0.13502015 -0.023379924 0.11227557 -0.027225848 0.119186334 -0.15225294
-0.15054783 -0.0094441995 -0.14149599 -0.17385115 -0.16015187 -0.049417388 -0.06489043 -0.12473703
-0.04651735 -0.13310552 0.08799675 0.07903333 0.16048159 0.078661546 0.115117714 0.0032670095
0.15571104 -0.1646228 -0.08949199 0.16308929 0.013091327 0.04196906 0.03412525 -0.08020627
-0.08752798 0.08548915 -0.0017617088 0.00043909956 0.16678272 0.020156836 -0.07515032 0.056182828
-0.14670546 0.02628216 -0.038414933 0.033203587 0.14508113 -0.07189793 -0.017819934 0.1645408
-0.089954816 -0.051907815 0.15619496 0.08883151 0.17166245 -0.0043353 0.022393512 0.12613323
-0.08828217 -0.14392598 -0.12781215 -0.06759363 -0.15745392 0.10671353 -0.00438229 -0.10121048
-0.1394153 0.01623382 0.043983456 -0.092350334 -0.05070217 0.0009338946 -0.06616348 0.16907322
0.08722413 0.16014437 -0.0026283944 -0.14613712 0.14408092 -0.17105328 0.09309942 3.1776226e-06
-0.040088516 0.020808313 0.14006275 -0.17106742 -0.080183364 0.05602673 0.15172684 -0.1589186
-0.12520038 0.11579873 0.1617389 -0.157115 -0.12701675 0.0061291554 0.09395307 0.0033251646
-0.18083102 0.02396378 -0.1331344 0.06598477 -0.051087096 0.033466764 -0.038144443 -0.13280652
-0.031432606 -0.035194367 -0.056017593 0.05919502 -0.019834852 0.05166264 0.12035618 0.083984435
0.15555479 -0.1617459 -0.1272866 -0.16496855 0.11126217 -0.18065609 -0.04400189 -0.07998579
0.1267199 -0.18112473 0.059704375 0.1583817 -0.1655338 0.006134749 0.030413657 0.11215084
-0.079158016 -0.07324087 -0.09817626 0.10262837 0.0048274836 -0.017447151 0.17324337 -0.139216
-0.122318886 -0.13140184 0.09652632 -0.0465518 -0.0037574952 0.14650181 0.07590883 -0.02062338
-0.083759174 0.013175338 0.13714473 0.12230604 -0.1448955 -0.037642747 0.043023095 -0.07413411
-0.17684846 -0.07200567 0.17237756 -0.011418917 0.020577 -0.0016000201 -0.09991005 -0.07956649
-0.039874483 -0.10669456 -0.12056936 0.16589077 -0.005926854 -0.005949837 -0.11900693 -0.17960936
0.061872426 -0.14622855 -0.08594995 0.17826591 0.06800691 -0.08662606 0.07908339 0.05540718
0.13504776 0.005735674 0.026327256 -0.11803462 0.047028076 0.03843685 -0.10107709 -0.10290694
0.11343018 0.10339708 0.028997526 0.14222644 -0.1341734 -0.13877936 -0.07439067 0.1395624
0.18104501 0.14716944 0.1150171 0.17234585 -0.13246028 0.017519692 -0.0041483645 -0.08934983
0.016736517 -0.17654212 -0.08583257 -0.008067157 0.044576995 0.0006336963 0.017366186 -0.0138755245
0.01058625 -0.15647121 -0.097571425 0.17539373 0.046234865 0.007053016 -0.108010046 0.15103662
0.13023257 -0.16996834 0.052223988 0.16329949 -0.03613057 0.15077053 0.096637405 0.023431985
-0.17851989 0.09883908 0.023860529 0.015214044 0.12843193 -0.12033983 -0.034916587 0.101023674

gru1.bias_ih_l0 f4 [90]
00000000: e8d6 8b3d 3d8b 353d f5e0 0c3e 7122 38be
00000010: 1811 093e b57c fa3c 764f 183e 7bbb 00be
00000020: 377d f43d 9582 d23d 2c78 aebc 49f3 373e
00000030: 983d 1c3e 4078 d8bd 803d 063e 0e9a 0f3e
00000040: ccf3 073d f264 243d 2e11 2dbe 9d98 a43c
00000050: f16a 3e3b d5ac a6bd 7265 353e 482c 593d
00000060: f6c3 073d 0ec0 253e e149 883d 0ce6 ff3d
00000070: d3a4 c7bd aa4a edbd cb9c 96bc 1d6d 2dbd
00000080: b1b4 a2bd 2fba 143e 3c41 0e3e a008 0cbe
00000090: 2cd7 ddbd 5cfb debd c6b0 6e3d c62c 15be
000000a0: f236 bfbd ee1e 0bbc 439f 2b3e 7a8c 643d
000000b0: f1c6 ee3d f216 21bc e58a d0bd be54 123e
000000c0: 9ff5 bb3d 613b acbd 01dd 1bbe 6636 b53d
000000d0: ef6c ab3d b325 2a3e 399b c23d 723e 0ebe
000000e0: facc e2bd 4aad 1cbe daa9 a93c 8134 773d
000000f0: aafb 903d a4a6 1a3e fcb0 febd 4cd6 bb3d
00000100: 501f 9c3d d5bc 24be 5fdf 99bd 8b9b f43d
00000110: 7b4e d23c fc7e 0ebe b9b5 74bd 47d9 3c3d
00000120: b53b 09be 7536 19be 9ace ee36 755a aabd
00000130: 1cf9 b73d d450 2bbd c887 12be 5797 2f3d
00000140: 9143 353e adc8 5f3c d616 a03d d0b3 29be
00000150: 5ef4 913d 0fc1 003e ddbd 93bd 1165 863d
00000160: d963 273e 5936 0cbe
0.068280995 0.04432224 0.1375769 -0.17981888 0.13385427 0.030577043 0.14874062 -0.12571518
0.11937945 0.10278813 -0.021297537 0.179639 0.15257871 -0.10569811 0.13109398 0.14023611
0.033191487 0.04013533 -0.16901085 0.020092303 0.0029055441 -0.08138434 0.1771448 0.053020746
0.033145867 0.16186544 0.06654716 0.1249505 -0.097482346 -0.11586507 -0.018385312 -0.042340387
-0.079446204 0.14524148 0.13892072 -0.13675165 -0.108320564 -0.10887787 0.058274053 -0.14567861
-0.09336652 -0.008491261 0.16759972 0.05579803 0.11659039 -0.009832131 -0.10182742 0.14290139
0.09177708 -0.08409763 -0.15221025 0.08848266 0.08370387 0.16615944 0.095022626 -0.13891008
-0.110742524 -0.1530048 0.020710874 0.060352806 0.07079251 0.15102631 -0.12436101 0.09171733
0.0762316 -0.16087659 -0.07513308 0.1194373 0.025672188 -0.13915628 -0.059743617 0.04610565
-0.13401683 -0.1496218 7.1170043e-06 -0.083180346 0.08983061 -0.04182513 -0.14309609 0.04286894
0.17701556 0.013658685 0.078168556 -0.165725 0.071266875 0.12573646 -0.07213948 0.06562246
0.16346683 -0.13692607
