checkpoint/social-stgcnn-eth-fpp/val_best.pth (torch, 169905 bytes, 42 tensors)

fc1.weight f4 [32, 2]
0	0xbe76ee90	-0.24114442
1	0x3e97fbe0	0.29684353
2	0x3f24c358	0.6436057
3	0xbecd70b8	-0.4012506
4	0xbf150be9	-0.582213
5	0x3e0f8ad1	0.14017798
6	0x3e191de5	0.1495281
7	0xbb55a6c9	-0.0032600632
8	0x3f34aef8	0.7057948
9	0x3e228a11	0.1587298
10	0xbefcc79e	-0.49371046
11	0x3f20110d	0.6252602
12	0xbe24b00f	-0.16082786
13	0xbf29eb1b	-0.6637437
14	0xbf059fdf	-0.5219707
15	0xbde85627	-0.11344557
16	0xbdec459a	-0.11536713
17	0x3f20c0f3	0.6279442
18	0xbeb52270	-0.35377836
19	0xbf0d9484	-0.5530474
20	0x3f220800	0.6329346
21	0x3f24fe7b	0.64450806
22	0x3f27a0fb	0.6548001
23	0xbf33be3a	-0.7021214
24	0x3f214ed6	0.6301092
25	0x3f323075	0.6960519
26	0x3ed4d004	0.41564953
27	0xbde4e583	-0.111765884
28	0x3f1f6b13	0.6227276
29	0x3e30528f	0.17218994
30	0xbed412d7	-0.41420624
31	0x3f04b311	0.51835734
32	0x3d467371	0.048449937
33	0x3f2f9af7	0.6859583
34	0x3f04e96f	0.5191869
35	0x3f3159e0	0.69277763
36	0x3eae0b0d	0.33992806
37	0x3ba8544c	0.005137002
38	0x3f017b84	0.50579095
39	0xbed677de	-0.41888326
40	0xbf22fd2e	-0.6366757
41	0x3e9994e8	0.2999642
42	0x3de667e8	0.11250287
43	0x3eac47c7	0.33648512
44	0xbf172254	-0.59036756
45	0xbed65f66	-0.41869658
46	0x3e8118d9	0.2521427
47	0xbe847fc5	-0.2587873
48	0x3e78630a	0.2425653
49	0xbef70cd8	-0.48251987
50	0x3f1f2c5a	0.6217705
51	0x3eed254f	0.46317527
52	0x3ee68b6c	0.45028245
53	0x3d9d9db4	0.07696095
54	0xbef399d2	-0.47578293
55	0x3ee0a975	0.43879285
56	0x3d312e53	0.04325707
57	0x3da691b5	0.0813326
58	0x3f149ef1	0.58055025
59	0x3f21a848	0.631474
60	0xbf1ec3df	-0.62017626
61	0xbca3448b	-0.019930145
62	0xbe278c21	-0.16362049
63	0x3ec41429	0.3829663

fc1.bias f4 [32]
0	0xbef69860	-0.48163128
1	0xbe238cad	-0.15971632
2	0xbb2e5c1e	-0.00266052
3	0xbec2918e	-0.38001674
4	0xbf0e35ec	-0.5555103
5	0xbe558eb3	-0.20855217
6	0x3d9340aa	0.07190068
7	0x3eda4842	0.42633253
8	0x3dca65db	0.09882709
9	0x3f167d98	0.5878539
10	0xbe7d7a4a	-0.24753681
11	0xbe8e3448	-0.27774262
12	0x3e5ade52	0.21373871
13	0x3f129de3	0.57272166
14	0x3e018c73	0.12651233
15	0xbec64f00	-0.38732147
16	0x3f18418b	0.5947501
17	0xbeaf2c02	-0.34213263
18	0xbb7c3432	-0.003848326
19	0xbe60bd7c	-0.21947283
20	0x3f0b9232	0.5451995
21	0x3bddc7b2	0.0067681903
22	0xbf129683	-0.5726091
23	0xbeb28e29	-0.34874085
24	0x3ca67f3d	0.020324344
25	0xbee5f1d8	-0.44911075
26	0x3ee4ffd3	0.44726428
27	0x3eb23450	0.34805536
28	0x3ef63be9	0.48092583
29	0x3e939192	0.28822
30	0x3ec0329a	0.37538606
31	0x3de9ed21	0.11422182

fc_seq.weight f4 [12, 8]
0	0xbd1fa5c1	-0.038976435
1	0xbe9ecd7b	-0.31016144
2	0xbeb1f410	-0.34756517
3	0xbeb03675	-0.34416547
4	0x3e4f8806	0.20266733
5	0xbe711dea	-0.23546568
6	0x3e87588f	0.26434752
7	0xbdaf8947	-0.085711055
8	0xbd321b0a	-0.043482818
9	0x3e8a7880	0.2704506
10	0x3ead6ea5	0.33873478
11	0xbe39f0ea	-0.18158308
12	0x3e49d6a2	0.19710782
13	0xbe1a6d6c	-0.15080804
14	0x3e50c4be	0.20387551
15	0x3e7897b5	0.24276622
16	0x3e92a38c	0.286404
17	0xbe308263	-0.17237239
18	0xbe9ca3db	-0.30593762
19	0x3d8197a3	0.063277505
20	0xbd662bf5	-0.056194264
21	0xbeb4e306	-0.35329455
22	0x3da5a7de	0.08088659
23	0xbe9f583e	-0.3112201
24	0x3eb04647	0.34428617
25	0xbeb18bff	-0.3467712
26	0xbca7e38a	-0.020494241
27	0xbe12d024	-0.14337212
28	0x3e8a39d1	0.26997235
29	0xbe6de0b8	-0.23230255
30	0xbe8399b1	-0.25703195
31	0xbd63b00c	-0.055587813
32	0xbe1ca910	-0.15298867
33	0x3eb3e1c4	0.35133183
34	0xbe9eb1d9	-0.30995062
35	0xbd3b2238	-0.04568693
36	0xbb9fb325	-0.0048736506
37	0xbdbb2a54	-0.09138933
38	0x3e7740f0	0.24145865
39	0xbb96f19e	-0.0046064397
40	0xbdcb5166	-0.09927635
41	0xbe5e1a5e	-0.21689746
42	0xbd8f2c15	-0.0699083
43	0xbd937a33	-0.07201042
44	0x3df938b8	0.12169021
45	0x3d0644e7	0.032780554
46	0xbea2d656	-0.3180415
47	0x3eab597c	0.3346671
48	0xbdb31b96	-0.08745496
49	0x3e94b25c	0.29042327
50	0x3e6c7879	0.23092832
51	0x3e9dd631	0.30827478
52	0x3e9fb346	0.31191462
53	0xbe737bb7	-0.23777662
54	0x3e087b4b	0.13328283
55	0x3dd4cbdc	0.103904456
56	0xbe12ee06	-0.14348611
57	0x3e74e47f	0.2391529
58	0x3e8b67b9	0.27227572
59	0xbcc1d61a	-0.023661662
60	0xbe3a0d6b	-0.18169181
61	0xbe8596ec	-0.26091707
62	0x3e2fc290	0.17164063
63	0xbe9f3c0f	-0.3110051
64	0x3e8ef076	0.27917832
65	0xbdab964a	-0.08378275
66	0x3de6c698	0.112683475
67	0x3dec0ece	0.11526261
68	0x3e86f1e8	0.26356435
69	0x3e8b310a	0.2718585
70	0x3e41cf62	0.18926767
71	0xbe291648	-0.16512406
72	0x3e695f82	0.2279034
73	0x3cb2a191	0.021805556
74	0x3e541be4	0.20713764
75	0x3e3c0465	0.18361051
76	0x3ea5359c	0.32267463
77	0x3e6a789d	0.22897573
78	0x3e4f04cd	0.20216675
79	0x3e0c18f1	0.1368139
80	0x3e634166	0.22192916
81	0x3e3ff474	0.18745595
82	0xbdcb180f	-0.09916698
83	0xbd98ad10	-0.07454884
84	0x3e629a99	0.22129287
85	0x3e9cd8fe	0.30634302
86	0xbe79e040	-0.24401951
87	0x3e1fa304	0.1558953
88	0x3d9adb91	0.0756141
89	0x3d51a70a	0.05118469
90	0x3e90f3a6	0.2831089
91	0x3e32dfc0	0.17468166
92	0xbe9a1406	-0.30093402
93	0xbe9adfc8	-0.30248857
94	0x3e4c86d9	0.19973315
95	0x3e8f5542	0.27994734

fc_seq.bias f4 [12]
0	0xbe0392d8	-0.12848985
1	0x3d87e936	0.06636278
2	0x3cc2210e	0.023697402
3	0x3cad14b9	0.021128045
4	0xbea3a1ef	-0.31959483
5	0xbe300be1	-0.17192031
6	0xbe8c5b4f	-0.27413413
7	0xbdd6b4e9	-0.104837246
8	0x3e1ef71c	0.15523952
9	0xbd672948	-0.056435853
10	0xbe83e662	-0.25761706
11	0xbdce82d6	-0.10083549

gat1.gat.att_src f4 [1, 2, 15]
0	0x3f0a21c4	0.5395777
1	0xbf0a0199	-0.5390869
2	0xbe6f75fe	-0.23384854
3	0xbbef1197	-0.007295798
4	0x3e3c0a87	0.18363391
5	0x3dd0e426	0.10199766
6	0x3ec1dc41	0.37863353
7	0xbd202cb5	-0.039105136
8	0xbe8b1669	-0.27165535
9	0xbf0c543f	-0.5481605
10	0xbf0f2317	-0.5591292
11	0x3d887f9c	0.066649646
12	0x3d9ed44e	0.07755338
13	0x3f054703	0.5206148
14	0x3e8a475a	0.27007562
15	0xbec0e3b6	-0.3767373
16	0x3d976848	0.07392937
17	0x3ebfb007	0.37438986
18	0x3e60d5e2	0.2195659
19	0xbe75e5f1	-0.24013497
20	0xbd67c744	-0.05658652
21	0x3f0c6677	0.5484385
22	0xbb9264a1	-0.0044675623
23	0x3ecf5404	0.40493786
24	0xbe42f062	-0.19037011
25	0xbed39a4f	-0.41328666
26	0xbe09c762	-0.13454965
27	0x3e030db1	0.12798192
28	0x3f010677	0.5040049
29	0xbf012d0a	-0.5045935

gat1.gat.att_dst f4 [1, 2, 15]
0	0x3eb71df5	0.35765043
1	0xbe8c6851	-0.27423337
2	0xbecf466f	-0.40483424
3	0x3ef63b90	0.48092318
4	0x3c084775	0.008317818
5	0x3eca8418	0.39553905
6	0x3ec70cde	0.38877004
7	0xbecf214d	-0.40455094
8	0x3efe33b2	0.49648815
9	0xbe3e7d70	-0.18602538
10	0xbf12950c	-0.5725868
11	0xbe82b8a8	-0.25531507
12	0x3ea384c7	0.3193724
13	0x3ebf2c13	0.37338313
14	0x3ef1d668	0.4723389
15	0xbe95aac2	-0.2923184
16	0xbdd3e0fb	-0.10345646
17	0x3c831994	0.016003408
18	0x3f01b9c3	0.50674075
19	0x3f0a4264	0.54007554
20	0x3deb9ff9	0.11505122
21	0xbeb9ae93	-0.36266002
22	0x3f165b88	0.58733416
23	0x3ed602f2	0.41799122
24	0x3dec3c0e	0.11534892
25	0x3e32ead4	0.17472392
26	0x3d474256	0.048647247
27	0xbdf9f879	-0.122055955
28	0xbe17842c	-0.14796513
29	0xbee6378b	-0.4496425

gat1.gat.bias f4 [30]
0	0x378e4e05	1.696405e-05
1	0xb5b9bfb9	-1.3839373e-06
2	0xb716a156	-8.978261e-06
3	0x38317bfc	4.2315558e-05
4	0x35a57811	1.2328402e-06
5	0x3630b2f7	2.6330215e-06
6	0x36a607f7	4.9481127e-06
7	0xb79155d3	-1.7325312e-05
8	0xb5168bfd	-5.6083064e-07
9	0x3679cb61	3.7222273e-06
10	0xb6717bcc	-3.5983858e-06
11	0x36a0d459	4.793092e-06
12	0xb85953c0	-5.181483e-05
13	0xb7a19fe8	-1.9267158e-05
14	0x37e12b2f	2.6842199e-05
15	0xb825ae26	-3.9501254e-05
16	0xb6831111	-3.906091e-06
17	0x36e3231b	6.769214e-06
18	0xb5f81867	-1.8484542e-06
19	0x36733fc4	3.6246938e-06
20	0x365dd763	3.3056938e-06
21	0x35b84f95	1.373223e-06
22	0xb7cf8c18	-2.474156e-05
23	0xb7349747	-1.0764058e-05
24	0x37ebdcb8	2.8116963e-05
25	0x34504602	1.9396978e-07
26	0xb6561a35	-3.190374e-06
27	0xb5f5c6d1	-1.8311786e-06
28	0x36946c4b	4.4233507e-06
29	0xb52ac599	-6.361748e-07

gat1.gat.lin.weight f4 [30, 30]
0	0xbe9a7423	-0.3016673
1	0xbdd73cba	-0.105096295
2	0x3c971e56	0.018447082
3	0x3deb3434	0.11484566
4	0x3e12d32a	0.14338365
5	0xbdc90c2e	-0.09816776
6	0xbe20001d	-0.15625043
7	0xbd8a1808	-0.06742865
8	0x3d7550a5	0.05989136
9	0x3e2ff583	0.17183499
10	0x3dc19b18	0.0945341
11	0xbe8f7c77	-0.28024647
12	0x3e8b1869	0.2716706
13	0xbe969e57	-0.2941768
14	0x3dacf4a0	0.08445096
15	0xbdce933a	-0.10086675
16	0x3e061412	0.13093594
17	0xbd3f4c15	-0.046703417
18	0xbe487817	-0.1957706
19	0x3e2c6e84	0.16839033
20	0xbd86cdab	-0.06582197
21	0x3e81a4ff	0.25321195
22	0x3e1f862f	0.1557853
23	0x3e824c2d	0.25448743
24	0xbe99d48e	-0.3004498
25	0x3cc1ff10	0.023681194
26	0x3dddf26a	0.108372524
27	0xbdacd6fb	-0.08439442
28	0x3e132172	0.14368227
29	0xbe2f7367	-0.17133866
30	0x3e3876ec	0.18014115
31	0xbe7326b6	-0.23745236
32	0xbe866883	-0.2625161
33	0xbd99610c	-0.07489213
34	0x3e92c9d7	0.28669617
35	0xbdd7e5e1	-0.10541893
36	0xbe485685	-0.19564255
37	0x3e7e2226	0.24817714
38	0x3dcfdff0	0.101501346
39	0x3e0ca07e	0.13733098
40	0xbe35a438	-0.17738426
41	0x3e847432	0.258699
42	0x3dbc3697	0.091901
43	0x3dfb6b71	0.12276352
44	0x3d013f34	0.031554416
45	0x3e3bc967	0.18338548
46	0x3e81406f	0.2524447
47	0x3e7fea7b	0.24991791
48	0x3ea17222	0.3153239
49	0xbe3d1dff	-0.18468474
50	0xbe6a7ede	-0.22899958
51	0x3e01b0c4	0.12665087
52	0xbde12e06	-0.109951064
53	0x3d88592a	0.06657632
54	0x3dbdccad	0.092675544
55	0x3e309d35	0.1724747
56	0x3e31fa9d	0.17380758
57	0xbe236f1f	-0.15960358
58	0x3d0a924e	0.033830933
59	0x3e1e8527	0.15480481
60	0xbe2512c3	-0.16120438
61	0xbd9a479b	-0.07533189
62	0x3e5b769f	0.21431969
63	0xbd2dd2fd	-0.042437542
64	0xbdb32fd2	-0.087493554
65	0x3e873068	0.2640412
66	0xbe149112	-0.14508465
67	0x3e33dc53	0.17564516
68	0xbe3be3f1	-0.18348671
69	0xbdfc40d3	-0.12317052
70	0xbdafb3f6	-0.08579247
71	0x3e10d5b8	0.14144027
72	0x3e8d074e	0.27544636
73	0x3cb0e010	0.021591216
74	0x3e40d0ad	0.18829603
75	0xbccfdf66	-0.02537508
76	0xbe6633ba	-0.2248067
77	0xbd4f63e7	-0.050632384
78	0x3d46fb92	0.04857976
79	0x3da48a91	0.08034242
80	0xbe9405a6	-0.2891056
81	0xbda0ffd9	-0.07861299
82	0x3d66c83d	0.056343306
83	0xbdad695c	-0.08467361
84	0x3e6fc572	0.23415163
85	0xbe2841c8	-0.16431344
86	0x3cf3e443	0.02977193
87	0xbd91f695	-0.0712711
88	0xbdb2984d	-0.08720455
89	0xbe5edb57	-0.21763359
90	0x3e1e1c92	0.15440586
91	0xbda43239	-0.08017392
92	0xbe9c90af	-0.30579135
93	0x3e3b4221	0.18286945
94	0xbdeeb729	-0.11656029
95	0xbdd3b0ae	-0.10336433
96	0xbe87383c	-0.2641009
97	0xbe40a10e	-0.18811437
98	0xbc738b36	-0.014864733
99	0xbd95832b	-0.07300409
100	0x3e1aab4b	0.15104406
101	0x3daa3a93	0.083119534
102	0x3e529549	0.2056476
103	0x3e8070d7	0.2508609
104	0x3e59a91c	0.21255916
105	0xbe03927c	-0.12848848
106	0xbe334e49	-0.17510332
107	0x3e2eb865	0.17062528
108	0x3df9603a	0.12176557
109	0x3e934bf7	0.28768894
110	0x3e1d2839	0.15347375
111	0x3e7728b6	0.24136624
112	0x3e97a7ad	0.29620114
113	0xbe91e122	-0.28492075
114	0xbe9c3966	-0.30512542
115	0xbde594b9	-0.11210007
116	0x3e9c0bf8	0.3047788
117	0x3dde3751	0.108503945
118	0xbd251c92	-0.04031045
119	0xbe47984a	-0.19491687
120	0xbd39c2bc	-0.04535173
121	0xbd944b6f	-0.0724095
122	0x3e1df96e	0.15427181
123	0xbe29cf28	-0.1658293
124	0x3d0f7261	0.03502119
125	0x3e35248f	0.17689727
126	0x3cbe6c20	0.023244917
127	0x3e06c932	0.13162687
128	0x3d7eb1b6	0.062181197
129	0x3d9b206a	0.07574542
130	0xbe462865	-0.19351347
131	0xbe63e4a4	-0.22255188
132	0xbdf48eac	-0.11941275
133	0xbcd10cfc	-0.025518887
134	0x3de8aeb1	0.11361445
135	0x3d39f993	0.04540403
136	0xbdbd5c2a	-0.092460945
137	0xbdc909e8	-0.098163426
138	0xbe36a199	-0.17835082
139	0x3e4ef986	0.20212373
140	0xbe14778f	-0.14498733
141	0xbe010aa1	-0.12601711
142	0x3e10ac51	0.14128233
143	0x3e98bada	0.29830056
144	0xbe7a4210	-0.24439263
145	0xbe055c9a	-0.13023606
146	0x3e93223b	0.28737053
147	0xbc61d571	-0.013783799
148	0x3e9034eb	0.28165373
149	0x3e7c49eb	0.24637572
150	0x3e7a2e10	0.24431634
151	0xbd87a34c	-0.06622943
152	0x3e767db5	0.24071391
153	0xbe29b25d	-0.16571946
154	0xbdfb0230	-0.122562766
155	0x3e837fce	0.25683445
156	0xbe3168c2	-0.17325118
157	0x3e2ad0eb	0.16681258
158	0xbe03a49f	-0.12855767
159	0x3d66d455	0.05635484
160	0x3e3f35d3	0.18672876
161	0x3e88d960	0.26728344
162	0xbe5becdd	-0.21477075
163	0x3db7dde2	0.08977868
164	0x3dabdaa8	0.08391315
165	0xbe043492	-0.12910679
166	0x3e8398cd	0.25702515
167	0xbdbe3815	-0.092880405
168	0xbe48d878	-0.19613826
169	0xbd136309	-0.03598312
170	0x3daa4dd0	0.08315623
171	0xbdc70ab4	-0.09718838
172	0x3dde8fc0	0.10867262
173	0x3daa26fd	0.08308218
174	0xbd438e6e	-0.047743253
175	0x39ab3fd3	0.00032663214
176	0xbe2294a9	-0.15877022
177	0x3e904798	0.28179622
178	0x3e03a32f	0.12855218
179	0x3e3a09e6	0.18167838
180	0x3e5c5060	0.21515036
181	0xbe94ec50	-0.29086542
182	0x3e9c0659	0.30473593
183	0xbe3f30ec	-0.18671006
184	0x3e95ea5d	0.29280367
185	0x3d66285d	0.056190837
186	0xbdc08ba4	-0.09401634
187	0xbe608e34	-0.21929246
188	0xbc8f508e	-0.017494466
189	0x3db74094	0.08947864
190	0xbe425723	-0.18978553
191	0x3e3eb2bc	0.18622869
192	0xbe8d0f9b	-0.2755097
193	0xbc8d7601	-0.017268183
194	0x3e7b37d3	0.24533014
195	0xbe0b418c	-0.13599223
196	0xbe87ef6c	-0.26549852
197	0xbe8ffbee	-0.28121895
198	0x3e5d2a53	0.21598177
199	0x3df195b1	0.117961295
200	0xbe3da1d9	-0.18518771
201	0x3e0613ac	0.13093442
202	0xbe89a129	-0.26880768
203	0x3e9b6984	0.3035394
204	0xbe698b2b	-0.22806995
205	0xbd979a58	-0.074024856
206	0x3e2ef5f0	0.17086005
207	0xbe1a7cd7	-0.15086685
208	0xbe366e63	-0.17815547
209	0x3d791b57	0.06081709
210	0xbe083d13	-0.13304548
211	0xbd51b7c0	-0.05120063
212	0xbe2dd3fd	-0.16975398
213	0xbd81a1e9	-0.0632971
214	0x3e10db20	0.1414609
215	0xbd8b36d1	-0.06797565
216	0xbde8787c	-0.113511056
217	0xbd2171f0	-0.0394153
218	0x3da076ad	0.078351356
219	0xbc0d865d	-0.008637992
220	0xbd8d955b	-0.06913253
221	0x3be61ccf	0.007022477
222	0x3dfba41c	0.12287161
223	0xbe971487	-0.2950785
224	0x3ddd5094	0.10806385
225	0xbc8e390e	-0.01736119
226	0x3e61ee40	0.22063541
227	0xbdfaea4d	-0.122517206
228	0xbcc1a8c4	-0.023640044
229	0x3e1d15ee	0.15340397
230	0xbda1db47	-0.07903152
231	0x3e1a6fb6	0.15081677
232	0xbe321ab4	-0.17392999
233	0xbdffce94	-0.124905735
234	0xbe8c4154	-0.2739359
235	0xbd82e287	-0.06390863
236	0x3e27d778	0.16390789
237	0xbde44f3d	-0.11147926
238	0x3e60b7aa	0.21945062
239	0x3e116698	0.14199293
240	0xbe418413	-0.18898039
241	0xbd6c6c72	-0.05772061
242	0xbe05b495	-0.13057168
243	0xbe8c9515	-0.2745749
244	0x3e171b99	0.14756621
245	0x3e90cb73	0.2828022
246	0xbd67ef0f	-0.05662447
247	0xbe60a91c	-0.2193951
248	0xbdce8b86	-0.10085206
249	0x3d1d1291	0.038347784
250	0x3e056b60	0.13029242
251	0xbd9bd4ae	-0.07608925
252	0x3dcffd71	0.10155762
253	0xbe3abee4	-0.18236881
254	0x3e977029	0.2957776
255	0x3e903579	0.28165796

gat2.gat.att_src f4 [1, 1, 30]
0	0x3dfc44df	0.123178236
1	0xbe9ed260	-0.31019878
2	0xbd771417	-0.060321894
3	0x39e692c3	0.00043978365
4	0x3e1a3a78	0.15061367
5	0xbe0c5080	-0.13702583
6	0x3ecf7781	0.40520862
7	0x3eba50bb	0.36389717
8	0x3ed4237a	0.41433316
9	0xbde62d86	-0.11239152
10	0x3d694bd5	0.056957085
11	0x3e29dd1a	0.1658825
12	0x3eb88e15	0.360459
13	0xbe9a3274	-0.30116618
14	0x3dbae06d	0.09124837
15	0x3ec0da2c	0.37666452
16	0x3ed5740c	0.416901
17	0x3ea78c6e	0.32724327
18	0xbe985a2b	-0.29756293
19	0xbdaa1a6a	-0.08305819
20	0x3d0b8cba	0.034069754
21	0xbdfe16d7	-0.124067
22	0x3e709ac4	0.23496538
23	0x3ec0ae08	0.37632775
24	0xbe329413	-0.17439298
25	0x3e97682a	0.29571658
26	0x3eac93a7	0.337064
27	0x3e79d3da	0.24397221
28	0x3e37de31	0.17955853
29	0xbe8e3dba	-0.2778147

gat2.gat.att_dst f4 [1, 1, 30]
0	0x3e2acff8	0.16680896
1	0x3e69b5df	0.22823285
2	0xbe9412e8	-0.28920674
3	0xbec51947	-0.38495848
4	0xbe6df044	-0.23236185
5	0x3ec547c0	0.38531303
6	0xbdd31c6d	-0.10308156
7	0xbe620b74	-0.22074682
8	0x3ea66083	0.32495508
9	0x3e6399b5	0.22226603
10	0xbddde4ea	-0.108346775
11	0xbe9600c6	-0.29297465
12	0xbe6273b0	-0.22114444
13	0xbe868d24	-0.26279557
14	0xbdfbabb2	-0.12288608
15	0xbedb223e	-0.42799562
16	0xbda55a1e	-0.08073829
17	0xbd8510ba	-0.06497331
18	0xbed14b35	-0.4087769
19	0x3ed4ee0b	0.41587862
20	0x3e13f915	0.14450486
21	0xbe7e894e	-0.24857065
22	0x3e9bf667	0.30461428
23	0xbbf12d26	-0.0073601184
24	0x3e46c67e	0.19411656
25	0xbeb43df7	-0.35203525
26	0x3b6d55c0	0.003621444
27	0x3ed8062a	0.42192203
28	0xbd84f500	-0.064920425
29	0x3e09cd0c	0.13457125

gat2.gat.bias f4 [30]
0	0x36a8a765	5.0262774e-06
1	0xb780c2fb	-1.5349584e-05
2	0xb78082ec	-1.5319754e-05
3	0x3723990a	9.751189e-06
4	0xb620be72	-2.3952712e-06
5	0xb648cdce	-2.9922116e-06
6	0x37d3a370	2.5229267e-05
7	0xb78fe092	-1.7151502e-05
8	0x35f279d6	1.8065864e-06
9	0x371df9c9	9.416087e-06
10	0xb729274e	-1.0082336e-05
11	0x3687bf54	4.045587e-06
12	0xb75e03c2	-1.3233106e-05
13	0xb6d773b3	-6.4209685e-06
14	0x36e15071	6.714887e-06
15	0xb7d171c5	-2.496772e-05
16	0xb411f6c2	-1.3593947e-07
17	0x36199bea	2.288953e-06
18	0xb637eccd	-2.7406961e-06
19	0x373338b3	1.0682433e-05
20	0x35deaab2	1.6589968e-06
21	0x37556596	1.2719442e-05
22	0xb71f736d	-9.504013e-06
23	0xb69d02f7	-4.6793098e-06
24	0x36f454a7	7.2816215e-06
25	0x349b89b1	2.8971183e-07
26	0xb6ff8de8	-7.6161123e-06
27	0xb62b6e53	-2.5545203e-06
28	0x3729efb5	1.0128996e-05
29	0xb73edef4	-1.1376793e-05

gat2.gat.lin.weight f4 [30, 30]
0	0x3e8b351f	0.27188966
1	0xbd4b749c	-0.049671754
2	0xbe5575c1	-0.20845701
3	0x3e8b4785	0.27203003
4	0xbdd13e65	-0.10216979
5	0x3d9ad8ae	0.075608596
6	0xbe68e16d	-0.22742243
7	0xbb10d121	-0.0022097307
8	0x3d887113	0.06662192
9	0x3e5e6e80	0.2172184
10	0x3e599e77	0.21251856
11	0x3d73af3c	0.05949329
12	0x3e45cab7	0.19315611
13	0x3e8c5a59	0.2741268
14	0x3cef4b4d	0.02921071
15	0xbe8424cd	-0.25809327
16	0x3e0897c3	0.13339143
17	0xbcc17029	-0.023613052
18	0x3e810877	0.2520177
19	0xbd36f964	-0.04467143
20	0xbe3f4f8b	-0.18682687
21	0xbdb891b6	-0.09012167
22	0xbda3ed17	-0.08004206
23	0x3db18b2c	0.08669123
24	0x3e63ad51	0.22234084
25	0xbdf1d56d	-0.11808286
26	0x3e5eaf94	0.21746665
27	0x3dba8843	0.09108021
28	0xbe837e5f	-0.2568235
29	0xbe905fb0	-0.28198004
30	0xbe84d774	-0.25945628
31	0xbe8252ee	-0.25453895
32	0xbd366e33	-0.044538688
33	0x3d95fee9	0.07324011
34	0x3e87bfeb	0.2651361
35	0xbe6fac51	-0.23405577
36	0xbe187810	-0.1488955
37	0x3e960676	0.29301804
38	0xbdc23e82	-0.09484579
39	0x3e3e8e98	0.18609083
40	0x3e6bd118	0.23028982
41	0x3e68b601	0.22725679
42	0xbe178c74	-0.14799672
43	0xbe486eaa	-0.19573465
44	0x3e988096	0.29785603
45	0xbe57d9d8	-0.21079195
46	0x3e127942	0.14304069
47	0xbe86f1d1	-0.26356366
48	0xbdd9f535	-0.10642473
49	0xbd77804c	-0.060425088
50	0x3e7cebdf	0.24699353
51	0xbe3f618f	-0.1868956
52	0xbe9197eb	-0.28436217
53	0x3db4d5cc	0.08829841
54	0x3d98a0ab	0.0745252
55	0xbe8034a5	-0.25040165
56	0x3e46b8d6	0.19406447
57	0x3e2b7641	0.16744329
58	0xbdb2953d	-0.08719871
59	0x3e1fdf1d	0.15612455
60	0xbe888a5b	-0.26668057
61	0xbe2e5075	-0.1702288
62	0x3d952d68	0.07284051
63	0xbe316180	-0.1732235
64	0xbe05879e	-0.13040015
65	0x3e0d76c9	0.13814844
66	0xbe13bcc1	-0.14427473
67	0x3e14d50d	0.14534397
68	0x3e6455ad	0.22298308
69	0x3e13c2ea	0.14429823
70	0xbe654538	-0.22389686
71	0xbe37ca29	-0.17948212
72	0x3e24c960	0.16092443
73	0x3e02a40c	0.12757891
74	0x3e910074	0.28320658
75	0xbdfd2d6d	-0.1236218
76	0x3c751ca7	0.0149604445
77	0x3da38ed5	0.079862274
78	0x3e8d5962	0.27607256
79	0xbe3362d1	-0.17518164
80	0xbd1be841	-0.03806329
81	0xbd989603	-0.074504875
82	0x3d8625f8	0.06550211
83	0xbe5de873	-0.21670704
84	0xbe0a3925	-0.13498361
85	0x3e6df9db	0.23239844
86	0xbde2fa73	-0.11082926
87	0xbdf46b99	-0.11934585
88	0xbddbc1b9	-0.10730309
89	0x3e2b927a	0.16755095
90	0x3a90b102	0.001103908
91	0xbe017ee4	-0.12646061
92	0x3e95f311	0.29287007
93	0x3e6fdf94	0.23425132
94	0x3d683aa3	0.056696545
95	0xbe10a261	-0.14124443
96	0xbd939b2a	-0.072073296
97	0xbe2d716a	-0.16937795
98	0x3e93dd1e	0.28879637
99	0x3e359c28	0.1773535
100	0xbea05872	-0.31317478
101	0xbc6d435e	-0.014481394
102	0xbe889b71	-0.26681092
103	0x3e743bcc	0.23850936
104	0x3e8603b5	0.26174703
105	0x3e964fdc	0.29357803
106	0xbe9b84b8	-0.30374694
107	0xbe160011	-0.14648463
108	0xbe141b38	-0.14463508
109	0x3e6abdf4	0.22924024
110	0xbdb03597	-0.086039715
111	0xbe66bf22	-0.22533849
112	0xbca67f5b	-0.0203244
113	0x3cc50837	0.024051769
114	0xbd05045a	-0.032474853
115	0x3dd1bca6	0.1024106
116	0xbc90703c	-0.017631643
117	0xbce5c3d2	-0.028047476
118	0x3e9bddee	0.30442756
119	0x3db74c89	0.08950145
120	0x3d2db29f	0.042406674
121	0xbdcffd8e	-0.101557836
122	0x3e940b7b	0.2891501
123	0xbd7fa687	-0.062414672
124	0xbe951318	-0.2911613
125	0x3e2a86e9	0.16653027
126	0xbdd9a4d0	-0.106271386
127	0xbdc2500e	-0.094879255
128	0xbdb9e577	-0.0907697
129	0xbe9fae7a	-0.31187803
130	0xbe0cf88d	-0.1376669
131	0x3e9f7a60	0.31148052
132	0xbe331dbe	-0.17491814
133	0xbe5debb9	-0.21671952
134	0x3e8dcdc4	0.2769605
135	0x3e84fc00	0.2597351
136	0xbe30af4a	-0.17254367
137	0x3e6bfa97	0.23044811
138	0x3df5d718	0.120039165
139	0xbd0b5d00	-0.03402424
140	0x3e106241	0.14099981
141	0xbe8b0e36	-0.2715928
142	0x3dc79c04	0.097465545
143	0xbe748eba	-0.23882571
144	0x3ccc3c7b	0.024931183
145	0xbe12ffc5	-0.14355381
146	0xbd1adc61	-0.037807826
147	0x3d9982a7	0.07495623
148	0xbd0b589d	-0.034020055
149	0xbe8cf313	-0.275292
150	0xbdb6275f	-0.08894228
151	0xbe9c67e9	-0.30548027
152	0xbe169d83	-0.14708523
153	0xbe20eada	-0.15714589
154	0xbe563167	-0.20917283
155	0x3df2d068	0.118561566
156	0xbdd942a3	-0.10608413
157	0x3e448af0	0.19193625
158	0x3e170cbd	0.14750953
159	0xbe4923f5	-0.19642623
160	0x3e82d1f7	0.25550815
161	0x3e9fc369	0.31203774
162	0x3e81c997	0.25349113
163	0xbcabe2ea	-0.020982224
164	0x3e6dd5a4	0.23226029
165	0x3e3794d6	0.1792787
166	0x3d23c116	0.039979063
167	0xbdab22ad	-0.08356223
168	0xbd86655f	-0.06562304
169	0x3e4d63d6	0.20057616
170	0xbe30336e	-0.17207119
171	0x3e6135df	0.21993206
172	0x3e9048be	0.28180498
173	0xbc088808	-0.008333214
174	0x3e186cd8	0.1488527
175	0x3df7b7b9	0.12095589
176	0x3cecb0ab	0.028892836
177	0xbe33ac0f	-0.17546104
178	0x3e553a25	0.20822962
179	0x3e8d40bb	0.27588448
180	0xbd4f4b06	-0.050608657
181	0xbdb98057	-0.09057682
182	0xbdcfc026	-0.10144071
183	0x3c467bc4	0.012114469
184	0xbd69a414	-0.057041243
185	0xbe15b33e	-0.14619157
186	0xb9a000fc	-0.00030518312
187	0x3e818a5d	0.25300875
188	0xbdad8648	-0.08472878
189	0x3e61fd22	0.22069219
190	0x3e991bef	0.29904124
191	0xbe044ceb	-0.12919967
192	0x3e91a260	0.28444195
193	0x3e9d72b5	0.30751577
194	0x3caf652e	0.02141055
195	0xbe0b651f	-0.13612793
196	0xbea0a175	-0.31373182
197	0x3e5e7a95	0.21726449
198	0x3e579394	0.2105239
199	0x3e69ce55	0.22832616
200	0xbdf0e92b	-0.11763223
201	0xbdadb0e7	-0.08481007
202	0x3e689e12	0.22716549
203	0xbd253a71	-0.040338937
204	0xbe836597	-0.25663444
205	0xbc8002a1	-0.015626254
206	0x3e75f927	0.24020825
207	0x3e479d53	0.19493608
208	0x3e30d38a	0.17268196
209	0x3e8091ae	0.25111145
210	0xbe8d23af	-0.27566287
211	0xbe7f8ae4	-0.24955326
212	0x3d316cf5	0.0433168
213	0xbe417374	-0.18891698
214	0xbd61312c	-0.054978535
215	0x3e76f85f	0.24118184
216	0xbe6bb9d9	-0.23020114
217	0xbc83a852	-0.016071472
218	0x3e43e4b2	0.19130209
219	0x3e37e513	0.17958479
220	0x3da2fbc9	0.079581805
221	0x3d0f8a9f	0.03504431
222	0xbe29fade	-0.16599604
223	0xbd94b8bb	-0.07261797
224	0x3d2804b6	0.041020118
225	0x3c1de80a	0.009637842
226	0x3e8715e7	0.26383898
227	0xbe3aeea7	-0.18255101
228	0x3e6df670	0.2323854
229	0xbe637ab8	-0.22214782
230	0x3e195cce	0.14976808
231	0x3e685422	0.22688344
232	0xbe294c07	-0.16532908
233	0xbe9d057a	-0.3066824
234	0x3e8af6df	0.27141473
235	0xbe31a4a6	-0.17347965
236	0xbe9c26f7	-0.30498478
237	0x3e4dd2c9	0.2009994
238	0xbe17d1fc	-0.14826196
239	0xbe99c07c	-0.30029666
240	0x3dd575bc	0.10422847
241	0xbc4779c4	-0.012175027
242	0x3d771468	0.060322195
243	0xbe740442	-0.23829749
244	0xbe96deeb	-0.29466948
245	0x3d81e7ca	0.063430384
246	0xbc854445	-0.016267905
247	0x3e879496	0.2648055
248	0xbcdcd17f	-0.026955364
249	0xbe7d1e9e	-0.24718711
250	0x3e9b269b	0.3030289
251	0xbe995cb5	-0.29953542
252	0xbea0d6d8	-0.31413913
253	0xbe2855a6	-0.16438922
254	0xbe86d1b1	-0.26331857
255	0xb9984d8d	-0.0002904948

gru1.weight_ih_l0 f4 [90, 16]
0	0x3d92657b	0.07148262
1	0x3d6dbfa9	0.05804411
2	0xbe335216	-0.17511782
3	0x3e2ccef1	0.16875817
4	0xbe1f2bc2	-0.15544036
5	0xbdeae2da	-0.1146905
6	0x3e0f9da1	0.14024974
7	0x3cc9791e	0.024593886
8	0xbe268669	-0.16262211
9	0xbe3268e8	-0.17422831
10	0xbdb6fa14	-0.08934417
11	0x3e33c639	0.17556085
12	0xbe1dbb3b	-0.15403454
13	0xbdb493c8	-0.088172495
14	0xbb25005d	-0.0025177218
15	0x3dea8f27	0.114530854
16	0xbceb83ee	-0.028749432
17	0xbdbbff75	-0.09179584
18	0xbe1fdd34	-0.15611726
19	0x3dfa87e4	0.1223295
20	0xbe19fa7b	-0.15036957
21	0x3d59175a	0.053000785
22	0x3e3ae92c	0.1825301
23	0x3c0482d5	0.008087833
24	0xbcd75d6f	-0.02628967
25	0xbdb25e86	-0.08709435
26	0xbd94a728	-0.07258445
27	0xbddb85bd	-0.10718868
28	0x3e13263f	0.14370058
29	0x3e256769	0.16152729
30	0xbd82b07e	-0.063813195
31	0xbe21a517	-0.15785633
32	0xbd859bbe	-0.06523846
33	0xbe2a4025	-0.16626032
34	0xbd84d1ae	-0.06485306
35	0xbd6d0203	-0.057863247
36	0x3de77870	0.113022685
37	0xbc285abc	-0.010275539
38	0x3e1a4ec3	0.15069108
39	0x3e2de44e	0.16981623
40	0xbe2e9248	-0.1704799
41	0x3dbdadfd	0.09261701
42	0xbe15c4e9	-0.14625897
43	0xbd071c50	-0.032985985
44	0xbbaee0a6	-0.005336839
45	0xbdf721fb	-0.12067028
46	0x3e0131ac	0.12616605
47	0x3e33a628	0.17543852
48	0x3d9b3ee0	0.07580352
49	0x3daf65bf	0.085643284
50	0x3e34ab21	0.17643405
51	0xbbade7cd	-0.005307174
52	0x3c844bb2	0.016149376
53	0xbdfbeb7d	-0.12300775
54	0x3e0583e1	0.13038589
55	0x3c867c9b	0.016416838
56	0xbc03cb6f	-0.008044108
57	0x3de40a64	0.11134794
58	0x3e34d782	0.17660335
59	0x3dcc1b60	0.09966159
60	0xbde73a8e	-0.11290465
61	0x3d960d70	0.07326782
62	0x3df3cc15	0.1190416
63	0x3d2bf53d	0.041981924
64	0x3d0ea637	0.034826484
65	0xbc3d96e2	-0.011571618
66	0x3e13d9e8	0.14438593
67	0xbd91cf65	-0.071196355
68	0x3ddb6cb4	0.10714093
69	0xbddcee8d	-0.107876875
70	0x3d7461e5	0.059663672
71	0xbd6e170b	-0.058127444
72	0x3cc21feb	0.02369686
73	0x3e297e1d	0.16552015
74	0x3dd1e46d	0.10248647
75	0xbc754877	-0.01497089
76	0x3d6ad5a9	0.05733267
77	0xbdbf557e	-0.09342478
78	0xbda46870	-0.08027732
79	0x3dea02be	0.11426304
80	0xbd3428ee	-0.043984346
81	0x3e04652f	0.12929223
82	0xbe274b1c	-0.16337246
83	0xbae2ee60	-0.0017313473
84	0x3d01ee53	0.031721424
85	0xbc540075	-0.012939562
86	0x3e0b67ff	0.1361389
87	0x3ce7cfc7	0.028297318
88	0xbd9538ba	-0.0728621
89	0xbda4f482	-0.08054449
90	0xbd38488d	-0.044991065
91	0xbe1fd750	-0.15609479
92	0xbc3322cd	-0.01093359
93	0xbe15b8c0	-0.14621258
94	0xbcfc557c	-0.03080248
95	0xbe131dfc	-0.14366907
96	0x3d84a427	0.06476622
97	0xbe352788	-0.17690861
98	0xbe161968	-0.14658129
99	0x3d80733b	0.062719785
100	0x3e323b5c	0.17405456
101	0xbd826da5	-0.06368569
102	0xbe138f60	-0.14410162
103	0x3e1ba844	0.15200907
104	0xbe1055b9	-0.140952
105	0xbd3c9a90	-0.04604584
106	0xbdec313a	-0.11532827
107	0x3e1b2ce2	0.1515384
108	0xbd830015	-0.063965
109	0xbe0145cf	-0.12624286
110	0x3de34d7c	0.11098763
111	0xbe248d9f	-0.16069649
112	0xbdcc1825	-0.09965543
113	0xbdc74978	-0.0973081
114	0xbd534a7a	-0.0515847
115	0x3c42c892	0.01188864
116	0x3c6ddd0e	0.014518036
117	0xbde3c4dd	-0.11121533
118	0x3d25f2f5	0.040514905
119	0x3da32496	0.079659626
120	0xbba68051	-0.0050812145
121	0xbdc5c225	-0.09656171
122	0xbbafd261	-0.0053656553
123	0x3ddea39c	0.1087105
124	0xbdfd6cbb	-0.12374254
125	0xbe28b7de	-0.1647639
126	0xbcd2ffc2	-0.02575672
127	0xbdee0709	-0.116224356
128	0x3e058541	0.13039114
129	0xbdc5ab8d	-0.09651861
130	0xbe045b54	-0.12925464
131	0x3e378d61	0.17925026
132	0x3d6cbb3e	0.057795756
133	0x3d85d339	0.06534428
134	0x3e35d0e4	0.17755467
135	0x3ce257d8	0.027629778
136	0x3d0b196e	0.0339598
137	0x3d1b1a3c	0.037866816
138	0xbe139e7a	-0.14415923
139	0xbdd0f11d	-0.10202239
140	0xbd791be8	-0.06081763
141	0xbdafd746	-0.08585982
142	0x3d0c7df3	0.034299802
143	0xbc42532d	-0.011860651
144	0xbdd65ba6	-0.10466699
145	0x3db612cd	0.08890305
146	0xbe2f92ef	-0.17145894
147	0xbe0030dd	-0.1251864
148	0xbdb1dce8	-0.08684713
149	0x3ca36260	0.01994437
150	0x3e391d94	0.1807769
151	0xbc7841e4	-0.015152428
152	0x3e011521	0.12605716
153	0x3e345640	0.17611027
154	0xbe197515	-0.1498607
155	0x3e10a644	0.14125925
156	0xbe323b7e	-0.17405507
157	0xbe36aca7	-0.17839299
158	0x3df91786	0.1216269
159	0x3e0f44c6	0.13991079
160	0xbc8c2b44	-0.017110474
161	0x3cee8916	0.029118102
162	0x3e2df305	0.16987236
163	0x3e14fdf3	0.14549999
164	0x3c04fe9e	0.008117346
165	0x3df00d37	0.117212705
166	0xbdcf1b59	-0.10112638
167	0xbe066700	-0.13125229
168	0x3dab9b89	0.08379275
169	0x3c959787	0.01826073
170	0xbde529a6	-0.111895844
171	0x3e23f6fb	0.16012184
172	0xbe2031f9	-0.15644063
173	0x3e382a5d	0.1798491
174	0x3e30cbef	0.17265294
175	0x3e366257	0.17810951
176	0x3e367cf2	0.178211
177	0xbdb4f4ea	-0.08835776
178	0xbbcb90e1	-0.0062123393
179	0xbe0fef6e	-0.14056179
180	0x3e329419	0.17439307
181	0x3e188e5f	0.1489806
182	0xbc6f2dff	-0.014598369
183	0x3e0b39c6	0.13596258
184	0xbe2a0b0c	-0.16605777
185	0xbe059d9f	-0.13048409
186	0x3db879e5	0.090076245
187	0xba3ef610	-0.0007284591
188	0xbbb4168a	-0.005495851
189	0x3d8b2eb3	0.067960165
190	0xbc188395	-0.009308715
191	0x3de50358	0.111822784
192	0xbe292d70	-0.1652124
193	0xbd569717	-0.052390184
194	0xbd927dcc	-0.071529
195	0xbc9a6faa	-0.018852074
196	0x3cfdd51e	0.030985411
197	0xbe02721a	-0.12738839
198	0xbd38dbcc	-0.04513149
199	0x3e270669	0.16311039
200	0xbbefb12d	-0.007314822
201	0xbe14faeb	-0.14548843
202	0x3d4f85d3	0.050664734
203	0xbcef068f	-0.029177932
204	0x3e006500	0.12538528
205	0x3cfb9dff	0.030714987
206	0xbda0553b	-0.078287564
207	0xbd928612	-0.07154478
208	0xbd01c466	-0.03168144
209	0xbd18ecca	-0.037335195
210	0x3ce5546b	0.027994355
211	0xbe169e68	-0.14708865
212	0xbc624899	-0.013811254
213	0x3e0c5609	0.13704695
214	0xbe33c84c	-0.17556876
215	0xbe209c38	-0.15684593
216	0xbd885a67	-0.06657868
217	0xbd94249b	-0.072335444
218	0xbe0b38ec	-0.13595933
219	0x3dafa4eb	0.085763775
220	0xbd75d3ad	-0.060016323
221	0xbdf11f65	-0.11773566
222	0xbe024028	-0.12719786
223	0xbc826617	-0.01591782
224	0x3cd1fe54	0.025633968
225	0x3d9a5528	0.075357735
226	0xbe0a7505	-0.13521202
227	0xbdeb7c4b	-0.114983164
228	0x3d9ba238	0.075993
229	0xbe13fc97	-0.14451824
230	0xbe151d15	-0.14561875
231	0xbdbec6ed	-0.09315286
232	0x3d2535f9	0.040334675
233	0xbd81d9a6	-0.06340341
234	0x3c9e099e	0.019291695
235	0xbe124c95	-0.14287026
236	0x3dea1685	0.114300765
237	0xbdb2cca0	-0.08730435
238	0xbd8b2c1f	-0.06795525
239	0xbd22752b	-0.03966252
240	0xbd8df7a4	-0.06931999
241	0x3d9979dd	0.07493947
242	0x3dc8e5a4	0.098094255
243	0xbd2df212	-0.042467184
244	0xbd2fc0e0	-0.04290855
245	0xbd12bb39	-0.03582308
246	0xbdab4b8c	-0.08364019
247	0x3b4dffd3	0.0031433
248	0x3e0e6d3c	0.13908857
249	0x3de411cf	0.11136209
250	0xbe0c9a60	-0.13730764
251	0xbbe41654	-0.0069606695
252	0xbe0180b3	-0.12646751
253	0xbcff4ce7	-0.0311646
254	0xbe08aec5	-0.1334792
255	0xbdc413d4	-0.095740944

gru1.weight_hh_l0 f4 [90, 30]
0	0x3dca5a1d	0.09880469
1	0xbd29b084	-0.041428104
2	0x3e088721	0.13332798
3	0xbd075945	-0.03304412
4	0x3e2746e1	0.16335632
5	0xbc3cbe88	-0.011520036
6	0x3d576413	0.052585673
7	0xbbb282af	-0.0054477076
8	0xbd150ae7	-0.03638735
9	0xbe320e1c	-0.17388195
10	0x3e1b6c7c	0.15178102
11	0xbd334110	-0.04376322
12	0xbcf6dc2f	-0.030134289
13	0xbe12f4e3	-0.1435123
14	0x3e043307	0.1291009
15	0xb9fe4d92	-0.0004850445
16	0xbdd01724	-0.10160664
17	0x3c5c1e10	0.013434902
18	0x3de344fc	0.11097142
19	0xbda51186	-0.08059983
20	0xbd327402	-0.043567665
21	0xbde64b6e	-0.11244856
22	0x3d5c88a9	0.053841267
23	0xbe3832d6	-0.17988142
24	0xbd1168de	-0.0355004
25	0xbe0516bf	-0.12996958
26	0x3d541569	0.05177823
27	0xbe0a49da	-0.13504735
28	0xbcb2a216	-0.021805804
29	0xbd219df5	-0.03945728
30	0x3da0aa15	0.078449406
31	0x3e056eac	0.13030499
32	0xbda2abe5	-0.079429425
33	0x3ced051d	0.028933102
34	0x3b62d06f	0.00346091
35	0xbdbcf61d	-0.0922663
36	0xbdacb7a2	-0.08433463
37	0xbdf586f6	-0.119886324
38	0xbe1ad9b9	-0.15122117
39	0x3e33e264	0.1756683
40	0xbe239a27	-0.15976773
41	0xbd3cfb0e	-0.046137862
42	0xbd40efae	-0.047103576
43	0x3d21e4c6	0.039524816
44	0x3e19044d	0.14943047
45	0x3dd257d0	0.10270655
46	0x3dbbad52	0.091639176
47	0xbe263297	-0.16230236
48	0xbe0221c2	-0.1270819
49	0xbe091eda	-0.13390675
50	0x3e3021dc	0.17200416
51	0xbde26f53	-0.1105639
52	0x3e23f9c4	0.16013247
53	0xbd74ab1c	-0.059733495
54	0xbde4f150	-0.11178839
55	0x3e19d732	0.15023497
56	0x3e1725bd	0.1476049
57	0xbdac343d	-0.08408401
58	0xbd1ee613	-0.038793635
59	0xbe012591	-0.12611987
60	0x3e208b7b	0.15678208
61	0xbd7548f8	-0.05988404
62	0xbdf5799f	-0.11986088
63	0x3e095589	0.13411535
64	0xbd6f4db2	-0.058423705
65	0x3bf48332	0.0074619288
66	0x3e10393f	0.14084338
67	0x3c4c48d3	0.0124685345
68	0xbdc656ab	-0.09684499
69	0xbe2a4df9	-0.16631307
70	0xba95850b	-0.0011407448
71	0xbd89c510	-0.0672704
72	0xbddac984	-0.10682967
73	0x3cfe4c91	0.03104237
74	0xbe313630	-0.17305827
75	0x3c8e7af2	0.01739261
76	0x3d98020e	0.07422267
77	0xbda3081e	-0.079605326
78	0x3d11c47f	0.035587784
79	0x3e028aaa	0.12748209
80	0x3d275fe7	0.040862944
81	0xbdf32a09	-0.11873252
82	0x3def73e9	0.1169203
83	0xbdb54b94	-0.08852306
84	0xbdfd01e4	-0.12353876
85	0x3db4f458	0.08835667
86	0x3c621c81	0.013800741
87	0xbe2b008b	-0.16699426
88	0xbdb5bdf0	-0.08874118
89	0x3cd6e6fd	0.02623319
90	0xbc93bf41	-0.018035533
91	0x3d996cd2	0.07491459
92	0xbe182d88	-0.14861119
93	0x3da4604d	0.080261804
94	0xbc6f0375	-0.014588227
95	0xbe1d52b0	-0.15363574
96	0xbe383b90	-0.17991471
97	0x3c4f8ebf	0.012668311
98	0x3c681b0b	0.014166604
99	0x3dd9fff1	0.1064452
100	0xbd245813	-0.040123057
101	0xbe11b494	-0.14229041
102	0x3d71398d	0.058892775
103	0x3d984b9f	0.074362986
104	0x3e13cac5	0.14432819
105	0xbd8af32e	-0.06784664
106	0xbe326f2d	-0.17425223
107	0x3d54f30e	0.051989608
108	0xbd78b9ef	-0.060724195
109	0x3dd561cf	0.10419046
110	0x3b740eb6	0.0037240214
111	0xbd70512e	-0.05867117
112	0xbe1bfda6	-0.15233478
113	0xbdd25253	-0.10269608
114	0xbdc70bf4	-0.09719077
115	0x3e30ab93	0.1725295
116	0xbe08a12a	-0.13342729
117	0xbd9d205e	-0.07672189
118	0x3d0a96a3	0.033835065
119	0xbd20d4c3	-0.039265405
120	0x3e235b16	0.15952715
121	0xbd631240	-0.055437326
122	0x3b070fe6	0.0020608841
123	0xbddaeb2d	-0.106893875
124	0xbd035ed9	-0.032072876
125	0x3dbf0924	0.09327915
126	0xbd84149a	-0.06449242
127	0x3e395c58	0.18101633
128	0xbe20c902	-0.15701678
129	0x3da2168f	0.07914459
130	0xbd9b0829	-0.07569916
131	0xbd6bc0e9	-0.05755702
132	0x3c9cfe60	0.019164264
133	0xbe00ab95	-0.12565453
134	0xbe0373a7	-0.12837087
135	0xbe350a7b	-0.17679779
136	0xbdbb35e8	-0.09141141
137	0x3e1889eb	0.14896362
138	0xbe06f66e	-0.13179943
139	0x3e124b5a	0.14286557
140	0xb866227f	-5.48684e-05
141	0xbd4f72ff	-0.05064678
142	0x3dab4dfd	0.083644845
143	0xbe05a901	-0.13052751
144	0x3b9d520a	0.0048010396
145	0xbd013121	-0.031540994
146	0x3e329c4e	0.17442438
147	0x3d4dd228	0.05024925
148	0x3e297562	0.16548684
149	0x3c207070	0.009792432
150	0xbe0fa814	-0.1402896
151	0xbe198bb2	-0.14994696
152	0x3e268dcb	0.16265027
153	0x3e0d3d58	0.13792932
154	0xbdd082f4	-0.10181227
155	0xbd2c7d07	-0.042111423
156	0x3e340693	0.17580633
157	0x3e2a55ec	0.16634339
158	0x3d57ed18	0.052716345
159	0xbbb11185	-0.0054037
160	0x3db7b8ec	0.08970818
161	0xbcabcb04	-0.020970829
162	0xbe0e3061	-0.13885643
163	0xbdc6eff9	-0.0971374
164	0xbdd7ca22	-0.10536601
165	0xbdd30805	-0.10304264
166	0xbdda7bda	-0.10668154
167	0x3e0f0cf1	0.1396978
168	0xbdd13fdc	-0.10217258
169	0xbdd3310b	-0.103120886
170	0x3e2996f7	0.16561495
171	0x3c8af850	0.016964108
172	0xbd237b12	-0.03991229
173	0xbdcae427	-0.09906798
174	0x3cc09fc8	0.02351369
175	0x3d4624d0	0.04837495
176	0xbcdcbcb8	-0.026945457
177	0x3d853e8a	0.06506069
178	0xbd78b997	-0.060723867
179	0xbdfe30c5	-0.12411646
180	0x3dfa86b7	0.12232726
181	0xbaebb11e	-0.0017981862
182	0xbdbb274a	-0.09138353
183	0x3e21409e	0.15747306
184	0x3e10348a	0.14082542
185	0xbdf774fc	-0.1208286
186	0xbda9e980	-0.0829649
187	0x3e2807d1	0.16409232
188	0xbdd024c1	-0.1016326
189	0xbda3a1a0	-0.07989812
190	0xbd9b4dde	-0.07583211
191	0x3cfb9891	0.030712398
192	0xbe088425	-0.13331659
193	0x3d8c0568	0.06836969
194	0x3dd2b83c	0.10289046
195	0x3ca691d8	0.020333216
196	0x3d9e5058	0.07730168
197	0x3d53ef69	0.05174199
198	0x3e1f5c48	0.15562546
199	0x3db7c450	0.089729905
200	0x3d547121	0.0518657
201	0xbd956e04	-0.072963744
202	0x3e2271f4	0.15863782
203	0xbe273967	-0.16330491
204	0xbddf3dab	-0.10900434
205	0x3dc95c0d	0.098320104
206	0x3e08bc43	0.13353066
207	0xbe029f3a	-0.12756053
208	0xbdf08377	-0.11743825
209	0x3e29d2ef	0.16584371
210	0xbe2120fc	-0.15735239
211	0x3b65d8bd	0.0035071813
212	0xbc9f8239	-0.019471275
213	0x3cf58488	0.029970422
214	0xbbefbbf2	-0.007316106
215	0xbe368773	-0.17825107
216	0xbe1bae57	-0.15203224
217	0xbd9d09cc	-0.07667884
218	0x3dd283ee	0.1027907
219	0x3dd4a5d0	0.10383189
220	0x3dea009c	0.114258975
221	0xbca0542f	-0.019571392
222	0x3dceed6b	0.10103878
223	0x3da6af69	0.081389256
224	0xbd6a2a7a	-0.057169415
225	0xbe2b6af6	-0.16740021
226	0x3da34e9d	0.07973979
227	0x3c0ab8c7	0.008466906
228	0x3c864460	0.016390026
229	0x3c4423a5	0.011971389
230	0x3e279ee1	0.16369201
231	0xbe2971e7	-0.16547357
232	0x3e3598dc	0.17734092
233	0x3d6e1a26	0.058130406
234	0xbd5754e6	-0.0525712
235	0xbd984047	-0.07434135
236	0x3c8b8c62	0.017034713
237	0xbbbd4271	-0.0057757427
238	0x3da02ec7	0.07821422
239	0xbe07471b	-0.13210718
240	0xbd9f431c	-0.07776472
241	0x3d66d240	0.056352854
242	0xbe0c213d	-0.13684554
243	0xbe023957	-0.12717186
244	0x3bdca5e5	0.0067336434
245	0xbe0fc84a	-0.14041248
246	0x3e256128	0.16150343
247	0xbd36aacb	-0.044596475
248	0xbd8a6cb4	-0.06759015
249	0x3d9cb3f4	0.07651511
250	0xbe086d4a	-0.1332294
251	0x3c3ff132	0.01171522
252	0xbdfade1d	-0.12249396
253	0x3df4a14f	0.1194483
254	0x3d8bfbc9	0.068351336
255	0x3e1098a3	0.14120726

gru1.bias_ih_l0 f4 [90]
0	0x3d75fbfb	0.06005476
1	0xbd86b3bc	-0.0657725
2	0x3c80e522	0.015734259
3	0xbadb2bf8	-0.0016721478
4	0x3e3948f6	0.18094239
5	0xbdda9893	-0.106736325
6	0x3d59f3fe	0.053211205
7	0x3d848b12	0.06471838
8	0x3d191c02	0.037380226
9	0x3e1f6c6a	0.155687
10	0x3ad059f4	0.0015895949
11	0xbdb62012	-0.08892836
12	0x3e1177f8	0.1420592
13	0x3d03c5de	0.032171123
14	0x3d2f5adc	0.04281126
15	0xbd5d2021	-0.05398572
16	0x3da672d4	0.081273705
17	0xbd5b7433	-0.053577613
18	0xbda0141f	-0.07816338
19	0xbd86d97b	-0.0658445
20	0xbe232c37	-0.15934835
21	0xbe2f1b65	-0.17100294
22	0xbcfbd88f	-0.030742912
23	0x3d38a816	0.045082174
24	0xbdea5e74	-0.11443797
25	0x3e1843ab	0.14869563
26	0xbdf1cc31	-0.118065245
27	0xbcf8fe72	-0.030394766
28	0xbddc9ec1	-0.107724674
29	0xbdab12be	-0.08353184
30	0x3b4d3357	0.0031311119
31	0x3d20aeac	0.03922908
32	0xbe1e3aef	-0.15452169
33	0x3d9d08ce	0.07667695
34	0xbdacb704	-0.08433345
35	0x3e394467	0.180925
36	0xbd38c355	-0.04510816
37	0xbd7f27d1	-0.06229383
38	0xbe0d6c90	-0.13810945
39	0x3d907e8c	0.07055387
40	0x3d32f2fd	0.043688763
41	0xbe2ab97f	-0.16672324
42	0x3b3ee1fb	0.0029126394
43	0x3d741179	0.059586976
44	0x3de3b839	0.11119122
45	0x3e099668	0.13436282
46	0x3de03bc7	0.109489016
47	0xbe3224dd	-0.17396875
48	0xbd53a560	-0.051671386
49	0xbe167188	-0.14691746
50	0x3dc4bb28	0.0960601
51	0x3dfbbbb3	0.1229166
52	0x3e38d9e6	0.18051872
53	0xbdd57d9e	-0.1042435
54	0x3c308e57	0.010776124
55	0x3c9f2741	0.019427897
56	0x3dc7b371	0.097510226
57	0x3e0e3134	0.13885957
58	0xbd4fd80d	-0.05074315
59	0xbe246540	-0.16054249
60	0x3d1cbe27	0.03826728
61	0xbe29ca7c	-0.16581148
62	0x3c949a64	0.018140025
63	0xbdcf79a3	-0.10130622
64	0xbe2a8275	-0.16651328
65	0xbe124be6	-0.14286765
66	0x3d3a11be	0.045427077
67	0xbddeb59e	-0.108744845
68	0xbd1dc29e	-0.03851568
69	0x3dce0e8e	0.1006137
70	0xbe2d5af6	-0.1692923
71	0xbe12ee5b	-0.14348738
72	0x3ccf2fdb	0.025291374
73	0xbdaca817	-0.08430498
74	0xbe1c6045	-0.15271099
75	0xbe293851	-0.16525389
76	0x3e0c7956	0.13718161
77	0xbdb8e0c6	-0.09027247
78	0xbd02bcbf	-0.031918284
79	0x3dbb1655	0.09135119
80	0xbdbb30b1	-0.091401465
81	0x3d8c4436	0.06848948
82	0x3dd25fa7	0.102721505
83	0x3e08d1b4	0.13361245
84	0x3d1a3999	0.037652586
85	0xbdb82086	-0.08990578
86	0xbdf9fa97	-0.12205999
87	0xbc50a875	-0.012735476
88	0xbe34cb12	-0.1765559
89	0x3e1d9141	0.15387441

gru1.bias_hh_l0 f4 [90]
0	0x3df8241c	0.12116262
1	0xbd8a1b52	-0.06743492
2	0xbde1ddd9	-0.11028642
3	0x3da1ac30	0.0789417
4	0xbc3814f4	-0.011235464
5	0xbdfa1e74	-0.1221284
6	0xbda74d47	-0.08169036
7	0x3da7f4f9	0.08201022
8	0x3e2da2b8	0.16956604
9	0xbd5f8565	-0.054570574
10	0x3e13621d	0.14392896
11	0x3d3c4305	0.045962352
12	0x3e34777d	0.17623706
13	0x3dedc8cd	0.11610565
14	0x3e24a50c	0.16078585
15	0xbd865459	-0.06559057
16	0xbe245d39	-0.16051187
17	0x3d5ec638	0.054388255
18	0xbd27da8c	-0.040979907
19	0x3da49c50	0.08037627
20	0xbde63429	-0.112404175
21	0x3cc113ab	0.023568949
22	0x3de326a4	0.110913545
23	0xbdf02392	-0.117255345
24	0x3cdfdbf0	0.027326554
25	0x3decd6ac	0.11564383
26	0xbce38e7e	-0.027777907
27	0xbd8307ba	-0.06397958
28	0x3d0ca1eb	0.034334105
29	0x3cda726d	0.02666589
30	0xbde7034e	-0.11279927
31	0x3e1d17a3	0.15341048
32	0xbdf56893	-0.119828366
33	0xbe38bb2d	-0.18040152
34	0xbe057556	-0.13033041
35	0x3d8949fd	0.06703565
36	0x3dbfec72	0.0937127
37	0x3c143117	0.009044907
38	0xbbb3786e	-0.005477003
39	0xbdfdeefd	-0.12399099
40	0x3d3bdd5f	0.045865413
41	0xbc628ffc	-0.013828274
42	0xbd1b3b6b	-0.037898462
43	0xbe1c3ebb	-0.15258305
44	0x3cdf385a	0.02724855
45	0x3da7203d	0.08160446
46	0x3e1ce46f	0.15321516
47	0x3d3800fc	0.044922814
48	0xbdff2652	-0.12458481
49	0x3d963bd8	0.07335633
50	0xbe24819b	-0.16065066
51	0xbca2015e	-0.019776043
52	0xbd6a818a	-0.057252444
53	0xbdbb092a	-0.09132607
54	0x3dce0db0	0.100612044
55	0x3d621664	0.055197135
56	0x3d988fbc	0.0744929
57	0xbd578900	-0.052620888
58	0x3c128439	0.008942657
59	0xbc2d55a7	-0.010579503
60	0x3d358ab1	0.04432172
61	0xbd99ccfa	-0.07509799
62	0xbd75156a	-0.059834875
63	0xbe276aed	-0.16349383
64	0xbe2aa84d	-0.16665764
65	0x3c7670f7	0.015041581
66	0xbdf66568	-0.120310605
67	0x3da303f3	0.07959738
68	0xbcc17b8e	-0.023618486
69	0x3d12d073	0.035843324
70	0x3e367b9c	0.1782059
71	0x3dbb47f5	0.09144584
72	0x3dc759de	0.09733938
73	0xbe04a4a1	-0.12953426
74	0x3e06d291	0.13166262
75	0x3d6f2c8f	0.058392104
76	0x3d60a0e9	0.054840956
77	0x3d9195ae	0.07108627
78	0xbde3b83c	-0.11119124
79	0xbd77c7dd	-0.06049334
80	0x3df883fe	0.121345505
81	0x3ca2c88f	0.019871024
82	0xbc12c57e	-0.008958219
83	0x3e3771d6	0.17914519
84	0xbd61b874	-0.05510755
85	0xbe05d76c	-0.13070458
86	0x3dd2f6a1	0.10300947
87	0xbc067aa5	-0.008207952
88	0x3e20dc2d	0.1570899
89	0x3e35e0db	0.17761557

gru2.weight_ih_l0 f4 [90, 30]
0	0xbcfd4456	-0.030916374
1	0xbdf21073	-0.11819544
2	0x3e0c5f3a	0.13708201
3	0xbd3c7601	-0.046010975
4	0x3d7b8470	0.0614056
5	0x3e2f8c21	0.17143299
6	0x3cb09575	0.021555642
7	0x3d963df5	0.07336036
8	0x3dea403a	0.114380315
9	0x3e1abf14	0.15111953
10	0xbd1801ae	-0.037110977
11	0x3e2340f0	0.1594274
12	0x3d39154f	0.045186337
13	0x3da2c2b1	0.07947291
14	0xbd99741c	-0.07492849
15	0x3e2c8d00	0.16850662
16	0xbe0f436b	-0.13990562
17	0xbe03af59	-0.12859859
18	0xbdaee8e9	-0.08540518
19	0x3e1c030e	0.1523554
20	0xbd173370	-0.03691429
21	0xbdde4b67	-0.108542256
22	0xbd18d4bc	-0.037312254
23	0xbc9fc220	-0.019501746
24	0xbcf0ea33	-0.02940855
25	0xbdc9de72	-0.09856881
26	0x3ce8c00b	0.028411886
27	0xbde25018	-0.11050433
28	0x3da3875f	0.07984804
29	0x3e1492a6	0.14509067
30	0x3d6a4be9	0.0572013
31	0x3e207e46	0.1567317
32	0xbe2bf293	-0.16791753
33	0xbcc8f67c	-0.024531595
34	0x3dd407cc	0.1035305
35	0x3e03eeb6	0.1288403
36	0xbe35fcda	-0.17772236
37	0xbd88fe38	-0.066891134
38	0xbdc38fe8	-0.09548932
39	0x3dee8fa0	0.11648488
40	0xbdeced99	-0.11568756
41	0x3de7f1eb	0.11325439
42	0x3e06ee99	0.13176955
43	0x3caaa6b7	0.020831449
44	0x3e3397d6	0.1753839
45	0x3d70e366	0.058810614
46	0x3b9fdc30	0.0048785433
47	0x3dd88bd8	0.10573548
48	0xbe1e10b8	-0.15436065
49	0x3e341d32	0.17589262
50	0x3c8ea334	0.017411806
51	0xbd6da1e6	-0.058015727
52	0x3d99d5db	0.07511493
53	0xbd813788	-0.0630942
54	0xbe173477	-0.14766107
55	0xbdc73d83	-0.09728529
56	0x3dc16698	0.09443396
57	0x3c90f9f4	0.017697312
58	0xbd3f492e	-0.04670065
59	0xbe002d4d	-0.12517281
60	0xbe24b9c8	-0.16086495
61	0xbd8fdbcb	-0.07024344
62	0x3c940990	0.018070966
63	0x3d4ebe85	0.050474662
64	0xbe257a99	-0.16160049
65	0xbd10b6be	-0.035330527
66	0x3d990446	0.07471518
67	0xbd9373e0	-0.07199836
68	0xbdb83002	-0.08993532
69	0xbcfa295d	-0.030537302
70	0x3e29aace	0.16569063
71	0xbdafb80e	-0.085800275
72	0xbcd5a0a3	-0.026077574
73	0x3dae1985	0.08500961
74	0xbd09536f	-0.033526834
75	0x3e20b4e5	0.15694006
76	0xbe22404d	-0.15844841
77	0x3bce8af2	0.0063031847
78	0xbe1d56a6	-0.15365085
79	0xbe2bd1dd	-0.16779275
80	0xbb9ba75d	-0.004750176
81	0x3cd9f753	0.026607191
82	0xbdd23dc9	-0.10265691
83	0xbe3431cb	-0.1759712
84	0x3e09d166	0.13458785
85	0x3d2669dc	0.0406283
86	0x3e2adf46	0.16686735
87	0x3d28a225	0.041170258
88	0xbc2854cd	-0.010274124
89	0xbe2f1811	-0.17099024
90	0x3cd72f32	0.026267622
91	0xbe384403	-0.17994694
92	0xbdde53aa	-0.108558014
93	0xbd06280d	-0.03275304
94	0xbe38fd29	-0.18065323
95	0xbccc262e	-0.02492055
96	0xbe248098	-0.1606468
97	0xbdb36787	-0.08759981
98	0xbe222cd7	-0.15837418
99	0xbd2bf184	-0.041978374
100	0xbc63ba95	-0.013899465
101	0x3e03a05a	0.12854138
102	0xbd098810	-0.033577025
103	0xbd32319f	-0.043504354
104	0xbdb22075	-0.08697597
105	0x3bd7a43a	0.0065808566
106	0x3def2694	0.1167728
107	0xbd8fa4eb	-0.070138775
108	0xbd052137	-0.03250238
109	0xbe055afe	-0.13022992
110	0x3d808cf9	0.062768884
111	0xbdda77f3	-0.1066741
112	0x3e26b0c0	0.16278362
113	0x3d2611ad	0.0405442
114	0xbd8525ed	-0.065013744
115	0xbd985fec	-0.07440171
116	0x3e0d88ad	0.13821669
117	0xbd465fbd	-0.048431147
118	0xbd937308	-0.07199675
119	0xbccabb44	-0.024747498
120	0xbe163ad0	-0.14670873
121	0x3dac8d84	0.084254295
122	0x3db55b3f	0.088552944
123	0xbd30c7df	-0.043159362
124	0xbdb0a3f0	-0.086250186
125	0xbce985ae	-0.028506126
126	0x3c9ede3a	0.019393075
127	0xbd099d03	-0.033597004
128	0x3cc5947d	0.024118656
129	0xbca9c167	-0.020722104
130	0xbe2c5c1d	-0.16832013
131	0xbe294464	-0.16529995
132	0xbd2fece6	-0.042950533
133	0x3dfa111b	0.12210294
134	0x3e364488	0.1779958
135	0x3cebc2f6	0.028779488
136	0xbd59fdc3	-0.05322052
137	0xbe237111	-0.159611
138	0xbdd96409	-0.10614783
139	0x3e1aff94	0.15136558
140	0xbc85b9f0	-0.016324013
141	0x3cbaac85	0.022787342
142	0x3e201233	0.15631942
143	0x3d1a9d6c	0.037747785
144	0x3d875d3e	0.066095814
145	0xbcae4599	-0.021273421
146	0x3cc1d605	0.023661623
147	0x3d6b9046	0.057510637
148	0xbd7a84a7	-0.061161663
149	0xbe0dc3b8	-0.13844192
150	0xbcae01c6	-0.02124108
151	0x3e162d01	0.14665605
152	0xbc7610a8	-0.01501862
153	0x3dfdfd72	0.124018565
154	0xbdd1d0b2	-0.102448836
155	0xbb69624e	-0.0035611573
156	0x3e1d3234	0.15351182
157	0x3de94249	0.11389596
158	0x3db60f8f	0.08889686
159	0x3de7d4a3	0.11319854
160	0x3dc8463b	0.097790204
161	0x3d856cea	0.06514914
162	0xbe08bec8	-0.13354027
163	0xbe02b583	-0.12764554
164	0xbdae3b08	-0.08507353
165	0xbd3a8847	-0.04554012
166	0xbe35eb39	-0.17765512
167	0x3dcb6608	0.0993157
168	0x3e208101	0.15674211
169	0xbd2a7ba1	-0.041621808
170	0x3d4a3256	0.04936441
171	0xbe0133cc	-0.12617415
172	0xbde7551c	-0.1129553
173	0xbe1fdb7a	-0.15611067
174	0x3dd0983c	0.101852864
175	0x3c672895	0.014108797
176	0xbcfd2570	-0.03090164
177	0xbde328ed	-0.1109179
178	0x3d88c8dc	0.06678936
179	0xbd5ae1ef	-0.053438123
180	0x3b85bd39	0.004081395
181	0xbe28e301	-0.16492845
182	0x3d58a331	0.052890006
183	0x3e2afa24	0.16696984
184	0x3d28530b	0.04109482
185	0xbdbbcfe8	-0.09170514
186	0xbd72b632	-0.059255786
187	0xbd2b3e81	-0.041807655
188	0xbe022d4e	-0.12712595
189	0x3e1ab82b	0.15109317
190	0xbe3ae674	-0.18251973
191	0x3d68cb17	0.056834307
192	0x3dd20267	0.102543645
193	0x3dec9e6b	0.11553653
194	0xbd6e2a37	-0.058145728
195	0x3c160c26	0.00915817
196	0x3cea28fe	0.028584
197	0xbe3aebcb	-0.1825401
198	0xbe060680	-0.13088417
199	0x3e10c7cc	0.14138716
200	0xbd82a630	-0.06379354
201	0x3ca41a0c	0.020031951
202	0x3dc430fe	0.09579657
203	0xbe1e76dc	-0.15475029
204	0x3e0396bc	0.1285047
205	0x3d050986	0.032479785
206	0x3e356a01	0.17716219
207	0x3d6ea303	0.05826093
208	0x3e078f9c	0.13238376
209	0xbd833299	-0.06406135
210	0xbd641d61	-0.05569208
211	0x3de40fb0	0.11135805
212	0xbdefc70a	-0.117078856
213	0x3d1315c8	0.035909444
214	0xbe293c80	-0.16526985
215	0xbd23378a	-0.039847888
216	0x3dcc5f2d	0.09979091
217	0x3bd20f09	0.0064104837
218	0x3d66ab9c	0.056316003
219	0x3d24e8db	0.04026113
220	0x3e2f2557	0.17104088
221	0xbdf7db0b	-0.12102326
222	0xbdde2054	-0.1084601
223	0xbe2fc056	-0.17163214
224	0x3da785d2	0.08179821
225	0xbe173219	-0.14765204
226	0xbc2fe861	-0.010736556
227	0x3d8afa18	0.06785983
228	0xbc7d6759	-0.0154665345
229	0x3d5756f9	0.052573178
230	0xbe19f528	-0.15034926
231	0xbe1adaa8	-0.15122473
232	0x3d4e9643	0.05043627
233	0x3e10f632	0.14156416
234	0xbc73e68b	-0.014886509
235	0xbca99f4f	-0.020705847
236	0xbdeb4b58	-0.1148898
237	0x3db27e9f	0.08715557
238	0xbe35ada9	-0.17742027
239	0xbbdf2288	-0.0068095364
240	0x3dd2a0db	0.10284587
241	0xbd7c9193	-0.061662268
242	0x3d1349f9	0.035959218
243	0xbe308046	-0.17236432
244	0xbd630ab2	-0.05543012
245	0x3e2b2ddc	0.16716713
246	0xbe1330e7	-0.14374124
247	0x3d03cf6e	0.032180242
248	0xbdeda92e	-0.11604534
249	0xbe2acd2a	-0.16679826
250	0x3e04e697	0.12978588
251	0x3dbc7fcb	0.09204062
252	0x3d1b2bb1	0.037883464
253	0xbe05705e	-0.13031146
254	0x3d0a256b	0.03372709
255	0x3e25689b	0.16153185
