checkpoint/social-stgcnn-zara1/val_best.pth (torch, 170225 bytes, 44 tensors)

fc1.weight f4 [32, 2]
-0.06736054 0.31013247 -0.06850534 0.41410974 0.66127115 0.0050946386 0.14118439 0.38097274
0.010832297 0.13707389 -0.5620259 0.21240138 -0.5977178 0.36538616 -0.39822778 0.22959477
0.68874174 0.52601546 -0.48553026 0.56630355 -0.66765356 0.25578585 0.58312446 0.027828477
0.2364182 0.4394191 -0.20818661 -0.40999532 -0.13861522 0.29150286 -0.5209733 -0.15731415
0.6924381 0.22278757 -0.50731504 -0.36999184 0.49712086 -0.685045 0.32964855 -0.111049056
-0.6477229 0.23569179 0.05157621 -0.037214506 -0.3273889 -0.035630405 0.12379632 0.51190937
-0.006192379 -0.08805284 0.03103091 0.20021896 0.28687036 -0.2643692 0.55760366 -0.71900755
-0.5752221 0.22139452 -0.6625222 -0.54923165 -0.0014317005 -0.42389593 -0.034872524 -0.4782355
00000000: 53f4 89bd afc9 9e3e 874c 8cbd 3106 d43e
00000010: 1149 293f edf0 a63b a492 103e dc0e c33e
00000020: f279 313c 195d 0c3e eee0 0fbf bf7f 593e
00000030: 0904 19bf e513 bb3e 83e4 cbbe e41a 6b3e
00000040: 6151 303f f3a8 063f 6c97 f8be 45f9 103f
00000050: 58eb 2abf 5df6 823e a547 153f 8cf8 e33c
00000060: 9d17 723e 8afb e03e df2e 55be e8ea d1be
00000070: 26f1 0dbe dd3f 953e 825e 05bf f616 21be
00000080: a043 313f 6d22 643e 66df 01bf 926f bdbe
00000090: a086 fe3e 1c5f 2fbf b2c7 a83e b06d e3bd
000000a0: 2bd1 25bf 3059 713e 9341 533d 3d6e 18bd
000000b0: 859f a7be 30f1 11bd ed88 fd3d 7e0c 033f
000000c0: 71e9 cabb 0c55 b4bd 8934 fe3c 3306 4d3e
000000d0: ace0 923e 665b 87be 1dbf 0e3f e110 38bf
000000e0: c141 13bf 3fb5 623e 0e9b 29bf 729a 0cbf
000000f0: e6a7 bbba e308 d9be 7ed6 0ebd 49db f4be

fc1.bias f4 [32]
-0.16216196 -0.096237786 0.31110314 -0.35496882 0.5634958 0.29096758 -0.6029195 -0.21032381
0.606516 0.5349085 0.5812043 0.39358544 -0.46367544 -0.07505416 0.06199243 0.025004184
0.40470108 0.6238336 -0.47914356 0.2301921 0.05056416 -0.4393409 -0.17954682 -0.5687998
-0.37023982 -0.11095269 -0.5327734 -0.16870876 0.22629635 -0.048824146 0.52347416 -0.18170263
00000000: c90d 26be 5118 c5bd e948 9f3e 79be b5be
00000010: 4341 103f b4f9 943e ef58 1abf 205f 57be
00000020: a244 1b3f c3ef 083f cec9 143f 0884 c93e
00000030: de66 edbe ffb5 99bd c6eb 7d3d 93d5 cc3c
00000040: fb34 cf3e 8fb3 1f3f 4e52 f5be 7ab7 6b3e
00000050: 5d1c 4f3d 4af1 e0be 1fdb 37be dd9c 11bf
00000060: 1390 bdbe 2a3b e3bd d663 08bf fdc1 2cbe
00000070: 3bba 673e d4fb 47bd 6702 063f 4110 3abe

fc_seq.weight f4 [12, 8]
0.18597937 0.15946265 -0.22913593 -0.1972521 0.15749551 -0.051786505 -0.2613988 0.30363047
0.11642279 -0.12524122 0.0690118 -0.22594765 0.005739263 -0.34696653 -0.0128762415 -0.059353467
0.11809239 0.26848608 -0.35199594 -0.20151803 0.33151758 -0.32544953 -0.30873296 0.1853685
0.12577294 0.1366917 -0.3228162 0.041326795 -0.13588764 0.15698735 -0.04825127 -0.18861161
-0.32023537 -0.020408642 0.15749528 0.34885743 -0.22083916 -0.13723174 -0.29845598 0.26315013
0.0786958 0.08784617 0.23252462 0.023846349 -0.2739666 -0.07462403 -0.23544325 0.2983308
-0.13908342 -0.22406992 0.2995787 0.052213073 -0.21889357 -0.06705319 -0.06649521 0.3518268
-0.29642296 0.349782 0.19894142 -0.25728413 -0.008407748 -0.3028606 0.30337945 -0.031325474
-0.28738886 -0.33485988 -0.12396897 0.2619387 0.034280855 -0.085527964 0.26631254 -0.04002661
-0.28127432 -0.12262474 0.18502685 0.19459221 -0.21057896 0.16389716 0.31034687 0.1689775
-0.26399058 0.085540146 0.074056394 -0.10463052 0.2833782 0.25690064 -0.05964744 -0.100171596
-0.10637561 0.06387827 0.057875123 -0.13507171 -0.3265803 -0.26310027 0.039917026 0.30216542
00000000: 6071 3e3e 2d4a 233e 9ca2 6abe 74fc 49be
00000010: 8146 213e 161e 54bd 10d6 85be 7475 9b3e
00000020: 126f ee3d 3c3f 00be 0f56 8d3d d25e 67be
00000030: 6d10 bc3b 99a5 b1be dff6 52bc 9f1c 73bd
00000040: 6cda f13d 0277 893e d038 b4be be5a 4ebe
00000050: acbc a93e 52a1 a6be 3f12 9ebe 3dd1 3d3e
00000060: 9fca 003e e9f8 0b3e 2a48 a5be 4946 293d
00000070: 2126 0bbe 4bc1 203e 20a3 45bd 6723 41be
00000080: e4f5 a3be 0630 a7bc 7146 213e 719d b23e
00000090: a923 62be 7a86 0cbe 39cf 98be 9dbb 863e
000000a0: 432b a13d b1e8 b33d ef1a 6e3e 6b59 c33c
000000b0: 5a45 8cbe 7cd4 98bd 0918 71be d1be 983e
000000c0: e26b 0ebe 9672 65be 6162 993e 60dd 553d
000000d0: a325 60be 2f53 89bd a42e 88bd a422 b43e
000000e0: c0c4 97be a016 b33e 4db7 4b3e bfba 83be
000000f0: a7c0 09bc 8b10 9bbe 8d54 9b3e 244f 00bd
00000100: a224 93be c172 abbe 71e3 fdbd d41c 863e
00000110: 156a 0c3d 4929 afbd 1e5a 883e f1f2 23bd
00000120: 3003 90be ae22 fbbd ae77 3d3e 2e43 473e
00000130: 03a2 57be a8d4 273e c9e5 9e3e 7008 2d3e
00000140: c629 87be ac2f af3d e1aa 973d 8748 d6bd
00000150: f316 913e 7b88 833e e050 74bd c426 cdbd
00000160: 75db d9bd 9cd2 823d 770e 6d3d 3d50 0abe
00000170: 8835 a7be 14b5 86be 0980 233d 6db5 9a3e

fc_seq.bias f4 [12]
0.10822236 0.2519375 0.27489358 -0.14856161 -0.014844204 0.31038094 0.10837152 0.10722655
0.29544502 -0.23045285 -0.09871099 -0.096485265
00000000: afa3 dd3d f4fd 803e dabe 8c3e 8920 18be
00000010: 1b35 73bc 40ea 9e3e e3f1 dd3d 9899 db3d
00000020: 9244 973e d5fb 6bbe fd28 cabd 119a c5bd

gat1.gat.att_src f4 [1, 2, 15]
0.4969697 -0.3408118 -0.46642336 0.18672353 -0.4574257 0.32925543 -0.4389811 0.19624928
-0.2909268 -0.022929223 -0.3996546 -0.04011818 0.31781015 0.08179655 -0.24372286 0.15948825
-0.3427569 -0.13399091 -0.47533008 -0.0015211304 -0.15497398 0.16666552 0.14921433 -0.40061197
-0.39345807 0.43915218 0.19485304 0.44820035 0.17989385 0.124050446
00000000: d072 fe3e e27e aebe 0bcf eebe 7434 3f3e
00000010: b433 eabe 2b94 a83e 21c2 e0be 92f5 483e
00000020: 5cf4 94be 11d6 bbbc 879f ccbe f652 24bd
00000030: 03b8 a23e f384 a73d 7c92 79be e350 233e
00000040: d57d afbe ea34 09be 775e f3be ab60 c7ba
00000050: 80b1 1ebe 5eaa 2a3e a4cb 183e 031d cdbe
00000060: 5673 c9be 8ed8 e03e 8e87 473e 847a e53e
00000070: 1836 383e 290e fe3d

gat1.gat.att_dst f4 [1, 2, 15]
0.16770639 -0.25686222 -0.16573755 -0.39955437 -0.29075113 -0.23424342 0.1272206 -0.15265107
0.34714025 0.22081277 0.39250192 -0.36455408 -0.20473298 -0.36792883 -0.4853119 0.19067797
0.46094698 0.3439936 -0.025473332 -0.2804939 0.3198671 0.1722537 -0.23947097 0.37560302
0.11372359 0.032135256 -0.002928323 0.083411574 -0.24979053 -0.20160939
00000000: 39bb 2b3e 7283 83be 1bb7 29be 6492 ccbe
00000010: 55dd 94be 82dd 6fbe 1e46 023e 9050 1cbe
00000020: 5ebc b13e be1c 623e 03f6 c83e d5a6 babe
00000030: 86a5 51be 2b61 bcbe cd7a f8be 1641 433e
00000040: 3e01 ec3e ee1f b03e 73ad d0bc e59c 8fbe
00000050: 9fc5 a33e 4663 303e e137 75be 0a4f c03e
00000060: eae7 e83d 42a0 033d 1ce9 3fbb b0d3 aa3d
00000070: 17c9 7fbe b172 4ebe

gat1.gat.bias f4 [30]
0.027147798 -0.023748696 0.023025813 0.004429851 -0.03337504 0.010858916 0.02974185 -0.005972112
-0.06495916 -0.012438301 0.02216583 0.053030707 0.022320123 0.044439353 0.019806037 0.01362496
-0.075763576 0.016152998 0.015376817 0.004178263 0.028497947 -0.009630657 0.0048044156 0.036025655
0.034758046 -0.020222902 0.03167696 -0.015054013 0.019717503 0.0061305095
00000000: 0f65 de3c a08c c2bc a1a0 bc3c 4928 913b
00000010: 44b4 08bd 98e9 313c 2ea5 f33c b5b1 c3bb
00000020: 4f09 85bd 04ca 4bbc 1d95 b53c ba36 593d
00000030: b1d8 b63c 0a06 363d 4540 a23c 393b 5f3c
00000040: ef29 9bbd 4b53 843c 0cef 7b3c cfe9 883b
00000050: 8774 e93c e7c9 1dbc 5c6e 9d3b a38f 133d
00000060: 745e 0e3d 80aa a5bc b3bf 013d 1ba5 76bc
00000070: 9a86 a13c 71e2 c83b

gat1.gat.lin_src.weight f4 [30, 30]
-0.096930236 -0.026529798 0.009839447 0.052435298 -0.12881364 -0.0009409956 0.056320585 0.20301647
0.06275918 0.1323315 -0.1723711 0.055866804 0.22892673 -0.104338884 0.06400606 -0.2308229
-0.19193973 0.26620448 -0.22551058 0.008267568 0.18575563 0.16247879 -0.06917532 -0.20303787
0.077324525 -0.20992132 0.27301434 -0.013806301 0.24334794 0.10407786 -0.06148331 0.15158103
0.087493315 -0.2907866 0.2143599 -0.04627499 0.1329291 0.030007139 -0.101238415 0.18487467
-0.17856649 -0.09770897 0.15735008 0.082952276 0.11190689 -0.13223772 0.1790489 0.028473673
-0.13989818 0.00838122 0.22812815 -0.13813293 -0.016862541 -0.09109752 -0.23452196 -0.19505633
-0.009126107 -0.26188487 0.22568044 -0.1440272 -0.08198819 0.23748066 -0.1280261 0.03510584
0.011411787 -0.21084985 0.17429644 -0.26597914 -0.068150625 0.2747729 0.09401403 -0.1027329
-0.07204143 -0.14523308 -0.21884994 -0.075558186 -0.08169162 0.16535024 -0.22320504 0.17952079
-0.12587741 0.0025938717 0.16765618 -0.23732834 -0.2236813 -0.01103835 -0.060179505 -0.24226455
-0.14694366 -0.06706204 -0.13546981 0.11183508 -0.09475066 -0.11356538 -0.12303014 0.20683855
0.14251517 0.0058173067 0.06191924 0.073969424 0.012328863 -0.17063445 0.0044273073 0.0042067613
0.15640302 0.1210051 -0.01857676 -0.11656486 -0.13942759 0.024234332 0.21821097 -0.19909318
0.14648238 0.05145905 0.13007672 -0.17140289 0.13873601 -0.20325112 -0.02389879 0.24309854
0.13558917 -0.12680642 -0.24510455 0.25754553 -0.033717647 0.19284952 0.047910392 -0.067473665
0.13530461 0.0791424 0.12633513 -0.27823335 0.13404627 0.07069347 0.21320266 -0.09040213
0.21586677 -0.023549754 -0.17405282 -0.26071966 -0.2266679 0.049199235 -0.15530272 0.23912175
-0.048811853 0.1370429 -0.19424736 0.041029774 0.1577996 -0.16892323 -0.0049582943 0.06337049
0.21471068 -0.038289133 -0.08279647 0.18943918 -0.09750855 0.09160322 0.059347056 0.2142613
0.09675644 -0.17064376 -0.016419329 -0.18116419 -0.07282808 0.22828323 -0.02756475 0.029316744
-0.0515997 0.23843917 -0.09670914 0.0052906843 -0.10128394 0.09897871 -0.14453097 -0.05914765
0.036514815 0.1554533 -0.13940059 -0.2511744 -0.08723087 0.042995114 -0.2201778 0.26104254
-0.030789478 -0.2010773 -0.1635702 -0.24337627 0.15200609 -0.021059316 -0.072102 -0.079749286
-0.2371026 -0.033586185 0.14918338 -0.21828663 0.032699667 0.21123984 -0.21664307 -0.21201408
0.23281842 0.15083864 0.091743365 0.19701096 0.20154068 -0.17994225 -0.017649302 0.0957478
0.23721567 -0.21627165 -0.13273059 -0.14055917 0.1440691 -0.15814412 0.16900776 -0.23166837
-0.15612511 0.11074011 0.09884358 -0.26896197 -0.08889116 -0.08816472 -0.20964351 0.18890062
0.089655794 -0.075149246 0.15266366 0.059714805 -0.21226798 0.0045943386 -0.1545654 0.0939508
0.2142047 0.2580075 0.019568246 -0.00036975252 0.19615014 0.03116842 0.024043093 0.12462491
0.1657618 0.21038966 -0.23856017 -0.2724167 -0.06292371 0.055840492 -0.07806089 0.26028985
0.06256537 -0.03397248 0.231276 0.16505118 -0.092491716 0.25541705 -0.06916094 -0.1008567
00000000: 5c83 c6bd 0555 d9bc a235 213c 65c6 563d
00000010: b9e7 03be 25ad 76ba 6ab0 663d 8de3 4f3e
00000020: e387 803d e981 073e 0d82 30be 97d4 643d
00000030: c56b 6a3e a0af d5bd 9c15 833d d75c 6cbe
00000040: d98b 44be f44b 883e 3fec 66be b274 073c
00000050: b936 3e3e d760 263e caab 8dbd 29e9 4fbe
00000060: 525c 9e3d 9df5 56be 89c8 8b3e d333 62bc
00000070: 3430 793e c626 d53d ecd5 7bbd 0f38 1b3e
00000080: b22f b33d fbe1 94be 2981 5b3e d88a 3dbd
00000090: 911e 083e 88d1 f53c 1656 cfbd c94f 3d3e
000000a0: 22da 36be a41b c8bd 6120 213e e2e2 a93d
000000b0: 712f e53d 5369 07be 9858 373e 9f41 e93c
000000c0: 7841 0fbe 6251 093c 6d9a 693e b872 0dbe
000000d0: 5023 8abc 5691 babd 8626 70be d9bc 47be
000000e0: ab85 15bc c615 86be c618 673e de7b 13be
000000f0: 6de9 a7bd 212e 733e 4619 03be 24cb 0f3d
00000100: 81f8 3a3c 06e9 57be c47a 323e 6b2e 88be
00000110: 8e92 8bbd 09af 8c3e 6e8a c03d a065 d2bd
00000120: 758a 93bd fbb7 14be 331a 60be 40be 9abd
00000130: f04d a7bd 9351 293e dd8f 64be 4cd4 373e
00000140: 02e6 00be f2fd 293b 10ae 2b3e 3306 73be
00000150: b60c 65be 32da 34bc c97e 76bd 3314 78be
00000160: 6678 16be d357 89bd 99b8 0abe ca09 e53d
00000170: a20c c2bd f794 e8bd 3af7 fbbd 7ccd 533e
00000180: 7fef 113e 1b9f be3b 079f 7d3d 487d 973d
00000190: 00ff 493c ccba 2ebe f212 913b dfd8 893b
000001a0: 1d28 203e 86d1 f73d 4a2e 98bc 8fb9 eebd
000001b0: 1bc6 0ebe 1487 c63c b272 5f3e 15df 4bbe
000001c0: 7aff 153e bac6 523d d532 053e 3d84 2fbe
000001d0: d010 0e3e 1021 50be 65c7 c3bc d3ee 783e
000001e0: e3d7 0a3e 8bd9 01be b0fc 7abe 02dd 833e
000001f0: 841b 0abd 587a 453e b03d 443d a22f 8abd
00000200: 4b8d 0a3e 6915 a23d ff5d 013e 9a74 8ebe
00000210: 6d43 093e bdc7 903d cc51 5a3e c024 b9bd
00000220: 2e0c 5d3e 6aeb c0bc e73a 32be 0c7d 85be
00000230: a11b 68be 2385 493d ad07 1fbe 55dc 743e
00000240: f0ee 47bd f954 0c3e c8e8 46be d60e 283d
00000250: 3896 213e 36fa 2cbe 3079 a2bb 63c8 813d
00000260: 1edd 5b3e 11d5 1cbd 3291 a9bd 58fc 413e
00000270: 90b2 c7bd 789a bb3d e615 733d 5067 5b3e
00000280: 3e28 c63d 3dbd 2ebe d481 86bc 1b83 39be
00000290: e326 95bd 14c3 693e 78cf e1bc ab29 f03c
000002a0: 355a 53bd 6629 743e 710f c6bd 7a5d ad3b
000002b0: f46d cfbd 5ab5 ca3d edff 13be ce44 72bd
000002c0: 8f90 153d 262f 1f3e 07bf 0ebe ee99 80be
000002d0: 19a6 b2bd a51b 303d 4a76 61be 5ea7 853e
000002e0: 373a fcbc 35e7 4dbe f27e 27be a137 79be
000002f0: 7ca7 1b3e 9684 acbc 37aa 93bd 9853 a3bd
00000300: 06cb 72be ab91 09bd 87c3 183e 8886 5fbe
00000310: 16f0 053d 424f 583e aed7 5dbe 381a 59be
00000320: f467 6e3e 7275 1a3e f2e3 bb3d 3ebd 493e
00000330: ae60 4e3e c842 38be 4595 90bc 6c17 c43d
00000340: aae8 723e 5176 5dbe 87ea 07be beee 0fbe
00000350: da86 133e 88f0 21be 5f10 2d3e 793a 6dbe
00000360: 43df 1fbe b6cb e23d 816e ca3d 62b5 89be
00000370: 920c b6bd b48f b4bd caac 56be 2a6f 413e
00000380: 759d b73d d9e7 99bd dd53 1c3e 8397 743d
00000390: c75c 59be 1b8c 963b 6446 1ebe 4769 c03d
000003a0: 7a58 5b3e 8f19 843e 964d a03c 58db c1b9
000003b0: 95db 483e ea54 ff3c 05f6 c43c 583b ff3d
000003c0: 76bd 293e 6370 573e 1e49 74be 347a 8bbe
000003d0: 25de 80bd 00b9 643d 63de 9fbd b644 853e
000003e0: 4622 803d ba26 0bbd 9ed3 6c3e 2d03 293e
000003f0: 4c6c bdbd 06c6 823e 40a4 8dbd f58d cebd

gat1.gat.lin_dst.weight f4 [30, 30]
-0.096930236 -0.026529798 0.009839447 0.052435298 -0.12881364 -0.0009409956 0.056320585 0.20301647
0.06275918 0.1323315 -0.1723711 0.055866804 0.22892673 -0.104338884 0.06400606 -0.2308229
-0.19193973 0.26620448 -0.22551058 0.008267568 0.18575563 0.16247879 -0.06917532 -0.20303787
0.077324525 -0.20992132 0.27301434 -0.013806301 0.24334794 0.10407786 -0.06148331 0.15158103
0.087493315 -0.2907866 0.2143599 -0.04627499 0.1329291 0.030007139 -0.101238415 0.18487467
-0.17856649 -0.09770897 0.15735008 0.082952276 0.11190689 -0.13223772 0.1790489 0.028473673
-0.13989818 0.00838122 0.22812815 -0.13813293 -0.016862541 -0.09109752 -0.23452196 -0.19505633
-0.009126107 -0.26188487 0.22568044 -0.1440272 -0.08198819 0.23748066 -0.1280261 0.03510584
0.011411787 -0.21084985 0.17429644 -0.26597914 -0.068150625 0.2747729 0.09401403 -0.1027329
-0.07204143 -0.14523308 -0.21884994 -0.075558186 -0.08169162 0.16535024 -0.22320504 0.17952079
-0.12587741 0.0025938717 0.16765618 -0.23732834 -0.2236813 -0.01103835 -0.060179505 -0.24226455
-0.14694366 -0.06706204 -0.13546981 0.11183508 -0.09475066 -0.11356538 -0.12303014 0.20683855
0.14251517 0.0058173067 0.06191924 0.073969424 0.012328863 -0.17063445 0.0044273073 0.0042067613
0.15640302 0.1210051 -0.01857676 -0.11656486 -0.13942759 0.024234332 0.21821097 -0.19909318
0.14648238 0.05145905 0.13007672 -0.17140289 0.13873601 -0.20325112 -0.02389879 0.24309854
0.13558917 -0.12680642 -0.24510455 0.25754553 -0.033717647 0.19284952 0.047910392 -0.067473665
0.13530461 0.0791424 0.12633513 -0.27823335 0.13404627 0.07069347 0.21320266 -0.09040213
0.21586677 -0.023549754 -0.17405282 -0.26071966 -0.2266679 0.049199235 -0.15530272 0.23912175
-0.048811853 0.1370429 -0.19424736 0.041029774 0.1577996 -0.16892323 -0.0049582943 0.06337049
0.21471068 -0.038289133 -0.08279647 0.18943918 -0.09750855 0.09160322 0.059347056 0.2142613
0.09675644 -0.17064376 -0.016419329 -0.18116419 -0.07282808 0.22828323 -0.02756475 0.029316744
-0.0515997 0.23843917 -0.09670914 0.0052906843 -0.10128394 0.09897871 -0.14453097 -0.05914765
0.036514815 0.1554533 -0.13940059 -0.2511744 -0.08723087 0.042995114 -0.2201778 0.26104254
-0.030789478 -0.2010773 -0.1635702 -0.24337627 0.15200609 -0.021059316 -0.072102 -0.079749286
-0.2371026 -0.033586185 0.14918338 -0.21828663 0.032699667 0.21123984 -0.21664307 -0.21201408
0.23281842 0.15083864 0.091743365 0.19701096 0.20154068 -0.17994225 -0.017649302 0.0957478
0.23721567 -0.21627165 -0.13273059 -0.14055917 0.1440691 -0.15814412 0.16900776 -0.23166837
-0.15612511 0.11074011 0.09884358 -0.26896197 -0.08889116 -0.08816472 -0.20964351 0.18890062
0.089655794 -0.075149246 0.15266366 0.059714805 -0.21226798 0.0045943386 -0.1545654 0.0939508
0.2142047 0.2580075 0.019568246 -0.00036975252 0.19615014 0.03116842 0.024043093 0.12462491
0.1657618 0.21038966 -0.23856017 -0.2724167 -0.06292371 0.055840492 -0.07806089 0.26028985
0.06256537 -0.03397248 0.231276 0.16505118 -0.092491716 0.25541705 -0.06916094 -0.1008567
00000000: 5c83 c6bd 0555 d9bc a235 213c 65c6 563d
00000010: b9e7 03be 25ad 76ba 6ab0 663d 8de3 4f3e
00000020: e387 803d e981 073e 0d82 30be 97d4 643d
00000030: c56b 6a3e a0af d5bd 9c15 833d d75c 6cbe
00000040: d98b 44be f44b 883e 3fec 66be b274 073c
00000050: b936 3e3e d760 263e caab 8dbd 29e9 4fbe
00000060: 525c 9e3d 9df5 56be 89c8 8b3e d333 62bc
00000070: 3430 793e c626 d53d ecd5 7bbd 0f38 1b3e
00000080: b22f b33d fbe1 94be 2981 5b3e d88a 3dbd
00000090: 911e 083e 88d1 f53c 1656 cfbd c94f 3d3e
000000a0: 22da 36be a41b c8bd 6120 213e e2e2 a93d
000000b0: 712f e53d 5369 07be 9858 373e 9f41 e93c
000000c0: 7841 0fbe 6251 093c 6d9a 693e b872 0dbe
000000d0: 5023 8abc 5691 babd 8626 70be d9bc 47be
000000e0: ab85 15bc c615 86be c618 673e de7b 13be
000000f0: 6de9 a7bd 212e 733e 4619 03be 24cb 0f3d
00000100: 81f8 3a3c 06e9 57be c47a 323e 6b2e 88be
00000110: 8e92 8bbd 09af 8c3e 6e8a c03d a065 d2bd
00000120: 758a 93bd fbb7 14be 331a 60be 40be 9abd
00000130: f04d a7bd 9351 293e dd8f 64be 4cd4 373e
00000140: 02e6 00be f2fd 293b 10ae 2b3e 3306 73be
00000150: b60c 65be 32da 34bc c97e 76bd 3314 78be
00000160: 6678 16be d357 89bd 99b8 0abe ca09 e53d
00000170: a20c c2bd f794 e8bd 3af7 fbbd 7ccd 533e
00000180: 7fef 113e 1b9f be3b 079f 7d3d 487d 973d
00000190: 00ff 493c ccba 2ebe f212 913b dfd8 893b
000001a0: 1d28 203e 86d1 f73d 4a2e 98bc 8fb9 eebd
000001b0: 1bc6 0ebe 1487 c63c b272 5f3e 15df 4bbe
000001c0: 7aff 153e bac6 523d d532 053e 3d84 2fbe
000001d0: d010 0e3e 1021 50be 65c7 c3bc d3ee 783e
000001e0: e3d7 0a3e 8bd9 01be b0fc 7abe 02dd 833e
000001f0: 841b 0abd 587a 453e b03d 443d a22f 8abd
00000200: 4b8d 0a3e 6915 a23d ff5d 013e 9a74 8ebe
00000210: 6d43 093e bdc7 903d cc51 5a3e c024 b9bd
00000220: 2e0c 5d3e 6aeb c0bc e73a 32be 0c7d 85be
00000230: a11b 68be 2385 493d ad07 1fbe 55dc 743e
00000240: f0ee 47bd f954 0c3e c8e8 46be d60e 283d
00000250: 3896 213e 36fa 2cbe 3079 a2bb 63c8 813d
00000260: 1edd 5b3e 11d5 1cbd 3291 a9bd 58fc 413e
00000270: 90b2 c7bd 789a bb3d e615 733d 5067 5b3e
00000280: 3e28 c63d 3dbd 2ebe d481 86bc 1b83 39be
00000290: e326 95bd 14c3 693e 78cf e1bc ab29 f03c
000002a0: 355a 53bd 6629 743e 710f c6bd 7a5d ad3b
000002b0: f46d cfbd 5ab5 ca3d edff 13be ce44 72bd
000002c0: 8f90 153d 262f 1f3e 07bf 0ebe ee99 80be
000002d0: 19a6 b2bd a51b 303d 4a76 61be 5ea7 853e
000002e0: 373a fcbc 35e7 4dbe f27e 27be a137 79be
000002f0: 7ca7 1b3e 9684 acbc 37aa 93bd 9853 a3bd
00000300: 06cb 72be ab91 09bd 87c3 183e 8886 5fbe
00000310: 16f0 053d 424f 583e aed7 5dbe 381a 59be
00000320: f467 6e3e 7275 1a3e f2e3 bb3d 3ebd 493e
00000330: ae60 4e3e c842 38be 4595 90bc 6c17 c43d
00000340: aae8 723e 5176 5dbe 87ea 07be beee 0fbe
00000350: da86 133e 88f0 21be 5f10 2d3e 793a 6dbe
00000360: 43df 1fbe b6cb e23d 816e ca3d 62b5 89be
00000370: 920c b6bd b48f b4bd caac 56be 2a6f 413e
00000380: 759d b73d d9e7 99bd dd53 1c3e 8397 743d
00000390: c75c 59be 1b8c 963b 6446 1ebe 4769 c03d
000003a0: 7a58 5b3e 8f19 843e 964d a03c 58db c1b9
000003b0: 95db 483e ea54 ff3c 05f6 c43c 583b ff3d
000003c0: 76bd 293e 6370 573e 1e49 74be 347a 8bbe
000003d0: 25de 80bd 00b9 643d 63de 9fbd b644 853e
000003e0: 4622 803d ba26 0bbd 9ed3 6c3e 2d03 293e
000003f0: 4c6c bdbd 06c6 823e 40a4 8dbd f58d cebd

gat2.gat.att_src f4 [1, 1, 30]
0.2846415 -0.32752347 -0.30304283 -0.11183509 0.29382873 0.09041095 0.19309752 -0.040250294
0.021442143 -0.1279331 -0.25215423 0.18616626 -0.07093585 -0.3136469 0.34705678 0.010830043
-0.06929486 0.05049906 -0.3414521 0.2449787 -0.23183055 0.24005085 0.10655158 -0.15396413
-0.23619361 -0.24094316 0.14778201 0.25392365 0.37642127 -0.27677026
00000000: 88bc 913e 28b1 a7be 6e28 9bbe cc09 e5bd
00000010: b870 963e 6029 b93d 5bbb 453e 7edd 24bd
00000020: 6fa7 af3c e500 03be 5c1a 81be 5ea2 3e3e
00000030: d146 91bd 5496 a0be 6db1 b13e 7e70 313c
00000040: 77ea 8dbd 1ad8 4e3d cfd2 aebe b2db 7a3e
00000050: fd64 6dbe e4cf 753e b737 da3d c6a8 1dbe
00000060: bddc 71be ceb9 76be 2b54 173e 4802 823e
00000070: 4aba c03e d5b4 8dbe

gat2.gat.att_dst f4 [1, 1, 30]
0.108420216 -0.090945035 -0.1862134 -0.14076564 -0.32493588 -0.3181749 0.057862107 -0.32215983
0.04950704 0.30912268 -0.23303303 -0.22405513 0.18830784 0.30168056 0.18365756 -0.2874729
0.19285715 -0.15618435 -0.32633707 -0.09629104 -0.15616749 0.004165726 -0.0008192377 0.045776468
0.15446343 0.16315247 -0.11883469 0.35934594 0.1986339 -0.3337821
00000000: 6b0b de3d 6441 babd baae 3ebe de24 10be
00000010: ff5d a6be d2e7 a2be d100 6d3d 22f2 a4be
00000020: e5c7 4a3d 5445 9e3e 36a0 6ebe b56e 65be
00000030: c5d3 403e e075 9a3e ba10 3c3e a62f 93be
00000040: 587c 453e caee 1fbe a715 a7be 3d34 c5bd
00000050: 5fea 1fbe a480 883b 1dc2 56ba 1b80 3b3d
00000060: a92b 1e3e 7111 273e 9a5f f3bd 31fc b73e
00000070: af66 4b3e 7de5 aabe

gat2.gat.bias f4 [30]
-0.017867723 0.0074591273 0.01210736 0.027554408 0.03205837 -0.0012727387 0.05658385 0.0056730704
-0.0071173008 -0.024608457 -0.005860532 -0.007168587 0.0007198876 0.028621266 -0.036531847 -0.016456354
-0.021420319 0.03806748 -0.00609812 -0.017291987 -0.03466543 0.010074013 -0.0018659234 -0.026076492
-0.031969566 0.01718682 0.03620364 -0.01863002 0.03053238 0.0034315109
00000000: 555f 92bc b26b f43b f35d 463c c8b9 e13c
00000010: a34f 033d 06d2 a6ba 78c4 673d 2ae5 b93b
00000020: 3f38 e9bb ad97 c9bc b509 c0bb 77e6 eabb
00000030: d7b6 3c3a 2577 ea3c 6ba2 15bd 7acf 86bc
00000040: aa79 afbc a5ec 1b3d bdd2 c7bb eda7 8dbc
00000050: 57fd 0dbd 790d 253c 0092 f4ba 5e9e d5bc
00000060: 85f2 02bd 60cb 8c3c 454a 143d fc9d 98bc
00000070: 0b1f fa3c 33e3 603b

gat2.gat.lin_src.weight f4 [30, 30]
0.17863692 0.162598 0.090313606 -0.04189072 -0.1784168 0.036071848 0.27368942 -0.08831492
0.17744902 -0.21484251 0.052638307 -0.014519815 -0.2288181 -0.07399309 -0.14611751 0.16452734
-0.23815589 -0.106608845 0.10271522 0.22717373 0.054163247 -0.22735055 -0.09712978 -0.25197247
-0.06331606 0.17029442 -0.14796373 0.22262166 -0.0045676185 0.10365401 0.10295818 0.19748247
0.032825153 0.21380383 0.050908975 0.2790555 -0.06288202 -0.23359033 -0.014214844 0.18241808
-0.10372795 0.15054348 -0.11850016 0.001193552 -0.1383996 0.22893925 -0.0905368 0.034029454
-0.16405094 0.08069198 0.08337065 0.011847366 0.029289043 -0.1604593 -0.22772996 -0.20797493
0.16183262 -0.08888004 0.08415185 0.16522206 -0.011051644 0.20700966 -0.23801018 0.08864656
-0.056334555 -0.19722857 -0.17742784 0.04235792 -0.2677932 0.1924211 0.22866672 -0.02911845
-0.10688827 -0.13799646 0.05598058 0.170058 0.283714 -0.08390848 -0.0026563501 0.046910185
0.036648933 0.028723298 -0.20910645 -0.20085785 0.1294777 -0.021811966 0.101163305 -0.07272597
0.19129197 0.2440402 -0.06896922 0.17401974 0.04327587 0.17976633 -0.10012763 -0.06816356
0.16264945 0.14746685 0.076443255 -0.19448079 -0.25357613 -0.14951438 -0.18352225 -0.21697186
0.2698072 -0.09119776 0.13910379 -0.19378518 0.13578683 0.17550744 0.19186197 -0.20769021
-0.13065727 -0.13874698 -0.05798241 -0.09616142 -0.19839346 -0.048869163 -0.18220796 -0.16113031
-0.14147164 -0.24779667 -0.07985755 -0.1686326 -0.19620499 0.24850973 -0.047963627 -0.111305535
-0.18721834 -0.15083165 -0.19338474 0.2748885 0.094260655 -0.26174107 0.16643594 0.049398836
-0.08437488 -0.047054626 0.12824926 -0.16301915 0.22924103 -0.0045439606 -0.18999398 0.2394239
0.047782544 0.1571087 0.090706185 0.0051691746 0.23731823 0.112596735 -0.007818063 0.18435597
0.19371444 0.17216527 -0.24878477 0.2302858 -0.2138916 -0.07903228 -0.14521033 0.06082969
-0.2588222 0.19923565 0.069461845 -0.13250819 0.14542772 -0.10712039 0.00023345111 0.20741908
0.106652744 -0.15270086 -0.10506718 -0.1290718 0.20443211 -0.079623565 -0.13945465 -0.1412418
-0.15994965 0.19798467 0.1533206 -0.18922319 -0.22157031 -0.20541483 0.11090866 -0.124192685
0.1029399 0.05380704 -0.1289608 -0.0066551054 0.18271773 0.095271535 -0.099547885 -0.14881608
0.28545356 -0.05524564 -0.045855194 -0.09357013 0.18975805 -0.15742536 -0.13473566 0.19744052
0.25086898 -0.012240888 0.009781069 -0.1566882 0.19729793 -0.073901065 -0.01424023 -0.1653264
-0.19054109 0.019850673 -0.23440729 0.15725698 0.07376408 0.06669099 -0.18820599 0.056408178
-0.17791498 -0.14739285 -0.15429066 -0.0033810188 0.032074094 -0.22353767 0.16041099 0.011636537
-0.1627569 -0.1050822 -0.11327683 0.000850587 0.014351145 -0.041398704 0.26133958 0.062094674
0.060115285 -0.11513125 -0.085275754 -0.07467597 -0.06801541 -0.074099675 0.064209394 0.033444252
-0.2127985 0.09841009 0.20454448 -0.15930499 0.1739015 -0.10794436 -0.24036328 0.15873343
0.042143688 -0.17323686 -0.116172425 -0.17695197 0.09952546 0.23331243 -0.18455842 0.1730559
00000000: 99ec 363e 1780 263e 57f6 b83d 9b95 2bbd
00000010: e5b2 36be 13c0 133d 0521 8c3e 74de b4bd
00000020: 32b5 353e adff 5bbe 449b 573d 85e4 6dbc
00000030: 4b4f 6abe b089 97bd d49f 15be db79 283e
00000040: 23df 73be bd55 dabd 5b5c d23d 3ba0 683e
00000050: 48da 5d3d 95ce 68be faeb c6bd 8902 81be
00000060: daab 81bd a961 2e3e ce83 17be eff6 633e
00000070: f6ab 95bb 8e48 d43d bddb d23d d838 4a3e
00000080: ab73 063d 64ef 5a3e ee85 503d 5de0 8e3e
00000090: 4ac8 80bd 4e32 6fbe 61e5 68bc cecb 3a3e
000000a0: 526f d4bd 1228 1a3e 36b0 f2bd f670 9c3a
000000b0: a0b8 0dbe 0d6f 6a3e 5c6b b9bd 7862 0b3d
000000c0: f8fc 27be d641 a53d 3bbe aa3d 741b 423c
000000d0: 93ef ef3c 714f 24be 0b32 69be 61f7 54be
000000e0: 73b7 253e bd06 b6bd ce57 ac3d f92f 293e
000000f0: f411 35bc 57fa 533e f1b8 73be 548c b53d
00000100: 10bf 66bd 49f6 49be a5af 35be 807f 2d3d
00000110: 311c 89be 090a 453e 9c27 6a3e d189 eebc
00000120: 3de8 dabd f24e 0dbe e54b 653d af23 2e3e
00000130: f642 913e 36d8 abbd 2916 2ebb e524 403d
00000140: 311d 163d 1f4d eb3c 0020 56be aead 4dbe
00000150: cd95 043e 02af b2bc b52e cf3d 5af1 94bd
00000160: 0be2 433e ade5 793e bc3f 8dbd 3b32 323e
00000170: 0a42 313d aa14 383e b70f cdbd 5699 8bbd
00000180: 948d 263e 8d01 173e 488e 9c3d f925 47be
00000190: bbd4 81be 4c1a 19be 42ed 3bbe df2d 5ebe
000001a0: 2b24 8a3e e4c5 babd 3971 0e3e 9f6f 46be
000001b0: b40b 0b3e 39b8 333e 7777 443e beac 54be
000001c0: 05cb 05be b013 0ebe f77e 6dbd 47f0 c4bd
000001d0: a827 4bbe 082b 48bd b994 3abe 58ff 24be
000001e0: f1dd 10be 69be 7dbe 5b8c a3bd 06ae 2cbe
000001f0: f6e9 48be 5679 7e3e 8275 44bd 28f4 e3bd
00000200: 2ab6 3fbe 9d73 1abe a606 46be 2fbe 8c3e
00000210: bb0b c13d ed02 86be 2f6e 2a3e 6f56 4a3d
00000220: bdcc acbd 5abc 40bd c653 033e 7eee 26be
00000230: 29be 6a3e 81e5 94bb c88d 42be 8a2b 753e
00000240: a1b7 433d 1ae1 203e 2ac4 b93d 2e62 a93b
00000250: 8d03 733e 1e99 e63d 5517 00bc d0c7 3c3e
00000260: 145d 463e 184c 303e 6fc1 7ebe 0ad0 6b3e
00000270: 6606 5bbe addb a1bd 04b2 14be 8e28 793d
00000280: 5884 84be 6e04 4c3e 0342 8e3d 3ab0 07be
00000290: 01eb 143e ef61 dbbd 8eca 7439 ab65 543e
000002a0: c16c da3d 9d5d 1cbe 762d d7bd 662b 04be
000002b0: a756 513e ae11 a3bd 33cd 0ebe b1a1 10be
000002c0: d7c9 23be 7ebc 4a3e 1300 1d3e b9c3 41be
000002d0: 54e3 62be 4458 52be 1424 e33d bc58 febd
000002e0: 27d2 d23d c564 5c3d 4d0e 04be 1213 dabb
000002f0: 5b1a 3b3e b91d c33d c3df cbbd 3e63 18be
00000300: f826 923e 4149 62bd a8d2 3bbd b2a1 bfbd
00000310: ef4f 423e 1d34 21be 25f8 09be d92d 4a3e
00000320: e671 803e 018e 48bc c740 203c df72 20be
00000330: 7808 4a3e 7159 97bd db4f 69bc 534b 29be
00000340: 341d 43be e19d a23c 7708 70be f907 213e
00000350: 9f11 973d 4995 883d 12b9 40be 430c 673d
00000360: 582f 36be 27ee 16be 5ffe 1dbe 1594 5dbb
00000370: 2060 033d 0fe7 64be c742 243e 2ca7 3e3c
00000380: bfa9 26be 5635 d7bd affd e7bd edf9 5e3a
00000390: 1121 6b3c b091 29bd 4dce 853e fc56 7e3d
000003a0: 723b 763d efc9 ebbd 0ea5 aebd b7ef 98bd
000003b0: aa4b 8bbd 92c1 97bd 3780 833d d7fc 083d
000003c0: dae7 59be 3b8b c93d 1c74 513e d920 23be
000003d0: 3c13 323e ef11 ddbd cb21 76be 048b 223e
000003e0: dc9e 2c3d 0165 31be cfeb edbd e632 35be
000003f0: 01d4 cb3d 74e9 6e3e e2fc 3cbe 9135 313e

gat2.gat.lin_dst.weight f4 [30, 30]
0.17863692 0.162598 0.090313606 -0.04189072 -0.1784168 0.036071848 0.27368942 -0.08831492
0.17744902 -0.21484251 0.052638307 -0.014519815 -0.2288181 -0.07399309 -0.14611751 0.16452734
-0.23815589 -0.106608845 0.10271522 0.22717373 0.054163247 -0.22735055 -0.09712978 -0.25197247
-0.06331606 0.17029442 -0.14796373 0.22262166 -0.0045676185 0.10365401 0.10295818 0.19748247
0.032825153 0.21380383 0.050908975 0.2790555 -0.06288202 -0.23359033 -0.014214844 0.18241808
-0.10372795 0.15054348 -0.11850016 0.001193552 -0.1383996 0.22893925 -0.0905368 0.034029454
-0.16405094 0.08069198 0.08337065 0.011847366 0.029289043 -0.1604593 -0.22772996 -0.20797493
0.16183262 -0.08888004 0.08415185 0.16522206 -0.011051644 0.20700966 -0.23801018 0.08864656
-0.056334555 -0.19722857 -0.17742784 0.04235792 -0.2677932 0.1924211 0.22866672 -0.02911845
-0.10688827 -0.13799646 0.05598058 0.170058 0.283714 -0.08390848 -0.0026563501 0.046910185
0.036648933 0.028723298 -0.20910645 -0.20085785 0.1294777 -0.021811966 0.101163305 -0.07272597
0.19129197 0.2440402 -0.06896922 0.17401974 0.04327587 0.17976633 -0.10012763 -0.06816356
0.16264945 0.14746685 0.076443255 -0.19448079 -0.25357613 -0.14951438 -0.18352225 -0.21697186
0.2698072 -0.09119776 0.13910379 -0.19378518 0.13578683 0.17550744 0.19186197 -0.20769021
-0.13065727 -0.13874698 -0.05798241 -0.09616142 -0.19839346 -0.048869163 -0.18220796 -0.16113031
-0.14147164 -0.24779667 -0.07985755 -0.1686326 -0.19620499 0.24850973 -0.047963627 -0.111305535
-0.18721834 -0.15083165 -0.19338474 0.2748885 0.094260655 -0.26174107 0.16643594 0.049398836
-0.08437488 -0.047054626 0.12824926 -0.16301915 0.22924103 -0.0045439606 -0.18999398 0.2394239
0.047782544 0.1571087 0.090706185 0.0051691746 0.23731823 0.112596735 -0.007818063 0.18435597
0.19371444 0.17216527 -0.24878477 0.2302858 -0.2138916 -0.07903228 -0.14521033 0.06082969
-0.2588222 0.19923565 0.069461845 -0.13250819 0.14542772 -0.10712039 0.00023345111 0.20741908
0.106652744 -0.15270086 -0.10506718 -0.1290718 0.20443211 -0.079623565 -0.13945465 -0.1412418
-0.15994965 0.19798467 0.1533206 -0.18922319 -0.22157031 -0.20541483 0.11090866 -0.124192685
0.1029399 0.05380704 -0.1289608 -0.0066551054 0.18271773 0.095271535 -0.099547885 -0.14881608
0.28545356 -0.05524564 -0.045855194 -0.09357013 0.18975805 -0.15742536 -0.13473566 0.19744052
0.25086898 -0.012240888 0.009781069 -0.1566882 0.19729793 -0.073901065 -0.01424023 -0.1653264
-0.19054109 0.019850673 -0.23440729 0.15725698 0.07376408 0.06669099 -0.18820599 0.056408178
-0.17791498 -0.14739285 -0.15429066 -0.0033810188 0.032074094 -0.22353767 0.16041099 0.011636537
-0.1627569 -0.1050822 -0.11327683 0.000850587 0.014351145 -0.041398704 0.26133958 0.062094674
0.060115285 -0.11513125 -0.085275754 -0.07467597 -0.06801541 -0.074099675 0.064209394 0.033444252
-0.2127985 0.09841009 0.20454448 -0.15930499 0.1739015 -0.10794436 -0.24036328 0.15873343
0.042143688 -0.17323686 -0.116172425 -0.17695197 0.09952546 0.23331243 -0.18455842 0.1730559
00000000: 99ec 363e 1780 263e 57f6 b83d 9b95 2bbd
00000010: e5b2 36be 13c0 133d 0521 8c3e 74de b4bd
00000020: 32b5 353e adff 5bbe 449b 573d 85e4 6dbc
00000030: 4b4f 6abe b089 97bd d49f 15be db79 283e
00000040: 23df 73be bd55 dabd 5b5c d23d 3ba0 683e
00000050: 48da 5d3d 95ce 68be faeb c6bd 8902 81be
00000060: daab 81bd a961 2e3e ce83 17be eff6 633e
00000070: f6ab 95bb 8e48 d43d bddb d23d d838 4a3e
00000080: ab73 063d 64ef 5a3e ee85 503d 5de0 8e3e
00000090: 4ac8 80bd 4e32 6fbe 61e5 68bc cecb 3a3e
000000a0: 526f d4bd 1228 1a3e 36b0 f2bd f670 9c3a
000000b0: a0b8 0dbe 0d6f 6a3e 5c6b b9bd 7862 0b3d
000000c0: f8fc 27be d641 a53d 3bbe aa3d 741b 423c
000000d0: 93ef ef3c 714f 24be 0b32 69be 61f7 54be
000000e0: 73b7 253e bd06 b6bd ce57 ac3d f92f 293e
000000f0: f411 35bc 57fa 533e f1b8 73be 548c b53d
00000100: 10bf 66bd 49f6 49be a5af 35be 807f 2d3d
00000110: 311c 89be 090a 453e 9c27 6a3e d189 eebc
00000120: 3de8 dabd f24e 0dbe e54b 653d af23 2e3e
00000130: f642 913e 36d8 abbd 2916 2ebb e524 403d
00000140: 311d 163d 1f4d eb3c 0020 56be aead 4dbe
00000150: cd95 043e 02af b2bc b52e cf3d 5af1 94bd
00000160: 0be2 433e ade5 793e bc3f 8dbd 3b32 323e
00000170: 0a42 313d aa14 383e b70f cdbd 5699 8bbd
00000180: 948d 263e 8d01 173e 488e 9c3d f925 47be
00000190: bbd4 81be 4c1a 19be 42ed 3bbe df2d 5ebe
000001a0: 2b24 8a3e e4c5 babd 3971 0e3e 9f6f 46be
000001b0: b40b 0b3e 39b8 333e 7777 443e beac 54be
000001c0: 05cb 05be b013 0ebe f77e 6dbd 47f0 c4bd
000001d0: a827 4bbe 082b 48bd b994 3abe 58ff 24be
000001e0: f1dd 10be 69be 7dbe 5b8c a3bd 06ae 2cbe
000001f0: f6e9 48be 5679 7e3e 8275 44bd 28f4 e3bd
00000200: 2ab6 3fbe 9d73 1abe a606 46be 2fbe 8c3e
00000210: bb0b c13d ed02 86be 2f6e 2a3e 6f56 4a3d
00000220: bdcc acbd 5abc 40bd c653 033e 7eee 26be
00000230: 29be 6a3e 81e5 94bb c88d 42be 8a2b 753e
00000240: a1b7 433d 1ae1 203e 2ac4 b93d 2e62 a93b
00000250: 8d03 733e 1e99 e63d 5517 00bc d0c7 3c3e
00000260: 145d 463e 184c 303e 6fc1 7ebe 0ad0 6b3e
00000270: 6606 5bbe addb a1bd 04b2 14be 8e28 793d
00000280: 5884 84be 6e04 4c3e 0342 8e3d 3ab0 07be
00000290: 01eb 143e ef61 dbbd 8eca 7439 ab65 543e
000002a0: c16c da3d 9d5d 1cbe 762d d7bd 662b 04be
000002b0: a756 513e ae11 a3bd 33cd 0ebe b1a1 10be
000002c0: d7c9 23be 7ebc 4a3e 1300 1d3e b9c3 41be
000002d0: 54e3 62be 4458 52be 1424 e33d bc58 febd
000002e0: 27d2 d23d c564 5c3d 4d0e 04be 1213 dabb
000002f0: 5b1a 3b3e b91d c33d c3df cbbd 3e63 18be
00000300: f826 923e 4149 62bd a8d2 3bbd b2a1 bfbd
00000310: ef4f 423e 1d34 21be 25f8 09be d92d 4a3e
00000320: e671 803e 018e 48bc c740 203c df72 20be
00000330: 7808 4a3e 7159 97bd db4f 69bc 534b 29be
00000340: 341d 43be e19d a23c 7708 70be f907 213e
00000350: 9f11 973d 4995 883d 12b9 40be 430c 673d
00000360: 582f 36be 27ee 16be 5ffe 1dbe 1594 5dbb
00000370: 2060 033d 0fe7 64be c742 243e 2ca7 3e3c
00000380: bfa9 26be 5635 d7bd affd e7bd edf9 5e3a
00000390: 1121 6b3c b091 29bd 4dce 853e fc56 7e3d
000003a0: 723b 763d efc9 ebbd 0ea5 aebd b7ef 98bd
000003b0: aa4b 8bbd 92c1 97bd 3780 833d d7fc 083d
000003c0: dae7 59be 3b8b c93d 1c74 513e d920 23be
000003d0: 3c13 323e ef11 ddbd cb21 76be 048b 223e
000003e0: dc9e 2c3d 0165 31be cfeb edbd e632 35be
000003f0: 01d4 cb3d 74e9 6e3e e2fc 3cbe 9135 313e

gru1.weight_ih_l0 f4 [90, 16]
0.18006939 0.10028673 0.07687152 0.037928388 0.06250854 -0.15486114 -0.06220651 0.061548963
0.16591865 0.03187434 0.12355667 0.055442832 0.01152909 -0.17872377 -0.117604144 -0.14208268
-0.08264648 0.046735276 -0.083770275 -0.02146754 0.093538806 0.106258355 -0.17235854 0.05836505
-0.07151179 -0.060010318 -0.04696143 -0.034375064 -0.16420312 -0.14679378 -0.057218667 -0.04124245
-0.103164546 -0.17399293 -0.17637728 -0.07195311 -0.12281579 0.15365164 0.000865271 -0.1144591
0.14985614 0.016150484 -0.14386334 -0.0541187 -0.1814461 0.1636781 -0.09366546 0.01657128
0.06745923 0.12995608 0.16029596 0.08740193 -0.018271025 0.1703725 0.02547648 0.02571441
-0.17634232 0.039358623 0.14251655 -0.08293527 -0.03217395 -0.15920943 -0.017774032 -0.027119245
-0.06855516 -0.015375972 -0.047586225 -0.09788823 0.14648011 -0.17182781 0.17681548 -0.06869624
-0.015694778 0.1142122 0.0967494 0.13611507 -0.05630819 0.009083038 -0.16865829 -0.07591724
-0.15504156 0.15419699 -0.061455417 0.000610713 -0.02776981 0.15792711 0.012448467 -0.078715175
-0.09594936 -0.07154256 -0.12108923 0.020278325 0.106306754 0.060115702 0.14727367 0.05479636
0.11917989 -0.029946655 0.109036446 -0.07548088 -0.012451297 0.13253158 -0.10061935 0.08928095
-0.08406418 0.0837286 -0.15821682 -0.049637273 -0.167035 -0.020916332 -0.13743593 -0.052437782
-0.04747192 0.05019767 0.079012066 0.12125664 0.04835952 -0.036839854 -0.15205841 0.01730198
0.022386657 0.06158015 0.094276585 -0.003545204 -0.12980266 -0.052074987 -0.16219306 -0.06538979
0.08152239 0.13374248 -0.059303254 -0.10465635 0.032797486 0.0064649605 -0.004204822 -0.12021919
-0.14887549 -0.039560705 0.05569234 0.10970703 0.18118517 0.14555514 -0.03344661 -0.06672946
0.030014561 -0.17706768 0.102211215 -0.03975589 -0.03037829 -0.06558789 -0.0030030492 -0.060384385
-0.09201514 0.14227812 0.15076055 -0.13406995 -0.13841428 0.014183123 0.112244666 0.06485461
-0.072983116 0.14607497 0.13168608 -0.13741095 -0.048635975 0.09559821 0.11205594 0.036709398
0.16642183 0.05696977 -0.0016036547 0.11223089 0.015777135 -0.12435659 0.009855593 -0.10947924
-0.008302301 -0.10367118 -0.14339043 0.13277058 -0.019442806 -0.019453775 0.16995727 0.023995947
-0.066736735 -0.0919059 -0.036073677 -0.10455425 -0.009164721 0.10964254 -0.11096015 0.1604256
-0.17144988 0.00361176 -0.09703704 -0.09629966 0.15249087 -0.18132576 0.104065925 0.024934718
0.15914187 -0.013690026 0.020286879 0.09749401 -0.13615702 0.13565841 -0.090965934 0.085924745
0.10471934 -0.05295445 -0.08525864 -0.038366616 -0.0963601 0.17783014 -0.018039407 0.07434455
0.024564829 -0.14158851 0.005534287 -0.0889399 0.15690257 0.118155085 0.0696078 -0.13493156
-0.14219926 -0.024134632 0.08321919 -0.037927885 0.045059036 -0.03583468 0.17373006 0.039852
0.16997182 0.09117855 -0.16892949 0.025322191 -0.13314757 -0.0011755246 0.17261869 -0.123314284
0.039066717 0.18007936 -0.019447573 -0.13682088 0.09640572 0.071943484 -0.06068761 -0.056415904
0.00032396516 -0.0748931 0.030571016 -0.13382533 -0.114873216 0.04266374 0.12897317 -0.032396235
00000000: 1c64 383e 2163 cd3d d16e 9d3d cc5a 1b3d
00000010: 7a04 803d eb93 1ebe 41cc 7ebd c41a 7c3d
00000020: 94e6 293e ab8e 023d 480b fd3d 0618 633d
00000030: 82e4 3c3c 5d03 37be 71da f0bd 1f7e 11be
00000040: 8f42 a9bd 7d6d 3f3d c08f abbd b2dc afbc
00000050: 4691 bf3d fb9d d93d c27e 30be 3110 6f3d
00000060: c674 92bd 61cd 75bd a15a 40bd decc 0cbd
00000070: dd24 28be 1c51 16be 1f5e 6abd d8ed 28bd
00000080: ef47 d3bd 342b 32be 3f9c 34be 275c 93bd
00000090: d886 fbbd db56 1d3e 5bd3 623a 8869 eabd
000000a0: e373 193e 054e 843c e950 13be 92ab 5dbd
000000b0: 02cd 39be 3b9b 273e add3 bfbd 7ec0 873c
000000c0: 1128 8a3d 3513 053e a024 243e c8ff b23d
000000d0: 1ead 95bc 2176 2e3e 0db4 d03c 07a7 d23c
000000e0: 1593 34be 8236 213d dcef 113e f8d9 a9bd
000000f0: d5c8 03bd cc07 23be d99a 91bc 2e29 debc
00000100: a666 8cbd 80eb 7bbc c6e9 42bd a079 c8bd
00000110: e2fe 153e a1f3 2fbe 1e0f 353e 9db0 8cbd
00000120: 5692 80bc 16e8 e93d 8d24 c63d c061 0b3e
00000130: 6ba3 66bd 06d1 143c c2b4 2cbe 7f7a 9bbd
00000140: 37c3 1ebe d1e5 1d3e adb8 7bbd 4118 203a
00000150: 837d e3bc a5b7 213e a8f4 4b3c 6c35 a1bd
00000160: 1981 c4bd e884 92bd a1fd f7bd bb1e a63c
00000170: 5bb7 d93d e23b 763d e9ce 163e 2672 603d
00000180: 9614 f43d b052 f5bc 804e df3d b895 9abd
00000190: 8600 4cbc 5cb6 073e 8511 cebd eed8 b63d
000001a0: d729 acbd e679 ab3d 9703 22be 7450 4bbd
000001b0: 390b 2bbe ba58 abbc 01bc 0cbe 00c9 56bd
000001c0: ea71 42bd 129c 4d3d 14d1 a13d 6755 f83d
000001d0: a214 463d 63e5 16bd 33b5 1bbe e2bc 8d3c
000001e0: 3964 b73c 783b 7c3d 1514 c13d a756 68bb
000001f0: fdea 04be 954c 55bd f015 26be 15eb 85bd
00000200: 36f5 a63d caf3 083e f8e7 72bd 1256 d6bd
00000210: a856 063d 05d8 d33b 9ac8 89bb 7b35 f6bd
00000220: d172 18be 680a 22bd a71d 643d 14ae e03d
00000230: 9b88 393e 680c 153e 50ff 08bd 75a9 88bd
00000240: 19e1 f53c 3b51 35be 1d54 d13d 12d7 22bd
00000250: e4db f8bc f252 86bd cece 44bb 9e55 77bd
00000260: 6f72 bcbd 5bb1 113e f960 1a3e a249 09be
00000270: 79bc 0dbe 5460 683c 88e0 e53d 7ed2 843d
00000280: 2c78 95bd ad94 153e b7d8 063e 75b5 0cbe
00000290: 8436 47bd ffc8 c33d 967d e53d 985c 163d
000002a0: 7c6a 2a3e 2259 693d b931 d2ba 4fd9 e53d
000002b0: 0d3f 813c abae febd 5a79 213c a736 e0bd
000002c0: 6006 08bc 8e51 d4bd f1d4 12be 03f5 073e
000002d0: 8546 9fbc 865d 9fbc 4709 2e3e 2693 c43c
000002e0: 45ad 88bd 2939 bcbd fec1 13bd 8a20 d6bd
000002f0: a027 16bc 458c e03d 133f e3bd 9c46 243e
00000300: 8f90 2fbe 47b3 6c3b 5bbb c6bd c238 c5bd
00000310: 9126 1c3e 76ad 39be 8420 d53d e543 cc3c
00000320: 16f6 223e 214c 60bc ab30 a63c f1aa c73d
00000330: bf6c 0bbe 0aea 0a3e 594c babd 50f9 af3d
00000340: 1877 d63d c4e6 58bd 159c aebd 5026 1dbd
00000350: 7258 c5bd 1b19 363e 61c7 93bc f541 983d
00000360: 2e3c c93c 94fc 10be f758 b53b 1f26 b6bd
00000370: 11ab 203e 4bfb f13d 898e 8e3d 802b 0abe
00000380: af9c 11be feb5 c5bc d36e aa3d 455a 1bbd
00000390: d38f 383d 63c7 12bd 4be6 313e da3b 233d
000003a0: 180d 2e3e d2bb ba3d dafb 2cbe 7c70 cf3c
000003b0: d657 08be 0f14 9aba f4c2 303e 338c fcbd
000003c0: 6c04 203d b966 383e 8450 9fbc c61a 0cbe
000003d0: 5d70 c53d 1b57 933d 9293 78bd 5d14 67bd
000003e0: ded9 a939 8e61 99bd 1170 fa3c 8209 09be
000003f0: a642 ebbd 2dc0 2e3d 8b11 043e eab1 04bd

gru1.weight_hh_l0 f4 [90, 30]
-0.06482433 0.072245516 -0.12533328 -0.024482429 0.17870723 -0.03634073 0.011533878 0.086573154
-0.12008741 0.067321785 0.02177096 0.15328693 0.15240335 0.061417047 0.15160821 -0.0059208903
-0.05971604 -0.17190322 -0.1327989 0.030918704 -0.099309236 0.06697425 0.067950286 -0.15417644
0.16602428 0.12485367 0.15825218 0.061142117 0.03916666 -0.09916945 0.057736948 0.06801893
-0.04175505 0.061979834 0.0053000133 -0.17522882 -0.041207064 0.12660918 0.13956437 -0.016634027
-0.04343227 0.058434803 0.10684889 0.0060362206 0.14539078 0.04891521 -0.13859738 -0.17490995
-0.17556041 0.08027974 0.15478224 -0.1347203 -0.018785756 -0.0179515 0.0386903 -0.08463093
0.09081539 -0.18092288 0.08196873 0.08836353 -0.09305592 0.16337132 0.17498763 0.10386245
0.077125885 0.03742297 0.047560327 -0.10879381 -0.10719823 -0.12472378 -0.1544488 -0.0033025728
-0.086534895 0.02154291 0.17909425 0.008269632 -0.0749348 0.033606015 0.007966387 0.104899354
-0.14080231 -0.14033945 -0.048173413 0.12727591 0.12981433 -0.119037986 0.105236374 -0.12001413
0.10722783 0.155543 0.15940148 0.0011132562 0.110286094 0.13268596 0.13648596 0.16561545
0.14305784 -0.08319932 0.023609562 0.14285773 0.070553474 0.15208642 -0.044015516 0.07594864
-0.16978113 -0.1527005 0.06312524 -0.12512296 -0.041885592 0.1065239 -0.0144070145 0.14065333
-0.14935738 0.15162157 0.16910747 0.16547535 0.16944435 -0.15171166 0.16106904 0.11731058
0.16550462 -0.06481599 0.14020738 0.04953485 -0.105910644 0.17214094 -0.04820728 0.022590393
0.057068426 0.13135241 -0.036354028 0.07655546 0.021851923 0.16077991 -0.10613817 -0.12297184
-0.005590396 0.12538569 -0.13795394 -0.113575675 0.084137745 0.06817515 -0.18021393 -0.12515154
0.15942703 -0.07183739 -0.06235882 0.046232734 -0.14158724 -0.11766367 -0.16329415 0.103927806
0.14138949 0.07438316 -0.021135347 0.0058520054 0.114617825 0.106847085 0.003254865 0.14057441
0.014507936 0.0745585 -0.01479895 0.03583871 0.043809645 0.07217981 -0.14747715 -0.12041771
-0.14211747 0.14882874 0.113524444 0.00060879765 -0.1476329 -0.09046761 -0.0395483 0.09400198
-0.12473895 -0.093976036 -0.007869296 0.008844674 0.056704413 0.017873518 -0.09952212 -0.16236892
-0.13744383 0.07054747 0.009519004 -0.16090548 -0.059911486 0.032912705 -0.064119786 0.017062724
-0.11161454 -0.106146246 -0.08317935 0.12191086 -0.12954631 0.17883696 0.10051563 0.16638249
-0.05135254 -0.08548075 -0.15331942 0.17640278 0.10396487 -0.031134695 -0.08529068 -0.12984408
-0.0953615 0.014878064 0.12092362 0.009960215 -0.0707689 -0.0066069956 -0.147338 -0.1134053
-0.07843061 -0.1538081 0.10446924 -0.1634585 0.016639316 0.02169228 0.16201033 -0.029592134
-0.16948351 -0.1481441 -0.035870027 -0.13804635 -0.16814153 0.1096635 0.15756667 0.00058836077
-0.15706773 0.04118162 -0.10388641 -0.0725093 -0.15701787 -0.008400067 -0.10070332 -0.080705285
0.0800927 0.10413527 -0.03564783 0.11744996 0.17053126 -0.1747592 0.061096217 -0.035149187
0.033397794 -0.05441213 -0.14981692 -0.16212879 -0.09293014 -0.031851076 -0.027887251 0.03949983
00000000: 9ec2 84bd 75f5 933d 5e57 00be 608f c8bc
00000010: 07ff 363e 04da 14bd 97f8 3c3c 444d b13d
00000020: 63f0 f5bd 01e0 893d 0359 b23c 40f7 1c3e
00000030: a00f 1c3e 7190 7b3d 2f3f 1b3e 0704 c2bb
00000040: ce98 74bd 6607 30be 6ffc 07be 3949 fd3c
00000050: a462 cbbd cc29 893d 8529 8b3d 6ee0 1dbe
00000060: 4502 2a3e 48b3 ff3d dc0c 223e 2870 7a3d
00000070: 386d 203d 5a19 cbbd 947d 6c3d 824d 8b3d
00000080: 5807 2bbd 91de 7d3d bcab ad3b 2f6f 33be
00000090: bdc8 28bd d6a5 013e f6e9 0e3e 1544 88bc
000000a0: 09e6 31bd 5559 6f3d 97d3 da3d 7dcb c53b
000000b0: 52e1 143e 515b 483d 79ec 0dbe 981b 33be
000000c0: 1cc6 33be b469 a43d 3c7f 1e3e 1ef4 09be
000000d0: 96e4 99bc 060f 93bc b879 1e3d fb52 adbd
000000e0: 6bfd b93d d943 39be 39df a73d f0f7 b43d
000000f0: 1a94 bebd d04a 273e f52f 333e d6b5 d43d
00000100: 2df4 9d3d d448 193d 9ece 423d 4acf debd
00000110: bf8a dbbd 2e6f ffbd d427 1ebe fa6f 58bb
00000120: 3539 b1bd c27a b03c 7c64 373e 5a7d 073c
00000130: 6b77 99bd 76a6 093d 7385 023c 79d5 d63d
00000140: 7b2e 10be 25b5 0fbe 7c51 45bd 9e54 023e
00000150: 0cee 043e 30ca f3bd 2b86 d73d f8c9 f5bd
00000160: 449a db3d aa46 1f3e 243a 233e aeea 913a
00000170: addd e13d d4de 073e fac2 0b3e 1997 293e
00000180: c17d 123e 6864 aabd d768 c13c 4c49 123e
00000190: 577e 903d 8bbc 1b3e 9d49 34bd f68a 9b3d
000001a0: 1bdb 2dbe 855d 1cbe ce47 813d 3c20 00be
000001b0: 3a90 2bbd 3429 da3d 660b 6cbc 6d07 103e
000001c0: 24f1 18be af42 1b3e 822a 2d3e 5f72 293e
000001d0: d282 2d3e 4d5a 1bbe 48ef 243e 8840 f03d
000001e0: 0b7a 293e 3fbe 84bd 8692 0f3e 0ee5 4a3d
000001f0: aee7 d8bd b745 303e ff74 45bd 7d0f b93c
00000200: 95c0 693d 3f81 063e f6e7 14bd 1cc9 9c3d
00000210: ce02 b33c 7da3 243e f85e d9bd a9d8 fbbd
00000220: a42f b7bb 1b65 003e cc43 0dbe 5d9a e8bd
00000230: 6950 ac3d 6a9f 8b3d 008a 38be ba27 00be
00000240: d740 233e 7b1f 93bd f66b 7fbd 895e 3d3d
00000250: 3ffc 10be a6f9 f0bd 9536 27be 1ad8 d43d
00000260: 68c8 103e 3356 983d 0924 adbc 2ec2 bf3b
00000270: c0bc ea3d a5d2 da3d 934f 553b bdf2 0f3e
00000280: b2b2 6d3c 20b2 983d 4c77 72bc 9ccb 123d
00000290: be71 333d 02d3 933d 4004 17be 8f9d f6bd
000002a0: 3e87 11be 9066 183e 817f e83d b897 1f3a
000002b0: 142d 17be 1547 b9bd 66fd 21bd 1c84 c03d
000002c0: 2277 ffbd 8276 c0bd 38ee 00bc 40e9 103c
000002d0: e342 683d 7c6b 923c 41d2 cbbd 0a44 26be
000002e0: 13be 0cbe 317b 903d 99f5 1b3c 68c4 24be
000002f0: bf65 75bd 79cf 063d 3c51 83bd 20c7 8b3c
00000300: 2a96 e4bd 3463 d9bd ef59 aabd 67ac f93d
00000310: caa7 04be 0921 373e 23db cd3d 2c60 2a3e
00000320: 0a57 52bd 8810 afbd c4ff 1cbe eea2 343e
00000330: 89eb d43d 300e ffbc e1ac aebd d9f5 04be
00000340: e44c c3bd 20c3 733c cea6 f73d 2b30 233c
00000350: 49ef 90bd 7f7f d8bb c6df 16be 0a41 e8bd
00000360: 3aa0 a0bd df7f 1dbe f8f3 d53d aa61 27be
00000370: 2d4f 883c 02b4 b13c 09e6 253e 346b f2bc
00000380: 168d 2dbe 16b3 17be 73ec 12bd 065c 0dbe
00000390: 4b2d 2cbe 4297 e03d 2859 213e 393c 1a3a
000003a0: 5dd6 20be 0fae 283d 66c2 d4bd c27f 94bd
000003b0: 4bc9 20be 6fa0 09bc 8b3d cebd d048 a5bd
000003c0: a407 a43d df44 d53d 7603 12bd 9b89 f03d
000003d0: bf9f 2e3e 13f4 32be 0740 7a3d 98f8 0fbd
000003e0: 20cc 083d 41df 5ebd 9b69 19be 1705 26be
000003f0: 2852 bebd 4676 02bd ce73 e4bc 93ca 213d

gru1.bias_ih_l0 f4 [90]
0.0033937227 -0.109571435 0.03416852 -0.05575215 -0.12089766 0.02057156 -0.17448358 0.10255555
-0.024995506 -0.05239669 -0.1653617 -0.12891197 0.11842262 -0.09039146 -0.087413855 -0.09963473
-0.097062945 0.10428814 -0.08876554 0.019412162 0.04745749 0.033432204 -0.14967719 -0.05572895
0.11048407 0.1437376 -0.007462603 -0.08602349 -0.04121257 0.110472426 0.18056583 -0.07099244
-0.016393246 -0.07084205 0.03154996 0.1669791 -0.022880755 -0.16401449 -0.18100727 0.09890699
0.004599696 0.07657964 -0.07626029 0.05641845 -0.14472245 0.11227845 -0.013728287 0.16546483
0.07159029 -0.05209721 0.028966425 -0.09527059 0.14604436 0.09492153 -0.010207242 0.017889166
-0.07275537 -0.043784507 0.09396269 -0.11815546 -0.18085968 0.15535627 -0.07121807 0.1763498
-0.15124235 -0.027328316 0.060448088 -0.1367487 -0.0511318 -0.14536239 -0.11783678 0.15005822
-0.08714606 -0.15226158 -0.031980377 -0.048675172 -0.17300318 0.15260448 0.15562844 -0.11931418
0.13851757 -0.0026927958 -0.10678181 0.1389198 -0.029128244 -0.006278003 -0.07313801 0.09791663
-0.094216816 -0.05761994
00000000: 3869 5e3b fd66 e0bd 4af4 0b3d 5e5c 64bd
00000010: 3199 f7bd b085 a83c d3ab 32be a508 d23d
00000020: 60c3 ccbc e99d 56bd 9454 29be 8001 04be
00000030: 8f87 f23d 281f b9bd 0906 b3bd 4b0d ccbd
00000040: f0c8 c6bd 0595 d53d b5ca b5bd 4106 9f3c
00000050: c962 423d 35f0 083d fa44 19be 0a44 64bd
00000060: 7945 e23d f32f 133e da88 f4bb 152d b0bd
00000070: 83ce 28bd 5e3f e23d 40e6 383e 7c64 91bd
00000080: 214b 86bc a315 91bd 883a 013d 92fc 2a3e
00000090: 6c70 bbbc 6af3 27be f859 39be bf8f ca3d
000000a0: 0cb9 963b c9d5 9c3d 5b2e 9cbd 0817 673d
000000b0: 1f32 14be 3ef2 e53d 9cec 60bc 9d6f 293e
000000c0: ee9d 923d e263 55bd ff4a ed3c 3a1d c3bd
000000d0: a78c 153e 3866 c23d 473c 27bc 4d8c 923c
000000e0: c400 95bd 6257 33bd 836f c03d 7dfb f1bd
000000f0: 4833 39be b715 1f3e c8da 91bd 0b95 343e
00000100: 46df 1abe a2df dfbc 6a98 773d da07 0cbe
00000110: 946f 51bd e1d9 14be 6954 f1bd dda8 193e
00000120: a279 b2bd 76ea 1bbe dbfd 02bd 9e5f 47bd
00000130: bf27 31be 5944 1c3e 105d 1f3e fe5a f4bd
00000140: 8dd7 0d3e 9e79 30bb 6cb0 dabd fe40 0e3e
00000150: 5b9e eebc b5b7 cdbb 62c9 95bd 8488 c83d
00000160: bff4 c0bd e302 6cbd
