checkpoint/social-stgcnn-univ/val_best.pth (torch, 170225 bytes, 44 tensors)

fc1.weight f4 [32, 2]
-0.0017489785 0.4101166 0.5256419 0.09623879 0.5651432 0.46706656 -0.64845526 -0.16260351
0.24126181 -0.26686126 0.29292825 -0.25481966 0.67326397 -0.49998364 0.47954777 -0.50988466
-0.21807648 -0.48604754 -0.33809832 0.13076255 0.20729698 0.29161453 -0.33756083 0.33833346
-0.37536556 -0.22954379 0.43000346 -0.31443828 0.48751312 -0.047433034 0.38108963 -0.49825314
0.27396497 0.64707994 -0.3048437 0.39642173 0.18617694 -0.11837882 -0.3827248 0.5803357
0.60933894 0.15219386 -0.17376588 0.61302304 -0.54260707 -0.5653878 -0.044367522 0.04680165
-0.07611888 -0.11199456 0.6557905 -0.34006694 -0.24613088 -0.21380268 -0.42780715 -0.60336906
-0.26315016 -0.4639252 0.324137 -0.024514403 0.1501832 -0.6251727 -0.16712315 -0.27290022
00000000: fb3d e5ba cefa d13e 7890 063f d818 c53d
00000010: 3aad 103f 5923 ef3e 2a01 26bf 8981 26be
00000020: 560d 773e 0aa2 88be b1fa 953e b977 82be
00000030: 075b 2c3f dbfd ffbe 4987 f53e cd87 02bf
00000040: 714f 5fbe 39db f8be 391b adbe 9ee6 053e
00000050: a945 543e 804e 953e c6d4 acbe 0b3a ad3e
00000060: ea2f c0be 870d 6bbe 6a29 dc3e 0efe a0be
00000070: 529b f93e 2449 42bd 2e1e c33e 091b ffbe
00000080: 2345 8c3e 08a7 253f 7914 9cbe caf7 ca3e
00000090: 2ba5 3e3e 9870 f2bd 81f4 c3be e190 143f
000000a0: a3fd 1b3f b5d8 1b3e afef 31be 14ef 1c3f
000000b0: 4ce8 0abf 41bd 10bf b8ba 35bd 16b3 3f3d
000000c0: 37e4 9bbd 675d e5bd e3e1 273f 411d aebe
000000d0: bc09 7cbe 17ef 5abe 8a09 dbbe 6576 1abf
000000e0: 9ebb 86be 9b87 edbe 49f5 a53e 6ed2 c8bc
000000f0: a0c9 193e 510b 20bf 5522 2bbe 94b9 8bbe

fc1.bias f4 [32]
0.51357824 0.011242858 -0.44190782 -0.030900992 0.34412438 0.23556423 0.19687241 0.32877624
0.20810626 -0.13551804 0.33107868 -0.55797833 0.18420698 0.014290594 -0.06972417 0.39292818
0.5413579 -0.2018165 0.48573628 0.17997211 -0.24529329 -0.0825584 -0.27507985 -0.44330603
0.36526874 0.48417094 -0.5579323 0.2039362 0.24906237 -0.37222904 0.566201 -0.55124635
00000000: dd79 033f f733 383c be41 e2be 1424 fdbc
00000010: 1231 b03e c037 713e ec98 493e 5c55 a83e
00000020: cf19 553e 3ec5 0abe 2583 a93e abd7 0ebf
00000030: c1a0 3c3e 1823 6a3c 8ccb 8ebd e22d c93e
00000040: 6e96 0a3f fca8 4ebe 6db2 f83e 9c4a 383e
00000050: 2a2e 7bbe 6114 a9bd 44d7 8cbe 02f9 e2be
00000060: 8104 bb3e 41e5 f73e a7d4 0ebf a7d4 503e
00000070: 350a 7f3e ce94 bebe 8cf2 103f 7b1e 0dbf

fc_seq.weight f4 [12, 8]
0.15852955 -0.32330433 0.02742213 -0.22775705 -0.3373851 0.22920379 0.11165046 -0.11244564
0.13760827 0.22024728 -0.16180432 0.30571815 0.048467737 -0.13732325 0.054904908 -0.1833017
0.05193347 0.15235496 0.053868983 -0.01885671 0.30886963 -0.044878174 0.02228405 0.21149006
0.31505933 -0.33756566 0.046343748 -0.32251874 -0.1882553 -0.24081065 0.20229682 -0.027012799
0.1565948 -0.039502554 0.29335585 0.050856158 -0.22564217 0.078079104 -0.034063503 -0.087453105
0.27415177 -0.066375345 -0.33586523 0.04303627 0.13786246 0.34847283 -0.04824398 0.1866562
0.1114747 -0.05025704 -0.091830395 -0.21894954 0.2538495 -0.038799547 -0.14360708 -0.3089232
0.25301662 -0.096217796 0.11903378 0.16970627 0.17814061 0.35194916 0.34837565 0.006244477
0.27572602 0.24845618 -0.110216536 0.24724858 0.2824481 -0.17416215 0.26937315 0.13269576
0.23252252 -0.06928006 -0.058916952 -0.33527738 -0.11952871 0.32740408 0.099391796 0.2481885
0.06462739 0.10429815 0.061139986 -0.2177473 0.32159394 -0.2261151 -0.1166551 -0.23929964
-0.23966391 0.04609626 0.033706985 -0.11950166 -0.18571453 0.18641846 -0.06289005 -0.11940821
00000000: 9255 223e 2588 a5be 60a4 e03c 2539 69be
00000010: bdbd acbe 66b4 6a3e ffa8 e43d e649 e6bd
00000020: 2fe9 0c3e 8188 613e 08b0 25be 1787 9c3e
00000030: 1b86 463d 779e 0cbe f8e3 603d 71b3 3bbe
00000040: 31b8 543d f002 1c3e b9a5 5c3d 6379 9abc
00000050: 2924 9e3e 2dd2 37bd 0a8d b63c da90 583e
00000060: 754f a13e 68d5 acbe f1d2 3d3d 2d21 a5be
00000070: ffc5 40be 1197 76be e626 4f3e f249 ddbc
00000080: 635a 203e 6ecd 21bd bd32 963e 8c4e 503d
00000090: be0e 67be f0e7 9f3d 2c86 0bbd 9d1a b3bd
000000a0: 9f5d 8c3e ccef 87bd 87f6 abbe cd46 303d
000000b0: d12b 0d3e 086b b23e 7b9b 45bd ce22 3f3e
000000c0: d94c e43d 53da 4dbd 9311 bcbd 4f34 60be
000000d0: 90f8 813e 46ec 1ebd bc0d 13be 2f2b 9ebe
000000e0: 658b 813e d60d c5bd fcc7 f33d 7bc7 2d3e
000000f0: 7e6a 363e ae32 b43e 4b5e b23e 789e cc3b
00000100: f62b 8d3e 4c6b 7e3e 35b9 e1bd bb2e 7d3e
00000110: 0a9d 903e 9057 32be 47eb 893e 66e1 073e
00000120: 621a 6e3e b4e2 8dbd e752 71bd 7aa9 abbe
00000130: 78cb f4bd 82a1 a73e ed8d cb3d 2025 7e3e
00000140: 5d5b 843d 459a d53d ec6d 7a3d 26f9 5ebe
00000150: f6a7 a43e b78a 67be dee8 eebd f70a 75be
00000160: 756a 75be 6fcf 3c3d 5610 0a3d 49bd f4bd
00000170: f32b 3ebe 7be4 3e3e 80cc 80bd 4b8c f4bd

fc_seq.bias f4 [12]
0.15518023 0.30113253 0.12127591 -0.3232576 -0.032783292 0.3265068 0.1030989 0.25993782
0.010441755 -0.34467173 0.16766164 0.122643284
00000000: 91e7 1e3e 0b2e 9a3e 815f f83d 0582 a5be
00000010: c647 06bd e62b a73e 8425 d33d 9216 853e
00000020: e513 2b3c d078 b0be 7eaf 2b3e 672c fb3d

gat1.gat.att_src f4 [1, 2, 15]
0.2071213 -0.46331018 0.24128371 -0.084029764 0.37096223 -0.27522215 0.36203066 -0.033234246
0.40840542 -0.0063603455 -0.0137419645 -0.32661885 -0.01142019 -0.13731666 0.21473658 0.10511983
-0.4034864 0.119197875 -0.10777644 0.501307 0.14421988 0.41394413 -0.19423752 -0.18952775
0.33146873 0.2024763 -0.14546588 0.12540966 -0.22410369 0.23053227
00000000: 9b17 543e fe36 edbe 1413 773e cc17 acbd
00000010: c3ee bd3e ebe9 8cbe 155c b93e a220 08bd
00000020: 841a d13e 726a d0bb fa25 61bc 963a a7be
00000030: c01b 3bbc bd9c 0cbe e8e3 5b3e 1149 d73d
00000040: c595 cebe 041e f43d e5b9 dcbd a855 003f
00000050: 60ae 133e 7cf0 d33e 33e6 46be 9013 42be
00000060: 45b6 a93e f255 4f3e 02f5 14be 646b 003e
00000070: 707b 65be a710 6c3e

gat1.gat.att_dst f4 [1, 2, 15]
0.2087391 -0.44943702 -0.0750798 0.45956087 0.04816651 -0.14491825 -0.11644871 0.33471838
0.2443329 0.32441932 -0.27509227 -0.09895119 -0.37864384 0.122688435 -0.14728914 0.008389214
0.06573503 0.4989369 0.12376485 0.27211055 -0.34294277 0.41433826 0.49334097 -0.14521575
-0.32049015 -0.27268025 0.08042087 0.14022183 -0.1725466 0.065928295
00000000: b4bf 553e 9c1c e6be 70c3 99bd 904b eb3e
00000010: 3f4a 453d 7365 14be a97c eebd 3560 ab3e
00000020: 6732 7a3e 4a1a a63e e5d8 8cbe eca6 cabd
00000030: 9bdd c1be 1344 fb3d f7d2 16be ea72 093c
00000040: 16a0 863d a874 ff3e 6d78 fd3d 1352 8b3e
00000050: 3296 afbe 2524 d43e 3097 fc3e 70b3 14be
00000060: 4917 a4be bf9c 8bbe b2b3 a43d 5096 0f3e
00000070: 0eb0 30be 6a05 873d

gat1.gat.bias f4 [30]
0.017411526 -0.041874908 -0.009190848 -0.0053752046 -0.037496585 0.037995234 0.0023169112 -0.0052432874
0.005884652 0.003203574 0.039474774 -0.036170233 0.022108374 -0.052605536 0.014045945 -0.024644379
0.03798889 0.020833502 0.025378242 -0.016845664 -0.0036444345 0.030592794 -0.0062974547 -0.040201455
-0.023144783 -0.017578127 -0.024050675 0.0036401548 -0.084149 0.014264419
00000000: 9ea2 8e3c 0685 2bbd 3695 16bc 7c22 b0bb
00000010: 0596 19bd e4a0 1b3d 52d7 173b e2cf abbb
00000020: 0ad4 c03b 0ef3 513b 4db0 213d 3d27 14bd
00000030: 9f1c b53c e778 57bd f720 663c 02e3 c9bc
00000040: 3d9a 1b3d 05ab aa3c 08e6 cf3c ebff 89bc
00000050: 77d7 6ebb bd9d fa3c e15a cebb 48aa 24bd
00000060: 219a bdbc 0100 90bc ec05 c5bc aa8f 6e3b
00000070: 5056 acbd 4fb5 693c

gat1.gat.lin_src.weight f4 [30, 30]
0.105130576 -0.16744874 0.014841303 -0.16348323 -0.1414779 -0.24366958 -0.16872524 0.10026047
0.15400702 0.043967184 0.14163995 -0.22968577 0.0907547 0.16069528 0.1595653 -0.22440746
-0.16767739 -0.122595504 0.13188553 0.016927991 -0.26789048 -0.15194763 0.20021218 0.12018006
0.17750326 0.26666844 0.057915084 0.035500094 -0.15493721 0.2562354 -0.2147186 -0.0736552
-0.16785972 0.06884984 0.030240968 0.1539171 -0.049414873 0.11443382 0.01785828 -0.2735042
0.24505827 -0.1810653 0.15216286 -0.09325781 -0.07463668 0.24655789 0.1997558 0.070725426
-0.18942417 -0.23586147 -0.11960481 0.05434542 0.1751997 -0.06694341 0.28105208 0.25511423
0.20502567 -0.0057577346 -0.10283867 -1.5563968e-05 0.21987237 -0.09724809 0.039539613 0.26406902
-0.04124528 -0.18575823 0.22061616 0.16275737 0.2695465 -0.19817446 -0.08666607 -0.14698903
-0.21707653 -0.06664898 -0.006155659 -0.033956617 0.05382532 0.15129389 -0.18606658 -0.018725857
-0.26898283 0.16317505 0.03685805 -0.2686754 0.2657741 0.2564883 0.2248952 -0.12988478
-0.1217639 0.061493464 0.06956486 0.12607643 -0.05874237 -0.13295549 -0.06642126 -0.06932152
-0.22980528 -0.04417918 0.23075591 0.11779044 -0.18718685 -0.19076811 -0.2150441 0.17806067
0.23793913 0.07995887 0.1386202 -0.27266243 0.2132975 -0.19963145 0.08941826 -0.21012141
-0.12836084 0.17868531 0.19510508 -0.25341874 -0.19332331 -0.26777998 -0.24926744 -0.110748336
0.11468295 -0.049561158 -0.24819025 0.27125722 -0.065132886 0.23680091 -0.23361045 0.20793606
0.08116602 -0.002817208 -0.14401916 0.24324675 0.12807485 0.215741 -0.10764014 -0.21382844
-0.16911712 -0.12280652 -0.13438766 -0.21875049 -0.04074668 -0.18932393 -0.18936476 -0.08339498
0.0014886799 -0.06605226 0.12770478 -0.23349036 -0.17629947 0.21034056 -0.027805949 0.0849117
0.26437265 0.012559475 -0.1308678 0.11142983 -0.21116434 0.20966078 -0.19922683 -0.17086615
0.17083257 0.22618549 0.071626216 0.2593285 -0.18908042 -0.1959219 -0.1451655 -0.05508653
0.12229962 -0.20466088 -0.13016358 -0.19246311 -0.14633939 0.20959622 0.055535175 0.11063817
0.016862858 -0.26137608 0.24621353 -0.016000208 -0.04220319 -0.154821 -0.13420044 -0.14630386
-0.08048654 -0.02144637 0.05119171 -0.14328724 0.24722543 -0.08482556 -0.04953092 0.25213876
0.18637173 0.026362509 0.17729394 -0.058484145 0.27270976 0.1177105 -0.08356755 -0.14411709
0.050332658 -0.09087818 0.09994208 0.022281883 -0.13428988 0.1564399 0.108381234 0.2852046
0.006325619 0.119783 -0.22927968 -0.15859315 0.24993089 0.06925803 0.27802035 -0.24588121
0.033751115 -0.20782804 -0.15789497 0.116085395 0.13139434 0.04578471 0.23103744 -0.063247904
-0.10640038 0.18772866 -0.21976487 0.03201969 0.15036029 -0.1486842 -0.21766612 -0.093994215
0.04865804 0.07020238 0.1474768 -0.017017918 -0.13393027 0.21393616 -0.21271855 -0.25293434
-0.081579715 -0.17134087 -0.06095232 -0.20681053 0.100423604 0.08382002 0.2707779 -0.1401607
-0.13747552 -0.097717136 0.12389489 0.07159789 -0.13300964 0.08381054 -0.07224961 -0.03185076
00000000: b34e d73d af77 2bbe f028 733c 2668 27be
00000010: 95df 10be 8584 79be 4fc6 2cbe 5c55 cd3d
00000020: 04b4 1d3e ef16 343d 100a 113e bf32 6bbe
00000030: 9add b93d 4e8d 243e 1665 233e 12cb 65be
00000040: 9fb3 2bbe 5a13 fbbd 000d 073e 92ac 8a3c
00000050: f128 89be 2998 1bbe 6c04 4d3e f720 f63d
00000060: 6ac3 353e c488 883e 5e38 6d3d 8c68 113d
00000070: dca7 1ebe 4931 833e 31df 5bbe 8ad8 96bd
00000080: 6be3 2bbe 2501 8d3d e8bb f73c 729c 1d3e
00000090: 4067 4abd 475c ea3d 874b 923c be08 8cbe
000000a0: 8ef0 7a3e 2f69 39be 95d0 1b3e f3fd bebd
000000b0: 1edb 98bd ac79 7c3e c98c 4c3e 7ed8 903d
000000c0: 69f8 41be ab85 71be 5ef3 f4bd 4e99 5e3d
000000d0: 8d67 333e a019 89bd 0fe6 8f3e 559e 823e
000000e0: 40f2 513e 61ab bcbb 159d d2bd 5e8f 82b7
000000f0: 3926 613e 022a c7bd 4af4 213d 0e34 873e
00000100: d0f0 28bd 6837 3ebe 34e9 613e dea9 263e
00000110: 0002 8a3e 3fee 4abe fb7d b1bd 4b84 16be
00000120: 4f49 5ebe 437f 88bd 69b5 c9bb 1816 0bbd
00000130: f077 5c3d c9ec 1a3e 3d88 3ebe f866 99bc
00000140: 1eb8 89be 5c17 273e 77f8 163d d28f 89be
00000150: 8b13 883e 6f52 833e ed4a 663e 8400 05be
00000160: 5a5f f9bd 92e0 7b3d 0578 8e3d 2e1a 013e
00000170: d79b 70bd 7c25 08be df07 88bd 71f8 8dbd
00000180: 1352 6bbe 3af5 34bd 474b 6c3e 1d3c f13d
00000190: e9ad 3fbe b758 43be 8534 5cbe 8955 363e
000001a0: 51a6 733e 7ac1 a33d 74f2 0d3e 699a 8bbe
000001b0: a96a 5a3e 306c 4cbe ec20 b73d 112a 57be
000001c0: 0671 03be 48f9 363e a0c9 473e 1ac0 81be
000001d0: 8cf6 45be 751a 89be f73f 7fbe 06d0 e2bd
000001e0: e5de ea3d a400 4bbd 9625 7ebe 3ae2 8a3e
000001f0: 6464 85bd f07b 723e 9437 6fbe 31ed 543e
00000200: 5f3a a63d e8a0 38bb c279 13be ad15 793e
00000210: 0e26 033e 35eb 5c3e 6f72 dcbd d8f5 5abe
00000220: 0a2d 2dbe fc81 fbbd eb9c 09be 2100 60be
00000230: fee5 26bd 22de 41be d6e8 41be fdca aabd
00000240: cf1f c33a 6846 87bd 0bc5 023e 1918 6fbe
00000250: d987 34be 8463 573e 4dc9 e3bc 2fe6 ad3d
00000260: da5b 873e 42c6 4d3c 3502 06be 5335 e43d
00000270: 773b 58be 51b1 563e 1e02 4cbe 89f7 2ebe
00000280: bcee 2e3e 2b9d 673e c4b0 923d b5c6 843e
00000290: 4c9e 41be c09f 48be 44a6 14be 6aa2 61bd
000002a0: 3978 fa3d 9f92 51be 9a49 05be 0d15 45be
000002b0: fed9 15be 64a0 563e da78 633d 4496 e23d
000002c0: fa23 8a3c 16d3 85be 661f 7c3e de12 83bc
000002d0: 41dd 2cbd 6589 1ebe d76b 09be aed0 15be
000002e0: 21d6 a4bd 4cb0 afbc 66ae 513d e4b9 12be
000002f0: aa28 7d3e 06b9 adbd efe0 4abd 5518 813e
00000300: 3bd8 3e3e 30f6 d73c 8b8c 353e 128d 6fbd
00000310: 9da0 8b3e 3412 f13d 7725 abbd 6e93 13be
00000320: 9e29 4e3d 571e babd 6fae cc3d 7f88 b63c
00000330: 4983 09be c831 203e fbf6 dd3d 5606 923e
00000340: 2347 cf3b ca50 f53d 4bc8 6abe 3e66 22be
00000350: e2ed 7f3e 27d7 8d3d af58 8e3e 49c8 7bbe
00000360: 9c3e 0a3d e0d0 54be 38af 21be 2ebe ed3d
00000370: 3d8c 063e c088 3b3d 1495 6c3e 1e88 81bd
00000380: 71e8 d9bd f13b 403e 0b0a 61be 1427 033d
00000390: 0cf8 193e ac40 18be dee3 5ebe 0a80 c0bd
000003a0: a74d 473d 44c6 8f3d 2904 173e 2969 8bbc
000003b0: 0425 09be 1512 5b3e e4d2 59be 9c80 81be
000003c0: 4413 a7bd fb73 2fbe 24a9 79bd 24c6 53be
000003d0: e4aa cd3d d5a9 ab3d 67a3 8a3e 4986 0fbe
000003e0: 62c6 0cbe ec1f c8bd 9bbc fd3d eaa1 923d
000003f0: ae33 08be dca4 ab3d 9bf7 93bd f175 02bd

gat1.gat.lin_dst.weight f4 [30, 30]
0.105130576 -0.16744874 0.014841303 -0.16348323 -0.1414779 -0.24366958 -0.16872524 0.10026047
0.15400702 0.043967184 0.14163995 -0.22968577 0.0907547 0.16069528 0.1595653 -0.22440746
-0.16767739 -0.122595504 0.13188553 0.016927991 -0.26789048 -0.15194763 0.20021218 0.12018006
0.17750326 0.26666844 0.057915084 0.035500094 -0.15493721 0.2562354 -0.2147186 -0.0736552
-0.16785972 0.06884984 0.030240968 0.1539171 -0.049414873 0.11443382 0.01785828 -0.2735042
0.24505827 -0.1810653 0.15216286 -0.09325781 -0.07463668 0.24655789 0.1997558 0.070725426
-0.18942417 -0.23586147 -0.11960481 0.05434542 0.1751997 -0.06694341 0.28105208 0.25511423
0.20502567 -0.0057577346 -0.10283867 -1.5563968e-05 0.21987237 -0.09724809 0.039539613 0.26406902
-0.04124528 -0.18575823 0.22061616 0.16275737 0.2695465 -0.19817446 -0.08666607 -0.14698903
-0.21707653 -0.06664898 -0.006155659 -0.033956617 0.05382532 0.15129389 -0.18606658 -0.018725857
-0.26898283 0.16317505 0.03685805 -0.2686754 0.2657741 0.2564883 0.2248952 -0.12988478
-0.1217639 0.061493464 0.06956486 0.12607643 -0.05874237 -0.13295549 -0.06642126 -0.06932152
-0.22980528 -0.04417918 0.23075591 0.11779044 -0.18718685 -0.19076811 -0.2150441 0.17806067
0.23793913 0.07995887 0.1386202 -0.27266243 0.2132975 -0.19963145 0.08941826 -0.21012141
-0.12836084 0.17868531 0.19510508 -0.25341874 -0.19332331 -0.26777998 -0.24926744 -0.110748336
0.11468295 -0.049561158 -0.24819025 0.27125722 -0.065132886 0.23680091 -0.23361045 0.20793606
0.08116602 -0.002817208 -0.14401916 0.24324675 0.12807485 0.215741 -0.10764014 -0.21382844
-0.16911712 -0.12280652 -0.13438766 -0.21875049 -0.04074668 -0.18932393 -0.18936476 -0.08339498
0.0014886799 -0.06605226 0.12770478 -0.23349036 -0.17629947 0.21034056 -0.027805949 0.0849117
0.26437265 0.012559475 -0.1308678 0.11142983 -0.21116434 0.20966078 -0.19922683 -0.17086615
0.17083257 0.22618549 0.071626216 0.2593285 -0.18908042 -0.1959219 -0.1451655 -0.05508653
0.12229962 -0.20466088 -0.13016358 -0.19246311 -0.14633939 0.20959622 0.055535175 0.11063817
0.016862858 -0.26137608 0.24621353 -0.016000208 -0.04220319 -0.154821 -0.13420044 -0.14630386
-0.08048654 -0.02144637 0.05119171 -0.14328724 0.24722543 -0.08482556 -0.04953092 0.25213876
0.18637173 0.026362509 0.17729394 -0.058484145 0.27270976 0.1177105 -0.08356755 -0.14411709
0.050332658 -0.09087818 0.09994208 0.022281883 -0.13428988 0.1564399 0.108381234 0.2852046
0.006325619 0.119783 -0.22927968 -0.15859315 0.24993089 0.06925803 0.27802035 -0.24588121
0.033751115 -0.20782804 -0.15789497 0.116085395 0.13139434 0.04578471 0.23103744 -0.063247904
-0.10640038 0.18772866 -0.21976487 0.03201969 0.15036029 -0.1486842 -0.21766612 -0.093994215
0.04865804 0.07020238 0.1474768 -0.017017918 -0.13393027 0.21393616 -0.21271855 -0.25293434
-0.081579715 -0.17134087 -0.06095232 -0.20681053 0.100423604 0.08382002 0.2707779 -0.1401607
-0.13747552 -0.097717136 0.12389489 0.07159789 -0.13300964 0.08381054 -0.07224961 -0.03185076
00000000: b34e d73d af77 2bbe f028 733c 2668 27be
00000010: 95df 10be 8584 79be 4fc6 2cbe 5c55 cd3d
00000020: 04b4 1d3e ef16 343d 100a 113e bf32 6bbe
00000030: 9add b93d 4e8d 243e 1665 233e 12cb 65be
00000040: 9fb3 2bbe 5a13 fbbd 000d 073e 92ac 8a3c
00000050: f128 89be 2998 1bbe 6c04 4d3e f720 f63d
00000060: 6ac3 353e c488 883e 5e38 6d3d 8c68 113d
00000070: dca7 1ebe 4931 833e 31df 5bbe 8ad8 96bd
00000080: 6be3 2bbe 2501 8d3d e8bb f73c 729c 1d3e
00000090: 4067 4abd 475c ea3d 874b 923c be08 8cbe
000000a0: 8ef0 7a3e 2f69 39be 95d0 1b3e f3fd bebd
000000b0: 1edb 98bd ac79 7c3e c98c 4c3e 7ed8 903d
000000c0: 69f8 41be ab85 71be 5ef3 f4bd 4e99 5e3d
000000d0: 8d67 333e a019 89bd 0fe6 8f3e 559e 823e
000000e0: 40f2 513e 61ab bcbb 159d d2bd 5e8f 82b7
000000f0: 3926 613e 022a c7bd 4af4 213d 0e34 873e
00000100: d0f0 28bd 6837 3ebe 34e9 613e dea9 263e
00000110: 0002 8a3e 3fee 4abe fb7d b1bd 4b84 16be
00000120: 4f49 5ebe 437f 88bd 69b5 c9bb 1816 0bbd
00000130: f077 5c3d c9ec 1a3e 3d88 3ebe f866 99bc
00000140: 1eb8 89be 5c17 273e 77f8 163d d28f 89be
00000150: 8b13 883e 6f52 833e ed4a 663e 8400 05be
00000160: 5a5f f9bd 92e0 7b3d 0578 8e3d 2e1a 013e
00000170: d79b 70bd 7c25 08be df07 88bd 71f8 8dbd
00000180: 1352 6bbe 3af5 34bd 474b 6c3e 1d3c f13d
00000190: e9ad 3fbe b758 43be 8534 5cbe 8955 363e
000001a0: 51a6 733e 7ac1 a33d 74f2 0d3e 699a 8bbe
000001b0: a96a 5a3e 306c 4cbe ec20 b73d 112a 57be
000001c0: 0671 03be 48f9 363e a0c9 473e 1ac0 81be
000001d0: 8cf6 45be 751a 89be f73f 7fbe 06d0 e2bd
000001e0: e5de ea3d a400 4bbd 9625 7ebe 3ae2 8a3e
000001f0: 6464 85bd f07b 723e 9437 6fbe 31ed 543e
00000200: 5f3a a63d e8a0 38bb c279 13be ad15 793e
00000210: 0e26 033e 35eb 5c3e 6f72 dcbd d8f5 5abe
00000220: 0a2d 2dbe fc81 fbbd eb9c 09be 2100 60be
00000230: fee5 26bd 22de 41be d6e8 41be fdca aabd
00000240: cf1f c33a 6846 87bd 0bc5 023e 1918 6fbe
00000250: d987 34be 8463 573e 4dc9 e3bc 2fe6 ad3d
00000260: da5b 873e 42c6 4d3c 3502 06be 5335 e43d
00000270: 773b 58be 51b1 563e 1e02 4cbe 89f7 2ebe
00000280: bcee 2e3e 2b9d 673e c4b0 923d b5c6 843e
00000290: 4c9e 41be c09f 48be 44a6 14be 6aa2 61bd
000002a0: 3978 fa3d 9f92 51be 9a49 05be 0d15 45be
000002b0: fed9 15be 64a0 563e da78 633d 4496 e23d
000002c0: fa23 8a3c 16d3 85be 661f 7c3e de12 83bc
000002d0: 41dd 2cbd 6589 1ebe d76b 09be aed0 15be
000002e0: 21d6 a4bd 4cb0 afbc 66ae 513d e4b9 12be
000002f0: aa28 7d3e 06b9 adbd efe0 4abd 5518 813e
00000300: 3bd8 3e3e 30f6 d73c 8b8c 353e 128d 6fbd
00000310: 9da0 8b3e 3412 f13d 7725 abbd 6e93 13be
00000320: 9e29 4e3d 571e babd 6fae cc3d 7f88 b63c
00000330: 4983 09be c831 203e fbf6 dd3d 5606 923e
00000340: 2347 cf3b ca50 f53d 4bc8 6abe 3e66 22be
00000350: e2ed 7f3e 27d7 8d3d af58 8e3e 49c8 7bbe
00000360: 9c3e 0a3d e0d0 54be 38af 21be 2ebe ed3d
00000370: 3d8c 063e c088 3b3d 1495 6c3e 1e88 81bd
00000380: 71e8 d9bd f13b 403e 0b0a 61be 1427 033d
00000390: 0cf8 193e ac40 18be dee3 5ebe 0a80 c0bd
000003a0: a74d 473d 44c6 8f3d 2904 173e 2969 8bbc
000003b0: 0425 09be 1512 5b3e e4d2 59be 9c80 81be
000003c0: 4413 a7bd fb73 2fbe 24a9 79bd 24c6 53be
000003d0: e4aa cd3d d5a9 ab3d 67a3 8a3e 4986 0fbe
000003e0: 62c6 0cbe ec1f c8bd 9bbc fd3d eaa1 923d
000003f0: ae33 08be dca4 ab3d 9bf7 93bd f175 02bd

gat2.gat.att_src f4 [1, 1, 30]
0.13887839 -0.18241262 0.26826742 -0.088869765 0.040643644 -0.14080277 0.049601614 -0.20581943
-0.15513863 -0.106285684 -0.22140878 -0.28171447 -0.10795261 0.19594407 -0.07688888 0.0632009
-0.038063776 0.32717377 -0.15862589 0.014586687 -0.06578185 -0.16730769 -0.1637194 0.060433634
0.067384936 -0.13966954 -0.15508032 0.13615109 0.041754894 0.3037084
00000000: 2336 0e3e 60ca 3abe 595a 893e 5a01 b6bd
00000010: f379 263d 9a2e 10be 102b 4b3d 54c2 52be
00000020: a9dc 1ebe 4fac d9bd fcb8 62be e13c 90be
00000030: 4216 ddbd 90a5 483e eb77 9dbd 796f 813d
00000040: c3e8 1bbd 5283 a73e d36e 22be 00fd 6e3c
00000050: a2b8 86bd b552 2bbe 0fa6 27be 4289 773d
00000060: 1d01 8a3d 8805 0fbe 60cd 1ebe 316b 0b3e
00000070: 2e07 2b3d ab7f 9b3e

gat2.gat.att_dst f4 [1, 1, 30]
-0.3002437 -0.10640869 -0.37925556 0.013759893 0.3447607 0.22373629 0.07003659 -0.35662588
0.053771436 0.24246736 0.02210807 -0.045387633 0.13434812 0.34290636 -0.2994982 -0.11607641
-0.005766964 0.25999576 0.33215597 0.27477524 -0.31001312 -0.34437913 0.13765804 -0.1279171
-0.10352465 0.35470614 0.16528134 -0.043404486 0.21682294 0.18679678
00000000: 8bb9 99be cdec d9bd c92d c2be 2d71 613c
00000010: 7984 b03e 201b 653e 586f 8f3d ab97 b6be
00000020: 703f 5c3d 5d49 783e fc1b b53c 62e8 39bd
00000030: 8e92 093e 6c91 af3e d457 99be 78b9 edbd
00000040: cdf8 bcbb 2a1e 853e 5910 aa3e 57af 8c3e
00000050: 0aba 9ebe 7652 b0be 3bf6 0c3e b3fc 02be
00000060: bb04 d4bd 0b9c b53e 833f 293e e7c8 31bd
00000070: d506 5e3e a847 3f3e

gat2.gat.bias f4 [30]
0.037110377 -0.030088838 -0.025552489 0.005143271 -0.005977809 0.07443248 -0.005361944 0.0008589671
0.017036557 -0.004631624 -0.01362381 0.020992097 -0.029531488 -0.03914905 0.049945008 -0.004060043
0.024551826 0.0028967634 -0.01046297 -0.010430504 -0.005720928 -0.0020653242 0.034653295 0.009921529
-0.0036137374 0.008435378 -0.01697139 0.11677096 0.02489677 -0.03697724
00000000: 0d01 183d de7c f6bc 7453 d1bc e288 a83b
00000010: 7fe1 c3bb 0e70 983d 3fb3 afbb 4e2c 613a
00000020: 4090 8b3c e1c4 97bb 6736 5fbc 9ef7 ab3c
00000030: 05ec f1bc c15a 20bd 2393 4c3d 1c0a 85bb
00000040: e920 c93c a0d7 3d3b e06c 2bbc b4e4 2abc
00000050: 9f76 bbbb 645a 07bb 9df0 0d3d e98d 223c
00000060: 74d4 6cbb 8a34 0a3c 9607 8bbc 9d25 ef3d
00000070: 50f4 cb3c 7275 17bd

gat2.gat.lin_src.weight f4 [30, 30]
0.20919931 0.076833606 -0.21057734 -0.0013746419 0.16761993 -0.21336667 -0.14940593 0.043303307
-0.15580387 0.03653266 0.1649381 -0.24240592 0.16755149 -0.1755559 0.2080257 -0.115692385
-0.101203255 0.1277916 0.20421733 0.2618778 -0.028864024 -0.11865316 0.1563057 0.2676519
0.06049701 0.2147672 -0.086656705 0.25985882 -0.12900358 0.22965054 0.049523145 -0.10016179
0.09237691 0.20849869 -0.0101611465 0.15543099 0.21510087 0.22530185 0.0774922 0.06847005
-0.10403717 -0.19713701 -0.19578317 0.029510448 0.23548117 -0.18392 0.063949175 0.023248198
-0.20338643 0.11884116 0.16714795 0.24624455 0.1070482 -0.19801413 -0.05567612 -0.24727495
0.061260134 0.23489521 -0.04465092 0.21329929 0.09223312 0.17513059 0.20190606 -0.076455586
-0.04468196 -0.028181972 -0.16407512 0.045540687 0.024792874 -0.047162764 -0.2749209 -0.26310435
-0.15283926 -0.098801725 0.12069301 0.03430351 0.035903495 -0.2317654 -0.12469101 -0.21186638
-0.042925622 -0.27026957 0.21854174 -0.14494225 -0.11540842 -0.12766488 0.15323393 0.02058336
0.19810627 0.04559063 0.070926026 0.15869536 0.2001601 0.18587267 0.1375509 -0.19627929
0.108806364 -0.16315308 -0.19429405 -0.04805925 0.03463663 0.26920012 0.0024142158 -0.16375344
0.25792614 -0.021289168 0.19144735 0.13458443 -0.20739718 0.13539998 -0.15878257 0.13776791
-0.17811717 -0.18941726 0.0974226 0.21381001 -0.11934297 0.20921955 0.015286122 0.097706124
0.11098438 0.24323538 -0.26328674 0.107139945 0.08828638 -0.19272545 -0.0951833 -0.23021351
0.16686763 0.18552008 -0.17963138 -0.24711561 -0.15917362 0.025862657 0.012047239 -0.1379111
0.14393264 0.020545518 -0.19310017 -0.092801854 0.062055025 -0.09456629 -0.026126897 0.13203564
0.24085239 0.023689507 -0.030424522 0.21024151 -0.14451575 0.24162522 -0.0052549494 0.05580091
0.10543177 -0.03867086 0.06539029 0.07518926 -0.2606448 0.15899965 0.14915136 -0.028133111
0.26139376 -0.15706435 -0.11944804 0.027737128 0.25756544 -0.02950805 0.1650303 0.05034445
0.22097172 -0.18647355 0.042383917 0.06558327 0.2713652 0.05654554 -0.21017699 -0.051255647
0.25823218 0.20033476 0.27302143 -0.016782353 -0.11524901 0.10658804 -0.15720636 -0.15611087
0.1311106 0.037734557 0.19893134 0.09023322 -0.28158495 -0.13429564 -0.078615814 0.13652036
0.1691855 -0.07981514 0.22572713 -0.21914463 0.16939372 0.13296643 0.22160065 -0.029537698
0.26652664 0.08305016 -0.19111367 0.00034438772 0.00056274584 0.04414763 0.066256896 0.06976566
-0.19002673 0.15454459 -0.15960073 0.2359875 0.056019925 -0.10991177 -0.10548392 -0.132785
0.11597153 -0.09201682 -0.06702005 0.12667358 0.04489378 0.021558799 -0.15431587 0.18395257
0.040047023 -0.07669254 0.13759646 0.2713616 -0.16007183 -0.08222201 0.15048395 0.20949067
-0.022867387 -0.124354 0.22807856 0.076213986 -0.24968201 -0.21207148 -0.11947921 0.21697024
-0.23709965 -0.041082818 -0.2662698 -0.123769864 0.034180894 0.13426343 0.14737555 -0.04170951
-0.12544158 0.1247365 -0.03234346 -0.21113987 -0.23046912 -0.21395911 -0.028907068 0.03193803
00000000: 5838 563e f05a 9d3d 96a1 57be 542d b4ba
00000010: 8fa4 2b3e cb7c 5abe defd 18be cf5e 313d
00000020: 0d8b 1fbe 45a3 153d 89e5 283e 4239 78be
00000030: 9e92 2b3e edc4 33be b004 553e 21f0 ecbd
00000040: a743 cfbd cddb 023e 591e 513e d914 863e
00000050: 3f74 ecbc 6e00 f3bd 9a0e 203e ab09 893e
00000060: b6cb 773d efeb 5b3e 1279 b1bd 370c 853e
00000070: 8419 04be 8329 6b3e c8d8 4a3d a021 cdbd
00000080: 1b30 bd3d ae80 553e f07a 26bc 4d29 1f3e
00000090: 6743 5c3e 87b5 663e 3bb4 9e3d 073a 8c3d
000000a0: 7111 d5bd 49de 49be 627b 48be e5bf f13c
000000b0: fa21 713e 8655 3cbe c9f7 823d 0173 be3c
000000c0: 8844 50be fe62 f33d d528 2b3e 8827 7c3e
000000d0: 163c db3d 37c4 4abe a50c 64bd a535 7dbe
000000e0: e8eb 7a3d 5f88 703e e2e3 36bd 216b 5a3e
000000f0: b8e4 bc3d 6f55 333e 76c0 4e3e bf94 9cbd
00000100: 6e04 37bd e1dd e6bc 4f03 28be df88 3a3d
00000110: 6d1a cb3c be2d 41bd 6fc2 8cbe 9db5 86be
00000120: e581 1cbe 8f58 cabd e62d f73d d681 0c3d
00000130: 8b0f 133d e953 6dbe 005e ffbd 80f3 58be
00000140: c7d2 2fbd c660 8abe 68c9 5f3e be6b 14be
00000150: 405b ecbd 95ba 02be 5be9 1c3e 6f9e a83c
00000160: 5fdc 4a3e 3ebd 3a3d aa41 913d 0981 223e
00000170: c5f6 4c3e 6855 3e3e 25da 0c3e 70fd 48be
00000180: dfd5 de3d 9a11 27be 05f5 46be c7d9 44bd
00000190: 24df 0d3d 99d4 893e d237 1e3b fbae 27be
000001a0: e50e 843e 9f66 aebc c60a 443e 80d0 093e
000001b0: ed5f 54be 4ba6 0a3e e697 22be 0813 0d3e
000001c0: 5964 36be 99f6 41be 8085 c73d 03f1 5a3e
000001d0: 166a f4bd a63d 563e a572 7a3c 261a c83d
000001e0: c74b e33d b212 793e 85cd 86be 306c db3d
000001f0: 7dcf b43d d259 45be 76ef c2bd 17bd 6bbe
00000200: 59df 2a3e faf8 3d3e 4af1 37be e00b 7dbe
00000210: 69fe 22be ecdd d33c c861 453c 9138 0dbe
00000220: 1463 133e 134f a83c 0dbc 45be e60e bebd
00000230: 692d 7e3d f9ab c1bd 1308 d6bc 5a34 073e
00000240: 02a2 763e 7f10 c23c d93c f9bc 8d49 573e
00000250: f0fb 13be 9a6c 773e b631 acbb 7f8f 643d
00000260: 9dec d73d 5665 1ebd 58eb 853d d4fc 993d
00000270: 3c73 85be ced0 223e 22bb 183e 6977 e6bc
00000280: 67d5 853e 7ad5 20be 2da1 f4bd f938 e33c
00000290: 9edf 833e deba f1bc b4fd 283e fb35 4e3d
000002a0: 6946 623e ecf2 3ebe c29a 2d3d 8550 863d
000002b0: 61f0 8a3e 4c9c 673d a338 57be 71f1 51bd
000002c0: 0237 843e 8e24 4d3e 77c9 8b3e 257b 89bc
000002d0: ac07 ecbd d54a da3d b4fa 20be 87db 1fbe
000002e0: db41 063e 8d8f 1a3d a8b4 4b3e 32cc b83d
000002f0: e72b 90be cc84 09be 5401 a1bd fecb 0b3e
00000300: f73e 2d3e 1f76 a3bd 0325 673e 7367 60be
00000310: 8c75 2d3e 5a28 083e 48eb 623e 0bf9 f1bc
00000320: 2e76 883e 3416 aa3d 4db3 43be f08e b439
00000330: 3c85 133a 25d4 343d b2b1 873d 4ce1 8e3d
00000340: 5e96 42be f040 1e3e 606e 23be b5a6 713e
00000350: 2675 653d 6c19 e1bd f407 d8bd cbf8 07be
00000360: 7b82 ed3d 5173 bcbd cf41 89bd b8b6 013e
00000370: 8ae2 373d 149c b03c fb04 1ebe 105e 3c3e
00000380: 5908 243d fa10 9dbd 16e6 0c3e e8ef 8a3e
00000390: dfe9 23be 0364 a8bd 7718 1a3e b984 563e
000003a0: 6354 bbbc 4fad febd 6d8d 693e 1416 9c3d
000003b0: a4ac 7fbe 4429 59be 84b1 f4bd 722d 5e3e
000003c0: 40ca 72be 7546 28bd 8454 88be 0e7b fdbd
000003d0: 4401 0c3d 5a7c 093e 9ee9 163e 97d7 2abd
000003e0: c273 00be da75 ff3d 937a 04bd 0d35 58be
000003f0: 1900 6cbe 1918 5bbe 84ce ecbc 74d1 023d

gat2.gat.lin_dst.weight f4 [30, 30]
0.20919931 0.076833606 -0.21057734 -0.0013746419 0.16761993 -0.21336667 -0.14940593 0.043303307
-0.15580387 0.03653266 0.1649381 -0.24240592 0.16755149 -0.1755559 0.2080257 -0.115692385
-0.101203255 0.1277916 0.20421733 0.2618778 -0.028864024 -0.11865316 0.1563057 0.2676519
0.06049701 0.2147672 -0.086656705 0.25985882 -0.12900358 0.22965054 0.049523145 -0.10016179
0.09237691 0.20849869 -0.0101611465 0.15543099 0.21510087 0.22530185 0.0774922 0.06847005
-0.10403717 -0.19713701 -0.19578317 0.029510448 0.23548117 -0.18392 0.063949175 0.023248198
-0.20338643 0.11884116 0.16714795 0.24624455 0.1070482 -0.19801413 -0.05567612 -0.24727495
0.061260134 0.23489521 -0.04465092 0.21329929 0.09223312 0.17513059 0.20190606 -0.076455586
-0.04468196 -0.028181972 -0.16407512 0.045540687 0.024792874 -0.047162764 -0.2749209 -0.26310435
-0.15283926 -0.098801725 0.12069301 0.03430351 0.035903495 -0.2317654 -0.12469101 -0.21186638
-0.042925622 -0.27026957 0.21854174 -0.14494225 -0.11540842 -0.12766488 0.15323393 0.02058336
0.19810627 0.04559063 0.070926026 0.15869536 0.2001601 0.18587267 0.1375509 -0.19627929
0.108806364 -0.16315308 -0.19429405 -0.04805925 0.03463663 0.26920012 0.0024142158 -0.16375344
0.25792614 -0.021289168 0.19144735 0.13458443 -0.20739718 0.13539998 -0.15878257 0.13776791
-0.17811717 -0.18941726 0.0974226 0.21381001 -0.11934297 0.20921955 0.015286122 0.097706124
0.11098438 0.24323538 -0.26328674 0.107139945 0.08828638 -0.19272545 -0.0951833 -0.23021351
0.16686763 0.18552008 -0.17963138 -0.24711561 -0.15917362 0.025862657 0.012047239 -0.1379111
0.14393264 0.020545518 -0.19310017 -0.092801854 0.062055025 -0.09456629 -0.026126897 0.13203564
0.24085239 0.023689507 -0.030424522 0.21024151 -0.14451575 0.24162522 -0.0052549494 0.05580091
0.10543177 -0.03867086 0.06539029 0.07518926 -0.2606448 0.15899965 0.14915136 -0.028133111
0.26139376 -0.15706435 -0.11944804 0.027737128 0.25756544 -0.02950805 0.1650303 0.05034445
0.22097172 -0.18647355 0.042383917 0.06558327 0.2713652 0.05654554 -0.21017699 -0.051255647
0.25823218 0.20033476 0.27302143 -0.016782353 -0.11524901 0.10658804 -0.15720636 -0.15611087
0.1311106 0.037734557 0.19893134 0.09023322 -0.28158495 -0.13429564 -0.078615814 0.13652036
0.1691855 -0.07981514 0.22572713 -0.21914463 0.16939372 0.13296643 0.22160065 -0.029537698
0.26652664 0.08305016 -0.19111367 0.00034438772 0.00056274584 0.04414763 0.066256896 0.06976566
-0.19002673 0.15454459 -0.15960073 0.2359875 0.056019925 -0.10991177 -0.10548392 -0.132785
0.11597153 -0.09201682 -0.06702005 0.12667358 0.04489378 0.021558799 -0.15431587 0.18395257
0.040047023 -0.07669254 0.13759646 0.2713616 -0.16007183 -0.08222201 0.15048395 0.20949067
-0.022867387 -0.124354 0.22807856 0.076213986 -0.24968201 -0.21207148 -0.11947921 0.21697024
-0.23709965 -0.041082818 -0.2662698 -0.123769864 0.034180894 0.13426343 0.14737555 -0.04170951
-0.12544158 0.1247365 -0.03234346 -0.21113987 -0.23046912 -0.21395911 -0.028907068 0.03193803
00000000: 5838 563e f05a 9d3d 96a1 57be 542d b4ba
00000010: 8fa4 2b3e cb7c 5abe defd 18be cf5e 313d
00000020: 0d8b 1fbe 45a3 153d 89e5 283e 4239 78be
00000030: 9e92 2b3e edc4 33be b004 553e 21f0 ecbd
00000040: a743 cfbd cddb 023e 591e 513e d914 863e
00000050: 3f74 ecbc 6e00 f3bd 9a0e 203e ab09 893e
00000060: b6cb 773d efeb 5b3e 1279 b1bd 370c 853e
00000070: 8419 04be 8329 6b3e c8d8 4a3d a021 cdbd
00000080: 1b30 bd3d ae80 553e f07a 26bc 4d29 1f3e
00000090: 6743 5c3e 87b5 663e 3bb4 9e3d 073a 8c3d
000000a0: 7111 d5bd 49de 49be 627b 48be e5bf f13c
000000b0: fa21 713e 8655 3cbe c9f7 823d 0173 be3c
000000c0: 8844 50be fe62 f33d d528 2b3e 8827 7c3e
000000d0: 163c db3d 37c4 4abe a50c 64bd a535 7dbe
000000e0: e8eb 7a3d 5f88 703e e2e3 36bd 216b 5a3e
000000f0: b8e4 bc3d 6f55 333e 76c0 4e3e bf94 9cbd
00000100: 6e04 37bd e1dd e6bc 4f03 28be df88 3a3d
00000110: 6d1a cb3c be2d 41bd 6fc2 8cbe 9db5 86be
00000120: e581 1cbe 8f58 cabd e62d f73d d681 0c3d
00000130: 8b0f 133d e953 6dbe 005e ffbd 80f3 58be
00000140: c7d2 2fbd c660 8abe 68c9 5f3e be6b 14be
00000150: 405b ecbd 95ba 02be 5be9 1c3e 6f9e a83c
00000160: 5fdc 4a3e 3ebd 3a3d aa41 913d 0981 223e
00000170: c5f6 4c3e 6855 3e3e 25da 0c3e 70fd 48be
00000180: dfd5 de3d 9a11 27be 05f5 46be c7d9 44bd
00000190: 24df 0d3d 99d4 893e d237 1e3b fbae 27be
000001a0: e50e 843e 9f66 aebc c60a 443e 80d0 093e
000001b0: ed5f 54be 4ba6 0a3e e697 22be 0813 0d3e
000001c0: 5964 36be 99f6 41be 8085 c73d 03f1 5a3e
000001d0: 166a f4bd a63d 563e a572 7a3c 261a c83d
000001e0: c74b e33d b212 793e 85cd 86be 306c db3d
000001f0: 7dcf b43d d259 45be 76ef c2bd 17bd 6bbe
00000200: 59df 2a3e faf8 3d3e 4af1 37be e00b 7dbe
00000210: 69fe 22be ecdd d33c c861 453c 9138 0dbe
00000220: 1463 133e 134f a83c 0dbc 45be e60e bebd
00000230: 692d 7e3d f9ab c1bd 1308 d6bc 5a34 073e
00000240: 02a2 763e 7f10 c23c d93c f9bc 8d49 573e
00000250: f0fb 13be 9a6c 773e b631 acbb 7f8f 643d
00000260: 9dec d73d 5665 1ebd 58eb 853d d4fc 993d
00000270: 3c73 85be ced0 223e 22bb 183e 6977 e6bc
00000280: 67d5 853e 7ad5 20be 2da1 f4bd f938 e33c
00000290: 9edf 833e deba f1bc b4fd 283e fb35 4e3d
000002a0: 6946 623e ecf2 3ebe c29a 2d3d 8550 863d
000002b0: 61f0 8a3e 4c9c 673d a338 57be 71f1 51bd
000002c0: 0237 843e 8e24 4d3e 77c9 8b3e 257b 89bc
000002d0: ac07 ecbd d54a da3d b4fa 20be 87db 1fbe
000002e0: db41 063e 8d8f 1a3d a8b4 4b3e 32cc b83d
000002f0: e72b 90be cc84 09be 5401 a1bd fecb 0b3e
00000300: f73e 2d3e 1f76 a3bd 0325 673e 7367 60be
00000310: 8c75 2d3e 5a28 083e 48eb 623e 0bf9 f1bc
00000320: 2e76 883e 3416 aa3d 4db3 43be f08e b439
00000330: 3c85 133a 25d4 343d b2b1 873d 4ce1 8e3d
00000340: 5e96 42be f040 1e3e 606e 23be b5a6 713e
00000350: 2675 653d 6c19 e1bd f407 d8bd cbf8 07be
00000360: 7b82 ed3d 5173 bcbd cf41 89bd b8b6 013e
00000370: 8ae2 373d 149c b03c fb04 1ebe 105e 3c3e
00000380: 5908 243d fa10 9dbd 16e6 0c3e e8ef 8a3e
00000390: dfe9 23be 0364 a8bd 7718 1a3e b984 563e
000003a0: 6354 bbbc 4fad febd 6d8d 693e 1416 9c3d
000003b0: a4ac 7fbe 4429 59be 84b1 f4bd 722d 5e3e
000003c0: 40ca 72be 7546 28bd 8454 88be 0e7b fdbd
000003d0: 4401 0c3d 5a7c 093e 9ee9 163e 97d7 2abd
000003e0: c273 00be da75 ff3d 937a 04bd 0d35 58be
000003f0: 1900 6cbe 1918 5bbe 84ce ecbc 74d1 023d

gru1.weight_ih_l0 f4 [90, 16]
-0.07961279 -0.10123749 -0.1628724 0.15329783 -0.09260071 -0.026024709 0.14268553 -0.1570518
-0.120878465 -0.06279992 0.071524955 0.12695858 0.16628534 0.03410919 0.025746187 -0.018085917
0.12802689 0.1070952 -0.021399982 0.13418515 -0.0016146023 0.113441914 -0.13998294 0.16816875
0.12272695 0.1315553 0.10386884 0.04857399 -0.038155563 -0.018912317 -0.1601632 0.030176098
-0.112480074 -0.13420208 0.1670984 -0.05133223 -0.10999139 0.16895688 -0.045340452 0.17149954
-0.09017392 -0.06644594 -0.086161174 0.15910296 -0.115350686 0.01941893 0.11509245 -0.09470362
0.048973955 0.17045581 0.18102886 -0.09833937 0.1748694 0.15870632 0.01980636 -0.16024134
-0.07893017 -0.14589234 0.051263563 -0.16827531 0.010870734 0.105322175 0.15561908 -0.06327835
-0.0007741211 0.1575155 -0.0993756 0.17545752 0.12414221 0.061502647 -0.018006152 -0.0412936
-0.17424174 0.063607365 -0.028146684 0.05097851 0.083447 -0.15132 -0.11057219 0.110389896
-0.087240756 0.16985607 -0.109969795 0.08792897 0.029520528 -0.011030268 0.13550465 -0.0012586868
-0.0041805543 0.026454143 0.14795497 0.17814533 0.043389566 0.015806627 -0.08500134 -0.0940869
-0.14166209 -0.011655956 0.14348763 0.17390354 0.18251453 -0.025218548 -0.027486632 -0.13798402
0.16320927 0.069784574 0.037510987 0.036155622 -0.10704962 -0.06286657 0.15172759 0.16338097
-0.10977091 -0.03746415 0.09284145 0.07612922 -0.005406137 -0.1634363 0.07999748 -0.176101
0.08127786 0.17889635 0.0502928 -0.08464575 -0.09517563 -0.11945837 0.066054635 0.12576382
-0.03721392 0.14987914 0.103640445 0.17939545 0.18234217 -0.015584149 -0.13307285 0.07271208
0.101919025 0.14836934 -0.07005524 0.1653622 0.07915869 -0.15516607 0.06842455 -0.047038674
-0.0062147332 -0.0644823 -0.007421055 -0.17528537 0.051032837 -0.17103735 0.13496608 0.0044950955
0.02188653 -0.120783806 0.084611975 0.15706223 -0.13785455 0.10299382 0.06826626 -0.14685638
-0.005322714 -0.09948185 0.11140828 -0.0015914666 0.17097102 0.16763884 -0.08126002 0.16858293
0.17283556 -0.028999638 0.12433639 0.15131265 0.014886988 0.010360617 0.15554845 -0.11568172
0.13090721 -0.11707696 0.010667018 0.13783562 -0.0805513 -0.123587295 0.08507706 -0.17943476
-0.15184405 -0.033953052 -0.15918766 -0.13932593 0.13432312 -0.06492403 0.0113237845 0.16328096
-0.1438179 -0.06665629 0.1777794 0.062036704 0.06447435 0.17681462 0.056263074 0.008447079
0.14522634 -0.06774765 -0.07003787 -0.0596376 0.060402013 0.15440424 0.10663845 -0.050538607
-0.11050296 0.035381414 -0.0980144 0.06271639 0.119108856 0.09574053 -0.10595818 -0.08891273
-0.04669323 -0.10762556 -0.15493461 0.1679211 -0.16216558 0.0062476415 -0.03201331 -0.1118425
0.0740513 0.0098999925 -0.16626742 0.00492303 -0.067689545 -0.03543576 0.13523011 -0.068181664
-0.119743004 -0.05588696 0.1293175 0.08898824 -0.06717248 -0.08427393 0.05038151 0.06544081
0.012976366 0.029602537 -0.005143287 -0.10243347 -0.17977013 -0.17920361 0.0062366505 0.14116815
0.14701602 -0.07264328 -0.10348379 0.022942415 -0.15840755 0.1808526 -0.07418817 -0.009055028
00000000: 080c a3bd 9a55 cfbd 06c8 26be 1bfa 1c3e
00000010: 71a5 bdbd c531 d5bc 281c 123e 30d2 20be
00000020: 218f f7bd 3f9d 80bd ad7b 923d 6e01 023e
00000030: b446 2a3e 14b6 0b3d abe9 d23c eb28 94bc
00000040: 7b19 033e ba54 db3d 044f afbc d567 093e
00000050: 10a1 d3ba 3c54 e83d b057 0fbe 6e34 2c3e
00000060: 4458 fb3d 6fb6 063e 30b9 d43d 85f5 463d
00000070: 0249 1cbd 01ee 9abc d201 24be dd33 f73c
00000080: f45b e6bd 456c 09be d81b 2b3e bf41 52bd
00000090: 2a43 e1bd 0803 2d3e e9b6 39bd 939d 2f3e
000000a0: 1bad b8bd cf14 88bd 4575 b0bd e3eb 223e
000000b0: fb3c ecbd 7314 9f3c 97b5 eb3d f9f3 c1bd
000000c0: ea98 483d f88b 2e3e a15f 393e 2766 c9bd
000000d0: f710 333e e983 223e f340 a23c 4e16 24be
000000e0: 24a6 a1bd cd64 15be bef9 513d 5d50 2cbe
000000f0: 2a1b 323c 27b3 d73d 9c5a 1f3e 1498 81bd
00000100: 63ee 4aba be4b 213e 6f85 cbbd 23ab 333e
00000110: 453e fe3d 33ea 7b3d a381 93bc 7a23 29bd
00000120: 6d6c 32be 9444 823d e093 e6bc d8ce 503d
00000130: 43e6 aa3d a1f3 1abe ac73 e2bd 1914 e23d
00000140: 48ab b2bd c0ee 2d3e d837 e1bd 1b14 b43d
00000150: 09d5 f13c 4cb8 34bc bbc1 0a3e 85fa a4ba
00000160: 08fd 88bb 5cb6 d83c 8281 173e bb6b 363e
00000170: 42b9 313d e67c 813c 2f15 aebd a2b0 c0bd
00000180: de0f 11be 9ff8 3ebc 6cee 123e c513 323e
00000190: 17e5 3a3e 2197 cebc a52b e1bc af4b 0dbe
000001a0: 5520 273e 37eb 8e3d 1fa5 193d eb17 143d
000001b0: d53c dbbd 30c0 80bd 7a5e 1b3e 574d 273e
000001c0: 92cf e0bd 0274 19bd a823 be3d a3e9 9b3d
000001d0: f725 b1bb d85b 27be b8d5 a33d d253 34be
000001e0: 0275 a63d 9b30 373e d3ff 4d3d c05a adbd
000001f0: 71eb c2bd 97a6 f4bd a747 873d 3bc8 003e
00000200: a06d 18bd eb79 193e 7141 d43d 71b3 373e
00000210: e8b7 3a3e a954 7fbc 4044 08be 12ea 943d
00000220: ecba d03d 22ee 173e 1f79 8fbd b554 293e
00000230: f41d a23d dbe3 1ebe 2c22 8c3d a0ab 40bd
00000240: f6a4 cbbb 4c0f 84bd 522c f3bb 027e 33be
00000250: cf07 513d 6a24 2fbe 8c34 0a3e 984b 933b
00000260: 614b b33c 805d f7bd 0b49 ad3d ecd4 203e
00000270: be29 0dbe 6dee d23d 2ecf 8b3d 8561 16be
00000280: 296a aebb 24bd cbbd 062a e43d c298 d0ba
00000290: 0713 2f3e 84a9 2b3e a76b a6bd 01a1 2c3e
000002a0: cefb 303e a690 edbc 14a4 fe3d b4f1 1a3e
000002b0: 8ee8 733c 94bf 293c 1848 1f3e 8aea ecbd
000002c0: 8a0c 063e 0cc6 efbd b7c4 2e3c c824 0d3e
000002d0: 14f8 a4bd 561b fdbd e23c ae3d bfbd 37be
000002e0: 027d 1bbe 5b12 0bbd 1702 23be 75ab 0ebe
000002f0: 008c 093e e4f6 84bd 6587 393c 2033 273e
00000300: 0045 13be 1883 88bd ce0b 363e 331a 7e3d
00000310: 210b 843d e40e 353e 1c74 663d 9e65 0a3c
00000320: 37b6 143e 48bf 8abd 0470 8fbd 8e46 74bd
00000330: 1a68 773d 251c 1e3e 4265 da3d 9201 4fbd
00000340: 604f e2bd 1aec 103d c6bb c8bd 7371 803d
00000350: 58ef f33d 9c13 c43d 9a00 d9bd e117 b6bd
00000360: 6641 3fbd ca6a dcbd 2ea7 1ebe 82f3 2b3e
00000370: bc0e 26be 04b9 cc3b 6320 03bd ae0d e5bd
00000380: 35a8 973d 9433 223c 0242 2abe 5e51 a13b
00000390: d1a0 8abd 1625 11bd c379 0a3e d4a2 8bbd
000003a0: d23b f5bd bae9 64bd cf6b 043e 773f b63d
000003b0: ba91 89bd cf97 acbd d85c 4e3d d505 863d
000003c0: d39a 543c 0581 f23c 0589 a8bb a4c8 d1bd
000003d0: a915 38be 2781 37be d15c cc3b 628e 103e
000003e0: 5e8b 163e 00c6 94bd 4fef d3bd bbf1 bb3c
000003f0: 9735 22be 6d31 393e f8ef 97bd 8a5b 14bc

gru1.weight_hh_l0 f4 [90, 30]
0.076956555 -0.09176225 -0.014488849 -0.103938885 0.08404324 0.16410032 0.17472588 0.18009211
-0.09146082 -0.026518807 0.14355505 -0.15346362 0.16134018 0.05978747 -0.115901455 -0.053633917
0.15156505 -0.15480942 0.063302726 0.018640827 0.15412097 0.013456318 0.13659063 -0.07411117
-0.1608128 -0.09308913 0.04526336 -0.1021015 0.018070227 0.13640678 -0.12764068 0.015267454
-0.10057953 0.00064790854 -0.06410442 0.11029544 -0.16049969 -0.010698425 0.008578493 0.1259064
-0.009297223 -0.16059309 -0.03084144 -0.124457665 -0.17044528 0.07102672 -0.1758034 -0.1681473
0.17060558 -0.14783561 0.13516343 0.07197759 -0.017532816 0.15676603 -0.02430507 0.01152761
0.041326962 0.17806791 -0.0513526 -0.145485 0.055979654 -0.0016044383 0.14788705 -0.009116469
-0.026870804 -0.12551278 0.13166109 0.12257982 0.020255778 -0.044157986 -0.11186213 -0.17562392
-0.17188592 -0.13740769 0.17987734 -0.03551361 -0.0698636 0.000937834 -0.1666892 -0.16247861
0.084981404 0.070544526 -0.01582356 0.123597 0.08907771 -0.1456952 -0.16345716 0.071273856
0.12792264 0.039410118 0.12212229 -0.16819897 0.13513622 -0.0071307593 0.15781404 0.008180941
-0.13458486 0.1692817 0.03917271 0.06905988 -0.1377464 0.067622244 0.16379087 0.14347406
-0.075740814 -0.07643565 -0.08690138 0.08998137 -0.08724994 -0.076244555 -0.17667852 -0.009832675
-0.08671652 0.13766772 -0.17935564 -0.036279112 -0.06405234 0.17818175 0.10368876 0.16367926
-0.06396968 0.144337 -0.12905733 -0.04854709 -0.033330172 -0.10063829 0.079036005 -0.14753003
0.060131613 0.07223979 0.06752775 -0.17468077 0.007199383 -0.06731017 -0.10797718 0.18094905
0.11430575 0.05543219 0.0658371 -0.09401467 -0.16214755 -0.053880073 0.06239421 -0.10139232
-0.095465034 0.10158892 0.13925043 -0.117536016 0.055798247 -0.03434096 -0.07445705 0.1395679
-0.086543165 0.15125443 0.022168903 0.071248546 -0.055910464 -0.1638402 0.17552672 0.07284478
-0.08460843 0.13432686 -0.055202816 -0.043288972 0.15344892 -0.0035311223 0.14475876 -0.17305979
0.14498493 -0.05246512 -0.17400438 -0.038418066 0.0271885 -0.08442023 0.048595622 -0.060910456
0.16053367 0.01021079 -0.1119706 -0.046645716 0.10789099 -0.12615417 0.10336687 -0.10430803
-0.09752261 -0.10780548 -0.12938997 -0.13471556 -0.03505449 -0.08823351 -0.012660127 -0.10977861
0.045802906 0.128418 0.03078544 0.1120626 -0.020226069 0.08513234 -0.006797675 0.12953252
-0.08050735 0.112264365 0.021512048 0.10013305 0.0051961965 0.073218755 -0.13565347 -0.07657481
0.036167484 0.14136524 0.006751469 -0.112870246 -0.07228517 -0.05216381 -0.12547185 0.039562687
0.18166967 0.040037394 -0.16127469 -0.17991166 -0.07152474 0.08994052 -0.14423114 0.06159138
0.17871845 -0.16527855 0.055988993 0.14093822 0.07468003 0.16756457 -0.13943957 -0.06618331
-0.13839759 -0.17553613 0.018161703 0.060940336 -0.09664844 -0.04157334 0.005865434 -0.13439918
0.11077343 0.055834834 0.03595482 -0.11171816 0.17125142 0.15491237 0.050539546 -0.059972405
0.023739018 0.09309129 -0.08453588 -0.16274898 0.11763753 0.04649924 -0.080173835 -0.1481156
00000000: 669b 9d3d d9ed bbbd a362 6dbc e9dd d4bd
00000010: dd1e ac3d ea09 283e 57eb 323e 116a 383e
00000020: cf4f bbbd f83d d9bc 1800 133e 9125 1dbe
00000030: 5c36 253e b5e3 743d be5d edbd 3daf 5bbd
00000040: de33 1b3e 5c86 1ebe dca4 813d a6b4 983c
00000050: e3d1 1d3e e377 5c3c 6ade 0b3e 99c7 97bd
00000060: 1cac 24be 84a5 bebd 1366 393d 971a d1bd
00000070: 0308 943c 38ae 0b3e 3db4 02be 5824 7a3c
00000080: a4fc cdbd 68d8 293a 2e49 83bd 93e2 e13d
00000090: 085a 24be 7248 2fbc cf8c 0c3c 9bed 003e
000000a0: 6153 18bc 8472 24be 30a7 fcbc a9e3 febd
000000b0: 3589 2ebe 7576 913d ce05 34be ce2e 2cbe
000000c0: 3bb3 2e3e 3862 17be 4868 0a3e fd68 933d
000000d0: fba0 8fbc 4687 203e 6d1b c7bc 4dde 3c3c
000000e0: 7646 293d 6f57 363e 1b57 52bd 05fa 14be
000000f0: ec4a 653d 044c d2ba b46f 173e 3e5d 15bc
00000100: 2920 dcbc 6c86 00be 2ad2 063e 210b fb3d
00000110: 72ef a53c 01df 34bd f917 e5bd c2d6 33be
00000120: dd02 30be 9ab4 0cbe c431 383e b876 11bd
00000130: a614 8fbd f9d8 753a 93b0 2abe cb60 26be
00000140: bb0a ae3d a679 903d 69a0 81bc 6d20 fd3d
00000150: 606e b63d 1f31 15be 5061 27be 07f8 913d
00000160: 27fe 023e 816c 213d 401b fa3d 5a3c 2cbe
00000170: 2661 0a3e 25a9 e9bb 019a 213e 5b09 063c
00000180: 9dd0 09be 2f58 2d3e 9073 203d 446f 8d3d
00000190: 640d 0dbe 887d 8a3d cbb8 273e ddea 123e
000001a0: 001e 9bbd 4b8a 9cbd 5af9 b1bd 2748 b83d
000001b0: 19b0 b2bd 1b26 9cbd 37eb 34be 3a19 21bc
000001c0: 6e98 b1bd c4f8 0c3e 01a9 37be 6899 14bd
000001d0: e02d 83bd 4775 363e c65a d43d 899b 273e
000001e0: 8902 83bd 14cd 133e 9b27 04be 50d9 46bd
000001f0: 3885 08bd 731b cebd a1dd a13d 1d12 17be
00000200: 914c 763d 74f2 933d fd4b 8a3d 84df 32be
00000210: cde8 eb3b ead9 89bd 2423 ddbd b54a 393e
00000220: 2219 ea3d dd0c 633d 9ad5 863d c38a c0bd
00000230: 020a 26be 5ab1 5cbd 1291 7f3d c7a6 cfbd
00000240: 2c83 c3bd da0d d03d aa97 0e3e b9b6 f0bd
00000250: b48c 643d 1ba9 0cbd f07c 98bd e3ea 0e3e
00000260: 8b3d b1bd 71e2 1a3e 8f9b b53c c2ea 913d
00000270: 5f02 65bd bac5 27be 47bd 333e a52f 953d
00000280: 2f47 adbd fb8c 093e 591c 62bd c74f 31bd
00000290: b721 1d3e 676a 67bb a43b 143e 9636 31be
000002a0: ee76 143e aae5 56bd 342e 32be 435c 1dbd
000002b0: 6bba de3c 83e4 acbd 340c 473d 3e7d 79bd
000002c0: f062 243e 284b 273c d850 e5bd 940f 3fbd
000002d0: f4f5 dc3d 8f2e 01be 02b2 d33d 739f d5bd
000002e0: efb9 c7bd 1fc9 dcbd ce7e 04be e0f2 09be
000002f0: 4c95 0fbd c5b3 b4bd 6c6c 4fbc 9cd3 e0bd
00000300: d49b 3b3d 0280 033e bf31 fc3c 1481 e53d
00000310: 24b1 a5bc dd59 ae3d 08bf debb 2ca4 043e
00000320: 0ae1 a4bd dcea e53d 093a b03c 8e12 cd3d
00000330: db44 aa3b b7f3 953d bee8 0abe 41d3 9cbd
00000340: 5b24 143d 0dc2 103e 6d3b dd3b 8428 e7bd
00000350: 3f0a 94bd b8a9 55bd b17b 00be 7c0c 223d
00000360: 9d07 3a3e 40fe 233d 3125 25be c33a 38be
00000370: 907b 92bd bc32 b83d 54b1 13be 3e47 7c3d
00000380: f801 373e c83e 29be b754 653d 1c52 103e
00000390: d8f1 983d 0c96 2b3e 3fc9 0ebe 1d8b 87bd
000003a0: 19b8 0dbe bebf 33be dac7 943c 939c 793d
000003b0: 9eef c5bd ce48 2abd d432 c03b f09f 09be
000003c0: 2edd e23d 11b3 643d 5d45 133d 7ecc e4bd
000003d0: 885c 2f3e 59a1 1e3e 8e02 4f3d a0a5 75bd
000003e0: 5478 c23c a5a6 be3d 2621 adbd aba7 26be
000003f0: f2eb f03d fd75 3e3d 2e32 a4bd 9eab 17be

gru1.bias_ih_l0 f4 [90]
-0.118175566 0.113673314 -0.022168858 -0.12817577 -0.057358004 -0.09497237 0.17823038 0.17286208
0.027247919 -0.120182954 -0.033048123 0.06089485 0.110475495 -0.03592855 0.13531853 0.16179723
-0.027757645 0.07462455 -0.17161709 0.024050534 0.002341429 0.031415176 0.18012135 -0.005940979
0.12156861 -0.047752444 -0.034226414 0.11807258 0.10462347 0.01736525 -0.14541511 0.15095967
-0.1550041 -0.16366991 0.058788393 0.028630314 -0.15237641 -0.13888638 -0.008831941 0.14046533
0.08790541 -0.13379337 -0.16827345 -0.07592729 0.018394822 -0.046574786 0.00028618192 0.098420836
-0.04349188 -0.17964822 0.07084255 0.00756272 0.097962625 -0.13346085 -0.15199536 0.068793595
-0.043191075 0.023188788 -0.030494904 -0.032128334 -0.13714223 0.07738658 0.14153314 0.17086889
-0.03445897 0.075573966 -0.18169811 -0.11811911 0.1568093 -0.05004344 0.07950094 0.07043081
-0.12901206 -0.116504945 -0.09607625 0.13505323 0.12753402 0.0019216347 -0.13693479 -0.09536176
-0.075279556 0.17104769 0.17045683 -0.10982754 0.15482882 0.12011738 0.11868677 0.11947226
0.09165378 -0.06815988
00000000: 0806 f2bd 8ecd e83d 779b b5bc 8240 03be
00000010: 3af0 6abd e080 c2bd 0682 363e c202 313e
00000020: 0737 df3c 7b22 f6bd 785d 07bd e16c 793d
00000030: fa40 e23d d129 13bd f190 0a3e 2cae 253e
00000040: 0064 e3bc c2d4 983d 64bc 2fbe a005 c53c
00000050: a972 193b 33ad 003d bb71 383e 8bac c2bb
00000060: f7f8 f83d 1198 43bd ff30 0cbd 09d0 f13d
00000070: d444 d63d 9241 8e3c b3e7 14be 2c95 1a3e
00000080: 65b9 1ebe 1699 27be 19cc 703d 1f8a ea3c
00000090: 9008 1cbe 3b38 0ebe d8b3 10bc 25d6 0f3e
000000a0: c007 b43d 2101 09be e04f 2cbe c47f 9bbd
000000b0: bdb0 963c 34c5 3ebd b00a 9639 dd90 c93d
000000c0: 8b24 32bd b4f5 37be e615 913d b2d0 f73b
000000d0: a1a0 c83d f6a9 08be aca4 1bbe a8e3 8c3d
000000e0: 20e9 30bd 6af6 bd3c 73d0 f9bc 0099 03bd
000000f0: 036f 0cbe db7c 9e3d 10ee 103e 41f8 2e3e
00000100: d924 0dbd 86c6 9a3d 120f 3abe 6fe8 f1bd
00000110: 9e92 203e 5afa 4cbd 64d1 a23d 073e 903d
00000120: bd1b 04be 259a eebd a0c3 c4bd 654b 0a3e
00000130: 4798 023e 5cdf fb3a a238 0cbe 074d c3bd
00000140: 2b2c 9abd 2027 2f3e 3c8c 2e3e 43ed e0bd
00000150: 728b 1e3e 1a00 f63d 0d12 f33d dfad f43d
00000160: fab4 bb3d 6897 8bbd
