checkpoint/social-stgcnn-eth/val_best.pth (torch, 170225 bytes, 44 tensors)

fc1.weight f4 [32, 2]
000000 e6 be 0f 3f 90 7c 08 be 7e e7 41 3f 3f 3b d5 be
       0.5615066 -0.13328767 0.75743854 -0.41646764
000010 a8 fd 7a bb 23 df b0 3d ba ed 24 3e a8 cf bf 3e
       -0.0038298164 0.0863631 0.1610631 0.37463117
000020 ca b3 04 bd 35 4f 28 3e 50 f8 af 3d 83 55 55 bf
       -0.032398023 0.16436465 0.08592284 -0.83333606
000030 e0 ed 39 bf ca 93 65 3f 6a c5 02 3f 97 3e 48 bf
       -0.72628593 0.89678633 0.5108248 -0.78220505
000040 e5 21 19 3e 0f cb b0 be bb a6 c6 bd 2b 4c 06 be
       0.14954336 -0.3452992 -0.0969977 -0.13114993
000050 31 eb b2 be ff b3 7c be 2a 2d 9f be 84 7f 21 3f
       -0.34945062 -0.24678038 -0.31089145 0.630852
000060 60 be ac 3d ba cd 8e be 2d a9 17 3f 36 ef 36 3f
       0.08434749 -0.27891332 0.59242517 0.71458757
000070 d9 4c 8f be 9f d4 04 bf a3 6b c0 3e 69 da 25 3d
       -0.27988318 -0.51886934 0.3758212 0.040491495
000080 50 c4 21 3f 51 45 20 be bc aa 05 bf a9 cd 20 3f
       0.63190174 -0.15651442 -0.52213645 0.6281381
000090 6d 5d 2b bf 2f aa 0c bd 04 3c 88 3e b0 6c 22 bf
       -0.6693943 -0.034341987 0.26608288 -0.63447094
0000a0 48 a9 22 bf d1 53 24 3f 73 f8 ed be c8 29 cf be
       -0.6353955 0.64190394 -0.46478614 -0.40461564
0000b0 cf 57 cb 3c e3 04 a6 bd 27 3f e4 be 7c 1c 25 bf
       0.024822144 -0.08106401 -0.4457943 -0.6449659
0000c0 80 a4 59 bf a9 db c6 be 78 a2 d6 be b3 72 8f be
       -0.8501663 -0.38839462 -0.4192083 -0.28017196
0000d0 04 d6 c9 be 33 e8 67 bf 9e ae 7c bc 36 e7 ae 3e
       -0.39421093 -0.9058868 -0.015422491 0.34160775
0000e0 b0 30 58 3f 86 fa 1b be c2 65 4f 3e de 45 05 3f
       0.8444929 -0.15232286 0.20253661 0.52059734
0000f0 b3 8f 15 be d6 cf fc 3e c5 81 77 3e ad 9c 1e bf
       -0.14605598 0.49377316 0.24170597 -0.6195782

fc1.bias f4 [32]
000000 40 71 04 bf 15 1c fb 3c cb 52 97 be e1 c5 f9 3e
       -0.51735306 0.030653039 -0.29555354 0.48783782
000010 87 a2 dc bb 68 1a c8 3e 02 c8 ba be 26 25 12 3d
       -0.006733242 0.39082646 -0.3648072 0.03567996
000020 b3 50 e9 3e d4 a6 04 3f 7a 6c b1 3e db 7e 4d be
       0.4556938 0.5181706 0.34653074 -0.20067923
000030 e9 60 0d bf 59 e3 f5 3e 49 15 a5 be 5d 4c 23 bf
       -0.55226 0.48025015 -0.32242802 -0.63788396
000040 6b a7 4d be 08 1c c2 3e 16 61 b1 be 90 b0 1a bf
       -0.20083396 0.3791201 -0.34644383 -0.60425663
000050 52 64 71 be 55 7e 90 be 34 38 e3 bd 8c 12 5c bd
       -0.23573425 -0.28221384 -0.11094704 -0.053728625
000060 c8 6f 22 3f 99 a7 c0 3e 38 4d da 3e 4c 3a 21 bf
       0.63451815 0.37627867 0.42637038 -0.6297958
000070 7e 1f 21 3f ab e8 da be 77 83 23 bf 7a c5 00 bf
       0.6293868 -0.42755637 -0.63872474 -0.50301325

fc_seq.weight f4 [12, 8]
000000 b2 51 ae be c0 13 34 be 9b 68 b1 3d f6 34 8e be
       -0.34046704 -0.17585659 0.0866253 -0.2777478
000010 b4 56 cf bd 01 26 a5 be 89 43 c9 bd 38 f7 a4 be
       -0.10123959 -0.32255557 -0.098273344 -0.32219863
000020 88 e3 f9 bd d5 18 5e 3e a6 67 f6 3d d7 5b 7e 3e
       -0.12201601 0.2168916 0.12031488 0.24839722
000030 c8 38 c7 3b ae df 52 be af 0e f6 bd 3e a9 93 3e
       0.006079767 -0.2059314 -0.120145194 0.2884006
000040 20 fe 9b be 5f 42 52 3e 88 5f 66 3b d8 89 91 3e
       -0.3046732 0.20533131 0.0035152156 0.2842548
000050 6b a0 19 be 8a 96 91 bd 40 3a 88 3e 94 33 34 3e
       -0.15002601 -0.07108791 0.2660694 0.175978
000060 ca 66 36 be f5 88 31 3e d1 e8 99 3e 6a 26 89 3e
       -0.17812648 0.17337401 0.30060437 0.2678712
000070 b9 ee ad be 86 db 8b 3e 8d d3 ae 3e 5f fc 2a 3e
       -0.33971193 0.2731592 0.34145775 0.16697834
000080 f9 5d af be 4e f8 b1 bc 27 67 1f be 32 c6 92 3e
       -0.34251383 -0.021724846 -0.15566693 0.28666836
000090 ff cd 14 3e 70 e3 08 3e dd ca aa 3e ba b4 71 3e
       0.14531706 0.1336801 0.33357897 0.23604098
0000a0 6e 81 80 be 03 6b 0e 3e 22 32 5a be b2 be 6c 3e
       -0.25098747 0.13908009 -0.21308187 0.2311962
0000b0 51 ce 95 be 93 90 60 3e 4b 2a 35 3d 41 1d f9 3d
       -0.2925897 0.2193015 0.044229787 0.12163783
0000c0 4c e0 8f be 68 e8 a6 3d 38 f7 81 be ee b1 96 3e
       -0.28100812 0.08149797 -0.25383925 0.29432625
0000d0 56 d1 8b be 57 d8 ae be 3d fc 31 be 64 21 76 3e
       -0.27308148 -0.3414943 -0.17381378 0.24036175
0000e0 9b ef 42 3e 5e 53 a0 be 9c 4f 85 be 15 40 74 3e
       0.19036715 -0.31313604 -0.260373 0.2385257
0000f0 e3 dd 0d bc d8 d1 20 3e 08 a5 d9 bd e1 76 18 3c
       -0.008658859 0.15705049 -0.1062718 0.009305687
000100 89 8a 9d 3e bd 04 53 be 48 92 2d 3e e2 25 79 3e
       0.30769756 -0.20607276 0.16950333 0.24330857
000110 77 f8 21 3e 27 24 e7 3d 02 2c 26 be 53 d1 a4 3c
       0.15817438 0.112861924 -0.16227725 0.020119345
000120 c4 fe d9 bd 0e cd 6b be 6c da ae 3c fa b7 cb bd
       -0.10644296 -0.23027441 0.021344386 -0.099472
000130 0e 46 86 3e 92 01 b5 3d 65 98 67 3e f7 74 ae 3e
       0.26225322 0.0883819 0.22616728 0.34073612
000140 d6 3a 84 bd cf 7e 36 3e 93 c6 c4 3d ec 3d 01 3e
       -0.064565346 0.17821811 0.096081875 0.12621278
000150 07 a0 26 be 60 1e 6d 3e 4b 27 69 be 32 04 85 3e
       -0.16271983 0.23156118 -0.22768895 0.25979763
000160 ce 56 79 be 73 df c9 3d cb b5 82 bd 77 63 cd 3d
       -0.2434952 0.09857073 -0.063823305 0.10028737
000170 77 28 58 be 01 75 20 be bb 09 88 be 28 14 0c 3e
       -0.21109186 -0.15669633 -0.26569924 0.13679564

fc_seq.bias f4 [12]
000000 f2 b5 01 3e 4f 02 50 3e 2e 73 07 be 66 43 56 3e
       0.12667063 0.2031338 -0.13227531 0.20924148
000010 59 ea 31 be fa 9e 42 3e 10 35 81 3d e2 e4 67 3d
       -0.17374553 0.19005957 0.06308949 0.056614764
000020 e6 42 8e be 60 ce 37 bd be 06 8a 3e 8f c7 db bd
       -0.27785414 -0.04487455 0.2695827 -0.10731422

gat1.gat.att_src f4 [1, 2, 15]
000000 9d e7 af be b9 a2 9c 3e 12 ff e2 3e 29 6d b8 3e
       -0.34356394 0.30592898 0.44335228 0.36020783
000010 90 42 9c bd 85 0e 05 3c 0c d0 b5 3d 96 a4 d0 3e
       -0.07629883 0.0081211375 0.088775724 0.4075057
000020 22 38 96 be 86 c0 f5 3e 21 33 94 3c 09 61 06 bd
       -0.293397 0.47998446 0.018090786 -0.032807384
000030 20 2b 49 3e 46 0b a4 bd ab 42 5b 3e 81 4b 8a be
       0.19645357 -0.08009963 0.2141215 -0.2701073
000040 a5 f6 33 be fd 0d d5 3e 89 74 d7 be 1d 30 fa 3e
       -0.17574556 0.41612235 -0.42081097 0.48864833
000050 28 78 c5 3e 6f 6e 79 3d 80 b5 0e 3e 56 ca 53 be
       0.38568234 0.060896333 0.13936424 -0.20682654
000060 2b 84 f8 be 43 d1 d8 3e ec d4 f1 3e 18 cf 8f 3e
       -0.48538336 0.42347154 0.4723276 0.28087687
000070 39 35 f4 3e 11 cd 80 3e
       0.47696856 0.25156453

gat1.gat.att_dst f4 [1, 2, 15]
000000 53 59 da 3e 7c da c5 bd 84 cf b5 be 50 fa 40 3e
       0.42646274 -0.09660813 -0.35509884 0.18845487
000010 6c 32 1d 3e fd 4e ad be a0 33 8d 3e 83 e7 50 3e
       0.15351266 -0.33849326 0.2757845 0.20400815
000020 f3 d7 ca 3e 06 96 b1 3c 32 d5 df 3d 94 69 4a bd
       0.3961788 0.021677982 0.10929336 -0.049417093
000030 42 e2 a5 be 84 6f ea 3e 7b 5f c2 3e c1 19 eb be
       -0.32399184 0.45788205 0.3796347 -0.45918086
000040 19 6b 13 3e cd 7e c5 be a6 11 be be 0b bf 88 3c
       0.14396323 -0.38573304 -0.3712284 0.016692659
000050 90 97 ec bd 01 cb fc 3d 00 62 e3 3e 5a b1 aa be
       -0.11552346 0.123434074 0.44410706 -0.33338434
000060 90 57 fa 3c 58 04 33 3e 5e e3 4a be 22 c6 f5 be
       0.030559331 0.17482126 -0.19813296 -0.48002726
000070 45 e5 ea 3e 8d 46 2f be
       0.45878044 -0.17116757

gat1.gat.bias f4 [30]
000000 b3 0a 11 bd 73 fa 14 3b a5 c8 6a bd 2e a3 f4 3c
       -0.035410594 0.0022732287 -0.057320256 0.029862966
000010 5b 63 64 3d ca 0a 2f 3c 7f 33 71 3c 55 da 5d bb
       0.055758815 0.010683725 0.01472175 -0.003385206
000020 e5 d7 49 bc 95 2d 51 bc a6 be 8e bb 59 18 aa bd
       -0.01231954 -0.012767215 -0.004356223 -0.08305425
000030 ef 1c 31 ba 04 ad 00 3d 2d 26 cc bc 1e d0 ba 3c
       -0.00067563256 0.031415 -0.024920547 0.022804316
000040 80 e3 e6 3b c2 c0 98 bc 75 0b 53 3c 1f 3b 79 bb
       0.007046163 -0.018646602 0.01288115 -0.0038029624
000050 a9 a9 fc bc d9 de dc bb d7 32 23 3c 36 c5 ba bb
       -0.030842619 -0.0067404327 0.009960852 -0.005699779
000060 95 9c a7 3c 0f 56 6a 3b 16 1a de 3c e4 d5 10 bd
       0.020460406 0.0035756861 0.027112048 -0.035360232
000070 a5 25 9f 3b 4b 57 52 3b
       0.0048567825 0.0032095488

gat1.gat.lin_src.weight f4 [30, 30]
000000 d2 be 9f bc fa 49 79 3d bb 3c 1c be c3 79 8e 3e
       -0.01950017 0.060861565 -0.15257542 0.27827272
000010 50 6a db bd 6e 89 31 be 19 78 63 3e 7c 03 f8 bc
       -0.10713637 -0.17337582 0.22213782 -0.030275099
000020 7b 0a 0b be 73 9b 6f be 24 0a 73 bd 06 79 70 be
       -0.13578217 -0.23399143 -0.059335843 -0.23483667
000030 4d a7 b3 bd 9c 1b 3e 3e ef 59 48 3e ca ff 92 3e
       -0.087721445 0.1856522 0.19565557 0.28710777
000040 6e 73 3f 3e 76 37 a6 bd 70 f2 17 be c0 48 0e be
       0.18696377 -0.08116047 -0.14838576 -0.1389494
000050 04 5a 57 be bb 34 b8 3b 6f e7 80 3e a3 ac 30 bd
       -0.21030432 0.0056215203 0.2517657 -0.04313339
000060 79 1f 0d be 6a eb 53 3d 04 3d 48 be 53 c0 52 3e
       -0.13781537 0.05173818 -0.19554526 0.20581178
000070 63 4f 21 3d 7c 37 5d 3e 7a e5 2e 3e 4a 15 c6 3d
       0.03938235 0.21603197 0.17079726 0.09672029
000080 b5 07 0e be 9a 02 44 3d 31 5c 86 3e 9c 2f 13 be
       -0.13870127 0.047854044 0.2624221 -0.1437363
000090 62 39 6f be 42 28 5f be e5 d3 81 3e 1a 38 84 3e
       -0.23361734 -0.21792701 0.25356975 0.25824052
0000a0 c0 29 86 3e 75 58 18 3e 98 a9 76 3e 10 07 49 3e
       0.26203728 0.14877494 0.24088132 0.196316
0000b0 e5 f9 62 3e c5 21 68 3e b4 30 36 bc d7 fa 90 bd
       0.2216564 0.22669132 -0.01112001 -0.07079094
0000c0 e2 03 0a bd 83 e6 74 3e 8c 87 e7 3d ae 96 81 be
       -0.03369511 0.23916058 0.113051504 -0.25310272
0000d0 0c 85 51 3e 50 a0 03 be a6 80 f1 3d b9 2c 0b be
       0.2046091 -0.12854123 0.11792116 -0.13591279
0000e0 9e c6 6a 3e 34 ae 0b be 34 e3 8b 3e 91 8d 0d 3e
       0.22927329 -0.13640672 0.2732178 0.13823535
0000f0 df c6 0d be 27 a6 ef bb 70 a8 38 3e a9 f0 4a 3e
       -0.13845395 -0.007313508 0.18033004 0.19818367
000100 af 04 88 be fb 7b 11 3e b7 71 4e bc e7 1b 21 bd
       -0.26566073 0.14207451 -0.012600354 -0.03933325
000110 64 35 1f 3e 43 2c 4d 3e 66 1f 84 3e ac c9 81 3e
       0.1554771 0.20036416 0.25805205 0.25349176
000120 d4 f8 55 be f2 c9 fa bb ec d7 46 3d d9 32 82 3e
       -0.20895702 -0.0076534683 0.048545763 0.2542942
000130 1c 84 b6 3c be f3 53 be 5e e5 e6 bd 08 73 81 3e
       0.022279792 -0.20698449 -0.11274217 0.25283074
000140 94 89 05 3e d1 6a 5d be c1 65 e2 bd d3 0b 53 3e
       0.13040763 -0.21622778 -0.11054564 0.2060998
000150 3d e8 66 bd 28 bb 8e 3b 7c 9c 43 be 29 6f af 3d
       -0.056373823 0.004355807 -0.19102663 0.08566124
000160 5b dd 1c 3e f4 54 fa 3d 0b 54 48 3c 6c 29 b4 3d
       0.15318815 0.12223235 0.012227069 0.08796963
000170 d3 e3 48 be dd 2d 85 3e 11 8f 5b be 16 76 5d 3e
       -0.19618158 0.26011553 -0.21441294 0.21627077
000180 9f a9 bb bd d7 9f 72 be 9a 04 73 3e a3 8b 52 be
       -0.09163212 -0.23693787 0.23732224 -0.2056108
000190 bc af be 3d 23 5d 49 3e b8 da e9 3a a9 74 3c bd
       0.093108624 0.19664435 0.0017841673 -0.046009693
0001a0 2c 9d 14 bd c4 fe 82 be 71 9c 60 be 10 75 b5 bd
       -0.036282703 -0.25584996 -0.21934678 -0.088602185
0001b0 f9 f6 b7 3d 52 ff 77 3e 85 4d 68 be 83 88 14 3e
       0.08982653 0.2421849 -0.22685821 0.145052
0001c0 ea 79 98 bd 4f 6b 4f 3e 58 09 06 3e f3 40 b6 bd
       -0.07445128 0.20255779 0.13089502 -0.08899107
0001d0 5a 23 6d 3e f3 b1 f4 3d e3 82 6f be d4 c4 60 be
       0.23158017 0.119480036 -0.23389773 -0.21950084
0001e0 d8 1c cf 3d 16 5b 42 bd b2 2f 52 3e 6c 08 84 3d
       0.101129234 -0.047450148 0.20526007 0.06446919
0001f0 f6 aa 4a 3d cd 88 2f be a2 58 08 be 33 bf 9a 3e
       0.049479447 -0.17142029 -0.1331506 0.30223998
000200 d6 5d c5 bd 00 02 76 bd 57 cc 6b 3c d2 70 89 3d
       -0.096370384 -0.0600605 0.01439198 0.06710972
000210 ae df 19 3e 2a 2c 2f 3e ad 94 66 3e fb 76 49 3e
       0.15026733 0.17106691 0.22517653 0.19674294
000220 5e c8 91 bc 24 4d c3 3c 24 bf d3 3d 58 28 1f bd
       -0.017795738 0.023840494 0.103391916 -0.038856834
000230 e2 ea 28 3e b7 b7 b6 3d e9 f2 d6 bd 6f da 0e be
       0.1649585 0.089217596 -0.1049555 -0.13950513
000240 79 c6 ea bd 12 7c ee 3a c3 f0 20 3e ee 5f f5 3c
       -0.11463637 0.0018194935 0.15716843 0.02995297
000250 74 20 b7 bd fd b9 24 3e c1 76 7f be bb e3 51 3e
       -0.08941737 0.16086574 -0.24947645 0.20497029
000260 5c 1a 2e 3d be 86 fc 3d bd 50 38 3e 41 b6 79 bd
       0.042505607 0.123303875 0.17999549 -0.060964826
000270 76 9c 19 3e fd f7 ff bd bb db e7 bd f4 9e 6f be
       0.15001091 -0.12498472 -0.11321207 -0.2340048
000280 42 69 12 be 92 31 16 3e 9c f8 57 3e 3e a8 07 be
       -0.14297965 0.14667347 0.2109093 -0.13247773
000290 4c d3 68 be 64 af 7e bd 36 80 17 3e c7 ab 6f 3e
       -0.22736853 -0.062178984 0.14795002 0.23405372
0002a0 56 a9 72 bd 57 f5 95 bd b9 93 d5 3d 4d a3 88 3e
       -0.059243523 -0.073221855 0.104285665 0.2668709
0002b0 aa 83 19 3d 29 a1 2f 3b ed c1 52 bc e3 a4 4b be
       0.03747908 0.002679894 -0.012863618 -0.19887118
0002c0 6d 22 42 3e d9 6f 0a bd b3 c5 3d be 57 48 ee bd
       0.18958445 -0.033798072 -0.18532448 -0.116348915
0002d0 94 c0 83 bd c3 00 47 3e 36 ec 9a bc 1b b3 63 be
       -0.06433216 0.19433884 -0.018911462 -0.22236292
0002e0 4e 6c e8 38 7f 83 33 3e 3c f3 78 be ee 86 09 3e
       0.000110827954 0.1753063 -0.24311537 0.13430378
0002f0 54 73 72 bd 26 76 20 be d1 e6 d8 3d dd 41 6c 3d
       -0.059192017 -0.1567007 0.105909 0.05768
000300 af 4c 5c be cd 8c 83 be 19 9a 88 3e e4 e2 56 3e
       -0.21513627 -0.2569336 0.26680067 0.2098499
000310 1c 9f d1 3c a6 08 9c 3d 3d 0f 9a be 5c 69 cc bd
       0.025588565 0.07618837 -0.3008975 -0.09981033
000320 13 45 15 3d 5f 58 e2 3d 82 f0 2d bc 7c 56 5b 3e
       0.036442827 0.11052012 -0.010616424 0.2141971
000330 42 06 4c 3e 80 e0 03 be 06 a5 b2 bd 16 98 63 3e
       0.19924262 -0.12878609 -0.08722882 0.22225985
000340 20 65 53 3d 04 32 0f 3e cd 02 76 be 85 58 44 be
       0.051610112 0.13983923 -0.24024506 -0.19174393
000350 78 37 19 3d 04 d0 65 3d 3e 1d a7 3d 85 81 80 3e
       0.037406415 0.056106582 0.081598744 0.25098816
000360 3b c1 55 bb 2d 81 64 3d 10 9d 32 be b8 f5 c8 bd
       -0.0032616395 0.055787254 -0.17442727 -0.09812492
000370 6e a4 6b be 7a 35 7c 3e a0 2b 19 3e a4 e6 28 3d
       -0.23011944 0.24629775 0.14958048 0.04123558
000380 28 07 5d 3d f6 2b d0 3d 6c cc 35 3e 2b e1 29 3e
       0.053961903 0.10164635 0.17753762 0.16589801
000390 a0 9b 3d 3e 56 e3 82 be f4 d9 57 be 5f f7 2f bd
       0.18516397 -0.2556407 -0.21079236 -0.04296052
0003a0 d1 41 67 3e 0c a5 60 be 87 37 a8 bd d4 b4 5c bd
       0.225837 -0.2193796 -0.08213716 -0.05388339
0003b0 b4 49 99 be 10 e1 70 be 10 3f 02 3d 3a 68 02 3d
       -0.29939044 -0.23523355 0.031798422 0.03183768
0003c0 f1 b7 08 3e cb d1 67 3e ae 71 30 3e ec 56 6f 3e
       0.13351418 0.22638623 0.17230865 0.23373002
0003d0 dc ec 85 be d5 1f 52 3e 45 54 81 3d dc de dd ba
       -0.26157272 0.20519955 0.06314901 -0.0016927379
0003e0 ab d3 e2 bd c6 9f ea bd 64 d7 b7 3d f7 6a bc 3d
       -0.11075529 -0.114562556 0.089766294 0.092000894
0003f0 fc f2 79 be 32 7e 62 be 02 54 d8 bc 28 96 49 bd
       -0.24409097 -0.22118452 -0.026407246 -0.049215466

gat1.gat.lin_dst.weight f4 [30, 30]
000000 d2 be 9f bc fa 49 79 3d bb 3c 1c be c3 79 8e 3e
       -0.01950017 0.060861565 -0.15257542 0.27827272
000010 50 6a db bd 6e 89 31 be 19 78 63 3e 7c 03 f8 bc
       -0.10713637 -0.17337582 0.22213782 -0.030275099
000020 7b 0a 0b be 73 9b 6f be 24 0a 73 bd 06 79 70 be
       -0.13578217 -0.23399143 -0.059335843 -0.23483667
000030 4d a7 b3 bd 9c 1b 3e 3e ef 59 48 3e ca ff 92 3e
       -0.087721445 0.1856522 0.19565557 0.28710777
000040 6e 73 3f 3e 76 37 a6 bd 70 f2 17 be c0 48 0e be
       0.18696377 -0.08116047 -0.14838576 -0.1389494
000050 04 5a 57 be bb 34 b8 3b 6f e7 80 3e a3 ac 30 bd
       -0.21030432 0.0056215203 0.2517657 -0.04313339
000060 79 1f 0d be 6a eb 53 3d 04 3d 48 be 53 c0 52 3e
       -0.13781537 0.05173818 -0.19554526 0.20581178
000070 63 4f 21 3d 7c 37 5d 3e 7a e5 2e 3e 4a 15 c6 3d
       0.03938235 0.21603197 0.17079726 0.09672029
000080 b5 07 0e be 9a 02 44 3d 31 5c 86 3e 9c 2f 13 be
       -0.13870127 0.047854044 0.2624221 -0.1437363
000090 62 39 6f be 42 28 5f be e5 d3 81 3e 1a 38 84 3e
       -0.23361734 -0.21792701 0.25356975 0.25824052
0000a0 c0 29 86 3e 75 58 18 3e 98 a9 76 3e 10 07 49 3e
       0.26203728 0.14877494 0.24088132 0.196316
0000b0 e5 f9 62 3e c5 21 68 3e b4 30 36 bc d7 fa 90 bd
       0.2216564 0.22669132 -0.01112001 -0.07079094
0000c0 e2 03 0a bd 83 e6 74 3e 8c 87 e7 3d ae 96 81 be
       -0.03369511 0.23916058 0.113051504 -0.25310272
0000d0 0c 85 51 3e 50 a0 03 be a6 80 f1 3d b9 2c 0b be
       0.2046091 -0.12854123 0.11792116 -0.13591279
0000e0 9e c6 6a 3e 34 ae 0b be 34 e3 8b 3e 91 8d 0d 3e
       0.22927329 -0.13640672 0.2732178 0.13823535
0000f0 df c6 0d be 27 a6 ef bb 70 a8 38 3e a9 f0 4a 3e
       -0.13845395 -0.007313508 0.18033004 0.19818367
000100 af 04 88 be fb 7b 11 3e b7 71 4e bc e7 1b 21 bd
       -0.26566073 0.14207451 -0.012600354 -0.03933325
000110 64 35 1f 3e 43 2c 4d 3e 66 1f 84 3e ac c9 81 3e
       0.1554771 0.20036416 0.25805205 0.25349176
000120 d4 f8 55 be f2 c9 fa bb ec d7 46 3d d9 32 82 3e
       -0.20895702 -0.0076534683 0.048545763 0.2542942
000130 1c 84 b6 3c be f3 53 be 5e e5 e6 bd 08 73 81 3e
       0.022279792 -0.20698449 -0.11274217 0.25283074
000140 94 89 05 3e d1 6a 5d be c1 65 e2 bd d3 0b 53 3e
       0.13040763 -0.21622778 -0.11054564 0.2060998
000150 3d e8 66 bd 28 bb 8e 3b 7c 9c 43 be 29 6f af 3d
       -0.056373823 0.004355807 -0.19102663 0.08566124
000160 5b dd 1c 3e f4 54 fa 3d 0b 54 48 3c 6c 29 b4 3d
       0.15318815 0.12223235 0.012227069 0.08796963
000170 d3 e3 48 be dd 2d 85 3e 11 8f 5b be 16 76 5d 3e
       -0.19618158 0.26011553 -0.21441294 0.21627077
000180 9f a9 bb bd d7 9f 72 be 9a 04 73 3e a3 8b 52 be
       -0.09163212 -0.23693787 0.23732224 -0.2056108
000190 bc af be 3d 23 5d 49 3e b8 da e9 3a a9 74 3c bd
       0.093108624 0.19664435 0.0017841673 -0.046009693
0001a0 2c 9d 14 bd c4 fe 82 be 71 9c 60 be 10 75 b5 bd
       -0.036282703 -0.25584996 -0.21934678 -0.088602185
0001b0 f9 f6 b7 3d 52 ff 77 3e 85 4d 68 be 83 88 14 3e
       0.08982653 0.2421849 -0.22685821 0.145052
0001c0 ea 79 98 bd 4f 6b 4f 3e 58 09 06 3e f3 40 b6 bd
       -0.07445128 0.20255779 0.13089502 -0.08899107
0001d0 5a 23 6d 3e f3 b1 f4 3d e3 82 6f be d4 c4 60 be
       0.23158017 0.119480036 -0.23389773 -0.21950084
0001e0 d8 1c cf 3d 16 5b 42 bd b2 2f 52 3e 6c 08 84 3d
       0.101129234 -0.047450148 0.20526007 0.06446919
0001f0 f6 aa 4a 3d cd 88 2f be a2 58 08 be 33 bf 9a 3e
       0.049479447 -0.17142029 -0.1331506 0.30223998
000200 d6 5d c5 bd 00 02 76 bd 57 cc 6b 3c d2 70 89 3d
       -0.096370384 -0.0600605 0.01439198 0.06710972
000210 ae df 19 3e 2a 2c 2f 3e ad 94 66 3e fb 76 49 3e
       0.15026733 0.17106691 0.22517653 0.19674294
000220 5e c8 91 bc 24 4d c3 3c 24 bf d3 3d 58 28 1f bd
       -0.017795738 0.023840494 0.103391916 -0.038856834
000230 e2 ea 28 3e b7 b7 b6 3d e9 f2 d6 bd 6f da 0e be
       0.1649585 0.089217596 -0.1049555 -0.13950513
000240 79 c6 ea bd 12 7c ee 3a c3 f0 20 3e ee 5f f5 3c
       -0.11463637 0.0018194935 0.15716843 0.02995297
000250 74 20 b7 bd fd b9 24 3e c1 76 7f be bb e3 51 3e
       -0.08941737 0.16086574 -0.24947645 0.20497029
000260 5c 1a 2e 3d be 86 fc 3d bd 50 38 3e 41 b6 79 bd
       0.042505607 0.123303875 0.17999549 -0.060964826
000270 76 9c 19 3e fd f7 ff bd bb db e7 bd f4 9e 6f be
       0.15001091 -0.12498472 -0.11321207 -0.2340048
000280 42 69 12 be 92 31 16 3e 9c f8 57 3e 3e a8 07 be
       -0.14297965 0.14667347 0.2109093 -0.13247773
000290 4c d3 68 be 64 af 7e bd 36 80 17 3e c7 ab 6f 3e
       -0.22736853 -0.062178984 0.14795002 0.23405372
0002a0 56 a9 72 bd 57 f5 95 bd b9 93 d5 3d 4d a3 88 3e
       -0.059243523 -0.073221855 0.104285665 0.2668709
0002b0 aa 83 19 3d 29 a1 2f 3b ed c1 52 bc e3 a4 4b be
       0.03747908 0.002679894 -0.012863618 -0.19887118
0002c0 6d 22 42 3e d9 6f 0a bd b3 c5 3d be 57 48 ee bd
       0.18958445 -0.033798072 -0.18532448 -0.116348915
0002d0 94 c0 83 bd c3 00 47 3e 36 ec 9a bc 1b b3 63 be
       -0.06433216 0.19433884 -0.018911462 -0.22236292
0002e0 4e 6c e8 38 7f 83 33 3e 3c f3 78 be ee 86 09 3e
       0.000110827954 0.1753063 -0.24311537 0.13430378
0002f0 54 73 72 bd 26 76 20 be d1 e6 d8 3d dd 41 6c 3d
       -0.059192017 -0.1567007 0.105909 0.05768
000300 af 4c 5c be cd 8c 83 be 19 9a 88 3e e4 e2 56 3e
       -0.21513627 -0.2569336 0.26680067 0.2098499
000310 1c 9f d1 3c a6 08 9c 3d 3d 0f 9a be 5c 69 cc bd
       0.025588565 0.07618837 -0.3008975 -0.09981033
000320 13 45 15 3d 5f 58 e2 3d 82 f0 2d bc 7c 56 5b 3e
       0.036442827 0.11052012 -0.010616424 0.2141971
000330 42 06 4c 3e 80 e0 03 be 06 a5 b2 bd 16 98 63 3e
       0.19924262 -0.12878609 -0.08722882 0.22225985
000340 20 65 53 3d 04 32 0f 3e cd 02 76 be 85 58 44 be
       0.051610112 0.13983923 -0.24024506 -0.19174393
000350 78 37 19 3d 04 d0 65 3d 3e 1d a7 3d 85 81 80 3e
       0.037406415 0.056106582 0.081598744 0.25098816
000360 3b c1 55 bb 2d 81 64 3d 10 9d 32 be b8 f5 c8 bd
       -0.0032616395 0.055787254 -0.17442727 -0.09812492
000370 6e a4 6b be 7a 35 7c 3e a0 2b 19 3e a4 e6 28 3d
       -0.23011944 0.24629775 0.14958048 0.04123558
000380 28 07 5d 3d f6 2b d0 3d 6c cc 35 3e 2b e1 29 3e
       0.053961903 0.10164635 0.17753762 0.16589801
000390 a0 9b 3d 3e 56 e3 82 be f4 d9 57 be 5f f7 2f bd
       0.18516397 -0.2556407 -0.21079236 -0.04296052
0003a0 d1 41 67 3e 0c a5 60 be 87 37 a8 bd d4 b4 5c bd
       0.225837 -0.2193796 -0.08213716 -0.05388339
0003b0 b4 49 99 be 10 e1 70 be 10 3f 02 3d 3a 68 02 3d
       -0.29939044 -0.23523355 0.031798422 0.03183768
0003c0 f1 b7 08 3e cb d1 67 3e ae 71 30 3e ec 56 6f 3e
       0.13351418 0.22638623 0.17230865 0.23373002
0003d0 dc ec 85 be d5 1f 52 3e 45 54 81 3d dc de dd ba
       -0.26157272 0.20519955 0.06314901 -0.0016927379
0003e0 ab d3 e2 bd c6 9f ea bd 64 d7 b7 3d f7 6a bc 3d
       -0.11075529 -0.114562556 0.089766294 0.092000894
0003f0 fc f2 79 be 32 7e 62 be 02 54 d8 bc 28 96 49 bd
       -0.24409097 -0.22118452 -0.026407246 -0.049215466

gat2.gat.att_src f4 [1, 1, 30]
000000 ba 92 22 be 3a 1a 25 3e a7 6b b4 3e 6f 81 20 3e
       -0.15876284 0.16123286 0.35238382 0.15674375
000010 78 7e 0f 3e f3 bc ad 3e 3e 50 63 bd 5f 8a 9b 3e
       0.14013088 0.3393322 -0.055496447 0.30379006
000020 0f 84 d2 3d f5 03 1a be 9d 3c 9a be 96 e7 f2 bd
       0.102790944 -0.15040572 -0.3012437 -0.11860578
000030 4e cc e8 bd fb 81 ad be e4 d0 12 3e 4d 64 15 3d
       -0.11367093 -0.3388823 0.14337498 0.036472607
000040 e1 78 76 3e c9 74 ff bd 91 b9 ae bd 94 e3 4c 3c
       0.24069549 -0.12473447 -0.08531488 0.012505431
000050 87 4e 43 3e 55 0e 22 be 8b ff a3 be e6 4e 6f bd
       0.19072925 -0.1582578 -0.320309 -0.058424853
000060 ee 7d a1 3e d5 48 5c 3d fc 2f 61 bd d9 ba 36 be
       0.3154139 0.053780396 -0.054977402 -0.17844714
000070 f2 eb 58 3e bf ae 50 be
       0.21183756 -0.2037916

gat2.gat.att_dst f4 [1, 1, 30]
000000 f8 d2 f9 3d 99 89 ab be 57 c3 1a be de 8d 3d 3e
       0.12198442 -0.33503416 -0.15113579 0.1851115
000010 cb 17 cd 3b ee 63 0a 3c 93 ff 4e 3e f2 05 80 3e
       0.00625894 0.008446677 0.20214681 0.25004536
000020 12 f0 9b 3d 1b 1c b1 3e 04 8e 9a 3e bf f4 49 3c
       0.07614149 0.34591755 0.30186474 0.012326418
000030 48 53 ef 3d b2 dd ae be ae 4c 07 3e 3f f3 37 3e
       0.116858065 -0.34153515 0.13212845 0.17963885
000040 55 33 1d 3e 01 a9 b9 3e f5 aa 95 bd bf cd a0 be
       0.15351613 0.36261752 -0.07307998 -0.31406972
000050 4f 47 32 3e b2 48 81 3d 33 ec dc 39 95 7b b3 3c
       0.17410015 0.06312694 0.00042137652 0.021909514
000060 42 a4 9f 3e fa a6 b5 be 04 64 9f bd bf 8b 0a 3b
       0.31180006 -0.35478956 -0.07782748 0.0021140424
000070 0c 00 a0 3e 87 9a ae 3e
       0.31250036 0.3410227

gat2.gat.bias f4 [30]
000000 ea e6 16 bd 85 b9 a1 3c f7 2a e5 3d 2f 28 2b 3c
       -0.03684131 0.019741783 0.111898355 0.010446592
000010 1c 52 f6 bc 0a c9 f8 bc 93 c8 fe 3c 3d f8 39 3d
       -0.03006845 -0.0303693 0.0311015 0.045402754
000020 eb 77 84 3d 54 e9 7b 3d b9 fc 90 3d a7 66 43 ba
       0.06468185 0.061501816 0.07079453 -0.0007453956
000030 f5 13 d7 bc 65 39 72 bc 40 a8 7c bd eb 6a cd bc
       -0.026254633 -0.014784192 -0.061683893 -0.025075397
000040 1c 36 90 bc 07 08 bd bc 74 21 cb bc 9e 8f 0f bd
       -0.017603926 -0.023075117 -0.024796225 -0.035049073
000050 5d ae 87 bd a8 a6 42 bd 10 4f 3b 3c 97 0f fa bc
       -0.06625054 -0.047522217 0.011432424 -0.030525012
000060 91 0e e1 bc a2 98 b4 3c f7 9a af 3d 73 65 9c 3c
       -0.027472766 0.022045437 0.08574479 0.019091344
000070 96 49 5c bc ed e0 4f 3b
       -0.013445279 0.003171976

gat2.gat.lin_src.weight f4 [30, 30]
000000 0c fe 84 bd 72 81 81 3e 02 9d 15 3e 85 cb 59 bd
       -0.06493768 0.2529407 0.14610675 -0.053172607
000010 92 97 16 be f4 0b c5 bd 43 08 1f 3d 8c 3d a7 3d
       -0.14706257 -0.096214205 0.03882624 0.08166036
000020 04 47 1b bd 8e 66 f4 bb 29 73 d7 bd 8a 0f d6 3d
       -0.037909523 -0.0074585145 -0.10520012 0.104521826
000030 62 95 d6 bd 1f c8 7a 3e 7f e4 bc 3d 03 34 e7 bd
       -0.10477711 0.24490403 0.0922327 -0.11289217
000040 95 0a 62 be 98 15 26 3e ac e0 f6 bd c5 df c2 3d
       -0.22074349 0.16219175 -0.120545715 0.09515337
000050 69 a8 5f 3d 16 93 e3 bc 03 3f 00 bd 09 49 29 be
       0.054603968 -0.027780097 -0.031310093 -0.16531767
000060 39 9c b2 bd 1f 43 43 3e be c3 a5 3c 8e a3 d0 3d
       -0.08721203 0.19068573 0.020234939 0.101874456
000070 4a 5c 61 be 27 64 4f 3e c5 32 31 3e 82 80 13 3e
       -0.22007862 0.20253049 0.17304523 0.1440449
000080 0c 9f ef bd a3 1b 36 3d 81 0b 95 bd 32 85 0e 3d
       -0.11700258 0.04445995 -0.07277585 0.034794994
000090 fe 4c 7c be 3f 17 0d be 29 c3 bd bd 08 ec 3e 3e
       -0.24638745 -0.13778399 -0.092657395 0.18644726
0000a0 f2 56 1b be 3c 46 58 bd 6c 65 d4 3c 45 02 55 3e
       -0.15169886 -0.052801356 0.025927268 0.20801647
0000b0 06 0c b9 3d 9d ea 66 3e 75 44 c0 3d 2a 03 6f bd
       0.090354964 0.22550435 0.09388057 -0.058352627
0000c0 96 85 a9 bd 49 da f3 3c 96 a1 60 be 56 66 d8 3d
       -0.082774326 0.029767172 -0.2193664 0.10566394
0000d0 2d 6a 79 3e 90 70 5e bd 31 7f 0b bd 37 b4 41 3d
       0.24356909 -0.054306567 -0.034056846 0.047291007
0000e0 fb 92 75 be 4c 07 9e bd 89 78 57 3e c1 29 1d 3d
       -0.2398185 -0.077162355 0.21042074 0.038369898
0000f0 64 73 41 be e4 e9 a6 3d 3d 84 4e be d4 db 7a 3e
       -0.18891674 0.0815008 -0.20167632 0.2449792
000100 d3 66 4e be 85 71 2e 3d 19 4c 97 3e 13 56 32 3e
       -0.20156412 0.04258873 0.29550245 0.17415647
000110 77 9e 0f 3d 75 32 7e 3e 04 ea 7f 3e f1 2e 46 be
       0.035063233 0.24823935 0.24991614 -0.19353844
000120 7e 21 b3 bd 4b 51 5a bd 2d e7 5c be ef 6b 10 be
       -0.087466225 -0.053300183 -0.21572562 -0.14103673
000130 db ae 1d 3c 00 a9 8c 3e ab c1 1c be 9b dc 52 3e
       0.009624208 0.27472687 -0.15308253 0.20591967
000140 bf 07 aa bd 86 36 3f 3e e0 16 05 be 33 e7 90 bd
       -0.08302259 0.18673143 -0.12997007 -0.07075348
000150 5e 0b 15 3e a8 72 1f 38 f8 9f b2 bd fc f4 fe 3d
       0.14555117 3.8015336e-05 -0.08721918 0.12449071
000160 4d 89 ab 3d f7 15 8a 3a f5 0d 58 bd 3a bf 36 be
       0.083757974 0.001053511 -0.052747685 -0.17846385
000170 9d 41 f6 3d 75 63 68 bd 2a ba 59 be 82 75 25 bd
       0.120242335 -0.056735475 -0.21262422 -0.040395267
000180 55 7c 4a 3e 93 7f 0d 3e 3e 7a 9c 3d 92 63 b9 bd
       0.19773991 0.13818197 0.07640503 -0.09052195
000190 7b 67 05 3d 8f e7 81 bd 7f f9 57 be 35 93 ea ba
       0.03256939 -0.063429944 -0.21091269 -0.0017896654
0001a0 c4 62 c1 3c 99 5b c6 3a 07 bc ac 3d f0 70 15 bd
       0.023606665 0.0015133499 0.08434301 -0.03648466
0001b0 34 cc a2 bd a5 98 3c be db 44 27 3e 50 b4 ea bd
       -0.07949105 -0.18417604 0.1633486 -0.11460173
0001c0 39 d9 2d be eb b0 17 be 13 a4 86 be be 48 0a 3e
       -0.16977395 -0.14813583 -0.26297054 0.13504311
0001d0 3c 09 d1 3d ab 1b 82 be 4f e9 86 3e 1e e8 3a bd
       0.102068394 -0.25411734 0.26349875 -0.04563152
0001e0 a4 8b 8c 3e a7 f1 0d 3b 8c 5d 6b bd 1a 58 7e 3e
       0.27450287 0.0021658929 -0.05746226 0.24838296
0001f0 cd 87 88 be ac bf 71 bc c9 2a 4a 3c 64 7d 7d be
       -0.26666108 -0.014755171 0.012339302 -0.24754864
000200 02 9f ca 3d 49 b5 13 bd 08 16 7c 3e 5f 29 34 be
       0.098936096 -0.03606156 0.24617779 -0.17593907
000210 f0 57 fe bd a1 96 b5 bd ce 04 f4 bd 87 3a 9b bd
       -0.124191165 -0.08866621 -0.11914979 -0.075795226
000220 2e 06 c3 3d 12 ad 12 bd ab d9 36 3e 88 df 95 3e
       0.09522663 -0.035809584 0.17856471 0.29272103
000230 7d 12 57 bd 17 39 63 be 41 f5 52 be bb 16 69 be
       -0.052507866 -0.22189747 -0.2060137 -0.22762577
000240 3c fb cd 3d d1 cf f8 3c 41 1f a2 bd 43 a2 a3 bc
       0.10057685 0.030372532 -0.079161175 -0.019974833
000250 bb ea 73 3e 41 34 6b 3e c4 86 0b 3e 63 3b 18 bd
       0.23820011 0.22969152 0.13625628 -0.03716601
000260 0b c1 53 be 80 92 55 be 69 09 d8 bd 2c d1 fb 3d
       -0.20679109 -0.20856667 -0.1054867 0.12295756
000270 74 2e 61 3e 6c e0 f9 3d e5 ed 84 3d a6 c9 75 3e
       0.21990377 0.12201008 0.06490687 0.24002704
000280 39 be d4 bd d5 37 23 3e ce 67 17 3d 18 37 18 3d
       -0.103878446 0.15939267 0.03696423 0.037161916
000290 0f c4 62 3e 8c 40 75 3e 78 68 2d 3e 68 29 35 3d
       0.22145103 0.23950404 0.16934383 0.04422894
0002a0 3a 6b 66 3e f9 e3 c1 3d 5f e7 57 3d 4a 73 64 3e
       0.22501841 0.094673105 0.052710887 0.22309604
0002b0 75 ff 17 bd 79 63 67 3e 4f 52 cf 3d 5e b0 b0 3d
       -0.037108857 0.2259654 0.10123121 0.08627389
0002c0 ab ec 92 3d 02 7e 5e 38 66 7f 95 3e ae 41 2e be
       0.07174047 5.304628e-05 0.2919876 -0.17017242
0002d0 a5 f9 2e 3d 7f 6b 4a 3e 21 e2 32 3d 22 63 13 3e
       0.04271855 0.19767569 0.043672685 0.14393285
0002e0 46 12 f9 bd 9f 7f f5 3c 3e 94 4b 3d 94 ae 61 bc
       -0.121616885 0.029968081 0.04970192 -0.013774533
0002f0 31 90 91 3e 84 a6 8a be 7e 22 96 be ef 8b 5f 3e
       0.28430322 -0.27080166 -0.2932319 0.21830724
000300 38 8a 39 be 50 14 7e be 54 72 86 bd 06 f5 1d be
       -0.18119133 -0.24812436 -0.06564775 -0.154255
000310 32 1e 0a be f2 0f dc bd c3 a1 e9 3c 79 dc af 3d
       -0.13488081 -0.10745229 0.028519517 0.08586974
000320 db 0a 1c bd b9 1d 42 3e d7 fe 56 bd 5e a5 f4 3d
       -0.03809629 0.18956651 -0.052489128 0.11945604
000330 35 fd 0d be 67 85 89 3e f2 77 a1 bd df e5 39 be
       -0.13866122 0.2685959 -0.07884206 -0.18154095
000340 40 bb 36 bc b9 1f 2c be c9 bb c8 3d 82 24 4f 3e
       -0.011153042 -0.16808976 0.09801442 0.2022877
000350 50 8b a2 bc 48 3f cc 3d 81 09 d2 bc 93 d3 8c bd
       -0.01984182 0.099730074 -0.025639297 -0.06876292
000360 ce 58 6a be 26 d7 72 be 0a c6 ed bc 63 55 50 be
       -0.22885439 -0.23714885 -0.029025096 -0.20345072
000370 d4 52 73 3e 43 5b 2c 3e 03 86 06 bd b3 e6 db 3d
       0.23762065 0.16831689 -0.032842647 0.10737362
000380 a2 16 77 3e d2 2d 34 bd aa 58 30 3e 07 34 f5 3c
       0.24129727 -0.04398901 0.17221323 0.029932035
000390 8e 1c 01 be 29 79 59 be fd b9 73 be 49 d5 df 3c
       -0.12608549 -0.21237625 -0.23801418 0.027323382
0003a0 34 9e f0 3d 12 3a 67 3e 88 d8 2d 3e f4 d3 8c 3d
       0.11748925 0.22580746 0.16977131 0.06876364
0003b0 7c 3f bc bc 86 2d 38 be 2e a9 15 3e bd b7 0f 3e
       -0.02297949 -0.17986116 0.14615318 0.14034934
0003c0 f4 a4 05 3e 08 73 8d 3d d0 69 7e be c1 ad 21 3d
       0.13051206 0.06906706 -0.24845052 0.039472345
0003d0 84 9d 30 bd 67 75 03 be 9b f6 1b be d7 48 6e be
       -0.04311897 -0.12837754 -0.15230791 -0.23269974
0003e0 fb 53 b2 bc 63 b2 91 3e 51 c0 43 bc 9d 7e 10 3e
       -0.02176856 0.2845641 -0.011947707 0.14110799
0003f0 4f 0c e7 3d 13 a8 d2 bd 61 be 26 3c 82 61 a9 3c
       0.112816446 -0.10285964 0.010177226 0.020676378

gat2.gat.lin_dst.weight f4 [30, 30]
000000 0c fe 84 bd 72 81 81 3e 02 9d 15 3e 85 cb 59 bd
       -0.06493768 0.2529407 0.14610675 -0.053172607
000010 92 97 16 be f4 0b c5 bd 43 08 1f 3d 8c 3d a7 3d
       -0.14706257 -0.096214205 0.03882624 0.08166036
000020 04 47 1b bd 8e 66 f4 bb 29 73 d7 bd 8a 0f d6 3d
       -0.037909523 -0.0074585145 -0.10520012 0.104521826
000030 62 95 d6 bd 1f c8 7a 3e 7f e4 bc 3d 03 34 e7 bd
       -0.10477711 0.24490403 0.0922327 -0.11289217
000040 95 0a 62 be 98 15 26 3e ac e0 f6 bd c5 df c2 3d
       -0.22074349 0.16219175 -0.120545715 0.09515337
000050 69 a8 5f 3d 16 93 e3 bc 03 3f 00 bd 09 49 29 be
       0.054603968 -0.027780097 -0.031310093 -0.16531767
000060 39 9c b2 bd 1f 43 43 3e be c3 a5 3c 8e a3 d0 3d
       -0.08721203 0.19068573 0.020234939 0.101874456
000070 4a 5c 61 be 27 64 4f 3e c5 32 31 3e 82 80 13 3e
       -0.22007862 0.20253049 0.17304523 0.1440449
000080 0c 9f ef bd a3 1b 36 3d 81 0b 95 bd 32 85 0e 3d
       -0.11700258 0.04445995 -0.07277585 0.034794994
000090 fe 4c 7c be 3f 17 0d be 29 c3 bd bd 08 ec 3e 3e
       -0.24638745 -0.13778399 -0.092657395 0.18644726
0000a0 f2 56 1b be 3c 46 58 bd 6c 65 d4 3c 45 02 55 3e
       -0.15169886 -0.052801356 0.025927268 0.20801647
0000b0 06 0c b9 3d 9d ea 66 3e 75 44 c0 3d 2a 03 6f bd
       0.090354964 0.22550435 0.09388057 -0.058352627
0000c0 96 85 a9 bd 49 da f3 3c 96 a1 60 be 56 66 d8 3d
       -0.082774326 0.029767172 -0.2193664 0.10566394
0000d0 2d 6a 79 3e 90 70 5e bd 31 7f 0b bd 37 b4 41 3d
       0.24356909 -0.054306567 -0.034056846 0.047291007
0000e0 fb 92 75 be 4c 07 9e bd 89 78 57 3e c1 29 1d 3d
       -0.2398185 -0.077162355 0.21042074 0.038369898
0000f0 64 73 41 be e4 e9 a6 3d 3d 84 4e be d4 db 7a 3e
       -0.18891674 0.0815008 -0.20167632 0.2449792
000100 d3 66 4e be 85 71 2e 3d 19 4c 97 3e 13 56 32 3e
       -0.20156412 0.04258873 0.29550245 0.17415647
000110 77 9e 0f 3d 75 32 7e 3e 04 ea 7f 3e f1 2e 46 be
       0.035063233 0.24823935 0.24991614 -0.19353844
000120 7e 21 b3 bd 4b 51 5a bd 2d e7 5c be ef 6b 10 be
       -0.087466225 -0.053300183 -0.21572562 -0.14103673
000130 db ae 1d 3c 00 a9 8c 3e ab c1 1c be 9b dc 52 3e
       0.009624208 0.27472687 -0.15308253 0.20591967
000140 bf 07 aa bd 86 36 3f 3e e0 16 05 be 33 e7 90 bd
       -0.08302259 0.18673143 -0.12997007 -0.07075348
000150 5e 0b 15 3e a8 72 1f 38 f8 9f b2 bd fc f4 fe 3d
       0.14555117 3.8015336e-05 -0.08721918 0.12449071
000160 4d 89 ab 3d f7 15 8a 3a f5 0d 58 bd 3a bf 36 be
       0.083757974 0.001053511 -0.052747685 -0.17846385
000170 9d 41 f6 3d 75 63 68 bd 2a ba 59 be 82 75 25 bd
       0.120242335 -0.056735475 -0.21262422 -0.040395267
000180 55 7c 4a 3e 93 7f 0d 3e 3e 7a 9c 3d 92 63 b9 bd
       0.19773991 0.13818197 0.07640503 -0.09052195
000190 7b 67 05 3d 8f e7 81 bd 7f f9 57 be 35 93 ea ba
       0.03256939 -0.063429944 -0.21091269 -0.0017896654
0001a0 c4 62 c1 3c 99 5b c6 3a 07 bc ac 3d f0 70 15 bd
       0.023606665 0.0015133499 0.08434301 -0.03648466
0001b0 34 cc a2 bd a5 98 3c be db 44 27 3e 50 b4 ea bd
       -0.07949105 -0.18417604 0.1633486 -0.11460173
0001c0 39 d9 2d be eb b0 17 be 13 a4 86 be be 48 0a 3e
       -0.16977395 -0.14813583 -0.26297054 0.13504311
0001d0 3c 09 d1 3d ab 1b 82 be 4f e9 86 3e 1e e8 3a bd
       0.102068394 -0.25411734 0.26349875 -0.04563152
0001e0 a4 8b 8c 3e a7 f1 0d 3b 8c 5d 6b bd 1a 58 7e 3e
       0.27450287 0.0021658929 -0.05746226 0.24838296
0001f0 cd 87 88 be ac bf 71 bc c9 2a 4a 3c 64 7d 7d be
       -0.26666108 -0.014755171 0.012339302 -0.24754864
000200 02 9f ca 3d 49 b5 13 bd 08 16 7c 3e 5f 29 34 be
       0.098936096 -0.03606156 0.24617779 -0.17593907
000210 f0 57 fe bd a1 96 b5 bd ce 04 f4 bd 87 3a 9b bd
       -0.124191165 -0.08866621 -0.11914979 -0.075795226
000220 2e 06 c3 3d 12 ad 12 bd ab d9 36 3e 88 df 95 3e
       0.09522663 -0.035809584 0.17856471 0.29272103
000230 7d 12 57 bd 17 39 63 be 41 f5 52 be bb 16 69 be
       -0.052507866 -0.22189747 -0.2060137 -0.22762577
000240 3c fb cd 3d d1 cf f8 3c 41 1f a2 bd 43 a2 a3 bc
       0.10057685 0.030372532 -0.079161175 -0.019974833
000250 bb ea 73 3e 41 34 6b 3e c4 86 0b 3e 63 3b 18 bd
       0.23820011 0.22969152 0.13625628 -0.03716601
000260 0b c1 53 be 80 92 55 be 69 09 d8 bd 2c d1 fb 3d
       -0.20679109 -0.20856667 -0.1054867 0.12295756
000270 74 2e 61 3e 6c e0 f9 3d e5 ed 84 3d a6 c9 75 3e
       0.21990377 0.12201008 0.06490687 0.24002704
000280 39 be d4 bd d5 37 23 3e ce 67 17 3d 18 37 18 3d
       -0.103878446 0.15939267 0.03696423 0.037161916
000290 0f c4 62 3e 8c 40 75 3e 78 68 2d 3e 68 29 35 3d
       0.22145103 0.23950404 0.16934383 0.04422894
0002a0 3a 6b 66 3e f9 e3 c1 3d 5f e7 57 3d 4a 73 64 3e
       0.22501841 0.094673105 0.052710887 0.22309604
0002b0 75 ff 17 bd 79 63 67 3e 4f 52 cf 3d 5e b0 b0 3d
       -0.037108857 0.2259654 0.10123121 0.08627389
0002c0 ab ec 92 3d 02 7e 5e 38 66 7f 95 3e ae 41 2e be
       0.07174047 5.304628e-05 0.2919876 -0.17017242
0002d0 a5 f9 2e 3d 7f 6b 4a 3e 21 e2 32 3d 22 63 13 3e
       0.04271855 0.19767569 0.043672685 0.14393285
0002e0 46 12 f9 bd 9f 7f f5 3c 3e 94 4b 3d 94 ae 61 bc
       -0.121616885 0.029968081 0.04970192 -0.013774533
0002f0 31 90 91 3e 84 a6 8a be 7e 22 96 be ef 8b 5f 3e
       0.28430322 -0.27080166 -0.2932319 0.21830724
000300 38 8a 39 be 50 14 7e be 54 72 86 bd 06 f5 1d be
       -0.18119133 -0.24812436 -0.06564775 -0.154255
000310 32 1e 0a be f2 0f dc bd c3 a1 e9 3c 79 dc af 3d
       -0.13488081 -0.10745229 0.028519517 0.08586974
000320 db 0a 1c bd b9 1d 42 3e d7 fe 56 bd 5e a5 f4 3d
       -0.03809629 0.18956651 -0.052489128 0.11945604
000330 35 fd 0d be 67 85 89 3e f2 77 a1 bd df e5 39 be
       -0.13866122 0.2685959 -0.07884206 -0.18154095
000340 40 bb 36 bc b9 1f 2c be c9 bb c8 3d 82 24 4f 3e
       -0.011153042 -0.16808976 0.09801442 0.2022877
000350 50 8b a2 bc 48 3f cc 3d 81 09 d2 bc 93 d3 8c bd
       -0.01984182 0.099730074 -0.025639297 -0.06876292
000360 ce 58 6a be 26 d7 72 be 0a c6 ed bc 63 55 50 be
       -0.22885439 -0.23714885 -0.029025096 -0.20345072
000370 d4 52 73 3e 43 5b 2c 3e 03 86 06 bd b3 e6 db 3d
       0.23762065 0.16831689 -0.032842647 0.10737362
000380 a2 16 77 3e d2 2d 34 bd aa 58 30 3e 07 34 f5 3c
       0.24129727 -0.04398901 0.17221323 0.029932035
000390 8e 1c 01 be 29 79 59 be fd b9 73 be 49 d5 df 3c
       -0.12608549 -0.21237625 -0.23801418 0.027323382
0003a0 34 9e f0 3d 12 3a 67 3e 88 d8 2d 3e f4 d3 8c 3d
       0.11748925 0.22580746 0.16977131 0.06876364
0003b0 7c 3f bc bc 86 2d 38 be 2e a9 15 3e bd b7 0f 3e
       -0.02297949 -0.17986116 0.14615318 0.14034934
0003c0 f4 a4 05 3e 08 73 8d 3d d0 69 7e be c1 ad 21 3d
       0.13051206 0.06906706 -0.24845052 0.039472345
0003d0 84 9d 30 bd 67 75 03 be 9b f6 1b be d7 48 6e be
       -0.04311897 -0.12837754 -0.15230791 -0.23269974
0003e0 fb 53 b2 bc 63 b2 91 3e 51 c0 43 bc 9d 7e 10 3e
       -0.02176856 0.2845641 -0.011947707 0.14110799
0003f0 4f 0c e7 3d 13 a8 d2 bd 61 be 26 3c 82 61 a9 3c
       0.112816446 -0.10285964 0.010177226 0.020676378

gru1.weight_ih_l0 f4 [90, 16]
000000 e9 41 18 be 6e c3 1f 3e 8b c6 01 3e b2 78 d8 bc
       -0.14868893 0.15601894 0.12673394 -0.02642474
000010 12 58 7b bc eb ce 05 3e f9 78 0d 3e 0f a4 30 be
       -0.015340822 0.13067214 0.13815679 -0.17250083
000020 fe 4d 42 3d 79 27 91 3d 02 03 dd bc da 27 75 3d
       0.04743766 0.07087607 -0.026978973 0.05985246
000030 30 7e 78 bd 73 a6 1b 3b eb 05 13 bd 3c 7c 24 be
       -0.060667217 0.0023750335 -0.035894316 -0.16063017
000040 a5 49 c1 3d b0 2b 14 3e b1 c8 17 be 67 20 d9 3d
       0.09437875 0.1446979 -0.14822651 0.106018834
000050 2c ea 03 3e 66 d0 58 3d 6d ce 08 be 8c 85 12 be
       0.12882298 0.05293312 -0.13359995 -0.14308757
000060 22 df 16 bd d5 17 20 3e 48 71 44 bd be 6d 2a be
       -0.03683389 0.15634091 -0.047959596 -0.16643426
000070 64 ad 95 3b bf ca 31 3e 68 fa ea bd 15 57 99 3d
       0.004567789 0.17362498 -0.114735425 0.07487313
000080 6c 91 6d bd c8 0c 86 3c f1 81 ff 3b ed 84 91 3d
       -0.058000013 0.016363516 0.0077974726 0.07105432
000090 01 46 ef bd a6 ac bf bd ad 7b c7 bd fc 11 e9 bd
       -0.11683274 -0.09359102 -0.09740386 -0.11380383
0000a0 71 f5 00 3e 35 e7 09 be b4 bf 30 be 5b 18 d8 bd
       0.12593628 -0.13467105 -0.17260629 -0.105515204
0000b0 c9 4b f9 bd 51 e0 38 3d 42 ac fe bd 83 f5 dd bd
       -0.12172658 0.0451358 -0.12435199 -0.10837843
0000c0 c6 9b c0 bd 70 51 25 be 54 db 98 3d 97 40 d1 bc
       -0.094047114 -0.16144347 0.074637085 -0.025543494
0000d0 ff 47 20 3d ae 32 7f bd 85 1e 1d 3e 61 38 0e be
       0.03913116 -0.06230419 0.15343674 -0.13888694
0000e0 f9 c7 93 bd 92 6c c8 bd aa 29 cd 3c 12 b2 95 3d
       -0.07215876 -0.09786333 0.025044281 0.07309355
0000f0 71 45 18 be 53 e2 f0 bd f6 36 cb bd a8 28 e9 bc
       -0.1487024 -0.11761918 -0.09922592 -0.02846177
000100 2e c0 fd bd 5a a3 1e 3e 6f ae 06 3e 4f 2b 0b be
       -0.12390171 0.15492001 0.13152479 -0.1359074
000110 27 04 3b 3c c0 93 a6 bd 12 16 fe bb 3e 9d 8a bd
       0.011414564 -0.0813365 -0.007754096 -0.06768273
000120 46 85 24 3e af cb ad 3c 27 85 ef bd 07 a7 18 3e
       0.16066465 0.021215288 -0.11695319 0.14907466
000130 24 25 37 3e cb e4 92 3d 63 51 15 3e 0c 77 93 3d
       0.17885262 0.07172545 0.14581828 0.07200441
000140 cb 2c 18 be 20 bd 65 bd de ae 0c be 10 6b 2f 3d
       -0.14860837 -0.056088567 -0.13738582 0.042826712
000150 2e 42 c4 bd 81 b3 d3 bc 01 0d 47 bd a5 9e 5e 3d
       -0.09582935 -0.02584243 -0.048596386 0.054350514
000160 7c f6 12 3e 78 99 bf 3c c4 0d 92 bd 53 52 e0 3d
       0.14351839 0.02338861 -0.07131532 0.10953202
000170 bb 53 05 be 26 14 da bd 91 04 2f be 95 13 f0 ba
       -0.13020222 -0.10648374 -0.17091586 -0.0018316383
000180 ff 3e d6 bd d9 b4 fd 3c dd dd 33 be 2b 47 3a 3d
       -0.10461234 0.030970024 -0.17565103 0.045478027
000190 b8 49 32 bc 4c 01 d9 3d 44 08 80 bd 44 51 cc 3c
       -0.010881834 0.105959505 -0.062515765 0.024941094
0001a0 1c 80 39 3e 62 0c 42 3d 9d 08 7a bd fe b3 e8 bd
       0.18115276 0.04737509 -0.06104337 -0.11362456
0001b0 e2 62 24 3e 4e 24 ce bd 11 a1 15 3e 93 d7 94 3d
       0.16053346 -0.10065518 0.14612223 0.0726768
0001c0 f8 e3 34 be 00 24 9b 3c 96 81 35 3c 3f 99 e8 bc
       -0.17665088 0.018938065 0.011078259 -0.028393386
0001d0 8d 15 9d bd 3e cc 0b be f9 e0 1a 3d 10 6f 21 3e
       -0.07670126 -0.13652131 0.037812207 0.15765023
0001e0 f7 05 a1 bc be dc ec 3d 85 f0 91 3b a6 44 ad bd
       -0.019656165 0.11565541 0.004453721 -0.08460359
0001f0 30 cd b6 bd d3 7e 2a 3d 4a 8c f4 3d 8e 47 89 3d
       -0.08925855 0.041624855 0.119408205 0.06703101
000200 64 c2 04 be 69 6b 61 bd 36 52 14 be 74 2b 8a bd
       -0.12964779 -0.055034075 -0.14484486 -0.06746569
000210 cb 7e 8f bc e5 e8 65 bd 99 cb 35 be 32 d7 d6 3b
       -0.017516514 -0.05613031 -0.17753448 0.006556415
000220 22 67 94 3c 5b ae fd bd 3b ef 0f be ad 51 ac bd
       0.018115584 -0.12386771 -0.14056103 -0.08414016
000230 f6 20 0b 3d e2 dc b1 3d 7c 5e b8 bc 0a 1c 27 be
       0.03396698 0.08684708 -0.022505991 -0.1631929
000240 ea 5a 74 bd 73 80 01 be c4 46 d2 bc ab 65 1a bd
       -0.059657015 -0.12646656 -0.02566851 -0.037694614
000250 14 1f 04 3d cd 70 2b be 12 c0 01 be 0a 86 22 be
       0.0322562 -0.16742249 -0.12670925 -0.15871444
000260 88 65 82 bd e9 f5 2f bd e3 33 b1 3c 4c 37 f7 3d
       -0.06367022 -0.042959128 0.021631187 0.12071094
000270 90 41 e0 bd 48 48 95 bd 2d 19 7b bc e2 26 39 3e
       -0.10950005 -0.07289177 -0.015325827 0.18081239
000280 c3 98 15 3b 9f 99 96 bd 90 ee ee 3d 5b f9 2d be
       0.0022826649 -0.0735352 0.11666596 -0.16989653
000290 5b 6a 67 bd cc ad d6 bd 9d ff 12 be 7a 03 07 be
       -0.056497913 -0.10482368 -0.14355321 -0.1318492
0002a0 7c 34 79 bd 02 fe e6 bd f4 3a 14 be d1 fd 71 3d
       -0.06084107 -0.11278917 -0.14475614 0.05907995
0002b0 e7 93 2e bd ca 7d 11 3e df 6b 1a be d2 5d 9f bd
       -0.04262152 0.14208141 -0.15080212 -0.07781567
0002c0 a1 42 d0 bc 87 5b 86 3d a2 b9 7e bd 9b ab cc bd
       -0.025422396 0.06560426 -0.062188752 -0.09993669
0002d0 0b 4a c1 3d 33 48 00 be 53 3d f0 3d 9f bf 05 3d
       0.09437951 -0.12527542 0.11730447 0.032653447
0002e0 c7 71 1e be 35 ab 0b 3e a9 88 a3 bd fb 3d d9 bd
       -0.1547309 0.13639529 -0.0798505 -0.10607525
0002f0 1a fc 4d 3d 38 31 8b bd f3 e7 1b be e5 c5 26 be
       0.05028925 -0.06796497 -0.152252 -0.16286428
000300 e9 14 92 3d 57 83 c2 bd 39 22 e6 bd c6 d4 32 3d
       0.071328945 -0.09497707 -0.11236996 0.043659948
000310 c0 fc 94 bc 67 8c 19 be c1 73 8d 3d 24 59 3b bd
       -0.018186927 -0.14994965 0.06906844 -0.045739308
000320 26 53 05 bb 35 9f 00 3d bd 56 9c 3d 04 87 21 3e
       -0.002034375 0.03140183 0.076337315 0.1577416
000330 45 c5 21 be 6a c4 00 be e4 e4 91 bd b8 7a c7 bd
       -0.15797909 -0.12574926 -0.071237355 -0.097402036
000340 63 eb 11 3e 34 0a 87 3d 99 c0 e7 bd 0f 49 a4 bd
       0.14249949 0.06593743 -0.11316032 -0.08021747
000350 07 c8 af 3d c5 86 ee bd c8 eb 21 be ef 8f 8c 3d
       0.08583074 -0.11646799 -0.158126 0.06863391
000360 8e 6b 36 3d 8b 74 dc 3d ee 16 18 3e 98 d7 9a 3c
       0.044536166 0.10764416 0.14852497 0.018901631
000370 47 2f bb 3d 3c c1 fb 3b 5f 47 a4 3d 47 f4 d9 3d
       0.09139877 0.0076829474 0.080214255 0.10642295
000380 ed ed 31 be 91 aa 21 3e b6 5d b2 bc 4f 5f 43 bd
       -0.17375918 0.15787722 -0.0217732 -0.047698315
000390 fe bb 38 be 56 e7 20 be 00 48 f9 bd 61 11 ec bc
       -0.18040463 -0.15713248 -0.12171936 -0.02881688
0003a0 99 f4 ce 3d 05 54 26 be d6 a4 1d bd a8 77 38 bd
       0.10105247 -0.16242988 -0.038487278 -0.045035988
0003b0 91 0b 13 be 23 6b ec 3d 64 8a 19 be 9c a0 58 bd
       -0.14359881 0.11543872 -0.14994198 -0.052887544
0003c0 c7 06 49 3d 06 72 96 bd e7 ac 0d be 5f dc 51 bc
       0.04907873 -0.07345967 -0.13835488 -0.012808888
0003d0 4c 7e 16 3e d5 8b 03 be 69 21 d7 3d 1c 3c fd 3d
       0.14696616 -0.1284631 0.10504419 0.123649806
0003e0 78 c5 38 3e 1f 75 0a be ee 61 fe bc 6f 76 37 3e
       0.18044078 -0.1352124 -0.031052556 0.17916273
0003f0 5b 6b 2a bd 5c fa 78 3d 24 8a 3e 3d 3b 26 38 3e
       -0.04160629 0.060785636 0.04651846 0.17983334
